…
-----------------
Process ID:  8
Number of Nodes:  1
Number of Array Tasks:  16
-----------------
Using device: cuda

AMD Instinct MI210
Memory Usage:
Allocated: 0.0 GB
Cached:    0.0 GB
theta
whole_spec
delta
alpha
beta
Following models where found:

dict_keys(['whole_spec_quantile', 'delta_quantile', 'beta_quantile', 'theta_quantile', 'alpha_quantile'])

Running on device: cuda
Model Architecture:
FeatureImitationNetwork(
  (_FeatureImitationNetwork__stage_1): ModuleDict(
    (whole_spec_quantile): DynamicNeuralNetwork(
      (model_arch): ModuleList(
        (0): Sequential(
          (in_linear): Linear(in_features=2500, out_features=6000, bias=True)
          (in_batch norm): BatchNorm1d(6000, eps=1e-05, momentum=0.1, affine=True, track_running_stats=True)
          (in_activation): ReLU()
          (in_dropout): Dropout(p=0.2, inplace=False)
        )
        (1): Sequential(
          (0_linear): Linear(in_features=6000, out_features=2000, bias=True)
          (0_batch norm): BatchNorm1d(2000, eps=1e-05, momentum=0.1, affine=True, track_running_stats=True)
          (0_activation): ReLU()
          (0_dropout): Dropout(p=0.2, inplace=False)
        )
        (2): Sequential(
          (1_linear): Linear(in_features=2000, out_features=100, bias=True)
          (1_batch norm): BatchNorm1d(100, eps=1e-05, momentum=0.1, affine=True, track_running_stats=True)
          (1_activation): ReLU()
          (1_dropout): Dropout(p=0.2, inplace=False)
        )
      )
    )
    (delta_quantile): DynamicNeuralNetwork(
      (model_arch): ModuleList(
        (0): Sequential(
          (in_linear): Linear(in_features=2500, out_features=6000, bias=True)
          (in_batch norm): BatchNorm1d(6000, eps=1e-05, momentum=0.1, affine=True, track_running_stats=True)
          (in_activation): ReLU()
          (in_dropout): Dropout(p=0.2, inplace=False)
        )
        (1): Sequential(
          (0_linear): Linear(in_features=6000, out_features=2000, bias=True)
          (0_batch norm): BatchNorm1d(2000, eps=1e-05, momentum=0.1, affine=True, track_running_stats=True)
          (0_activation): ReLU()
          (0_dropout): Dropout(p=0.2, inplace=False)
        )
        (2): Sequential(
          (1_linear): Linear(in_features=2000, out_features=100, bias=True)
          (1_batch norm): BatchNorm1d(100, eps=1e-05, momentum=0.1, affine=True, track_running_stats=True)
          (1_activation): ReLU()
          (1_dropout): Dropout(p=0.2, inplace=False)
        )
      )
    )
    (beta_quantile): DynamicNeuralNetwork(
      (model_arch): ModuleList(
        (0): Sequential(
          (in_linear): Linear(in_features=2500, out_features=6000, bias=True)
          (in_batch norm): BatchNorm1d(6000, eps=1e-05, momentum=0.1, affine=True, track_running_stats=True)
          (in_activation): ReLU()
          (in_dropout): Dropout(p=0.2, inplace=False)
        )
        (1): Sequential(
          (0_linear): Linear(in_features=6000, out_features=2000, bias=True)
          (0_batch norm): BatchNorm1d(2000, eps=1e-05, momentum=0.1, affine=True, track_running_stats=True)
          (0_activation): ReLU()
          (0_dropout): Dropout(p=0.2, inplace=False)
        )
        (2): Sequential(
          (1_linear): Linear(in_features=2000, out_features=100, bias=True)
          (1_batch norm): BatchNorm1d(100, eps=1e-05, momentum=0.1, affine=True, track_running_stats=True)
          (1_activation): ReLU()
          (1_dropout): Dropout(p=0.2, inplace=False)
        )
      )
    )
    (theta_quantile): DynamicNeuralNetwork(
      (model_arch): ModuleList(
        (0): Sequential(
          (in_linear): Linear(in_features=2500, out_features=6000, bias=True)
          (in_batch norm): BatchNorm1d(6000, eps=1e-05, momentum=0.1, affine=True, track_running_stats=True)
          (in_activation): ReLU()
          (in_dropout): Dropout(p=0.2, inplace=False)
        )
        (1): Sequential(
          (0_linear): Linear(in_features=6000, out_features=2000, bias=True)
          (0_batch norm): BatchNorm1d(2000, eps=1e-05, momentum=0.1, affine=True, track_running_stats=True)
          (0_activation): ReLU()
          (0_dropout): Dropout(p=0.2, inplace=False)
        )
        (2): Sequential(
          (1_linear): Linear(in_features=2000, out_features=100, bias=True)
          (1_batch norm): BatchNorm1d(100, eps=1e-05, momentum=0.1, affine=True, track_running_stats=True)
          (1_activation): ReLU()
          (1_dropout): Dropout(p=0.2, inplace=False)
        )
      )
    )
    (alpha_quantile): DynamicNeuralNetwork(
      (model_arch): ModuleList(
        (0): Sequential(
          (in_linear): Linear(in_features=2500, out_features=6000, bias=True)
          (in_batch norm): BatchNorm1d(6000, eps=1e-05, momentum=0.1, affine=True, track_running_stats=True)
          (in_activation): ReLU()
          (in_dropout): Dropout(p=0.2, inplace=False)
        )
        (1): Sequential(
          (0_linear): Linear(in_features=6000, out_features=2000, bias=True)
          (0_batch norm): BatchNorm1d(2000, eps=1e-05, momentum=0.1, affine=True, track_running_stats=True)
          (0_activation): ReLU()
          (0_dropout): Dropout(p=0.2, inplace=False)
        )
        (2): Sequential(
          (1_linear): Linear(in_features=2000, out_features=100, bias=True)
          (1_batch norm): BatchNorm1d(100, eps=1e-05, momentum=0.1, affine=True, track_running_stats=True)
          (1_activation): ReLU()
          (1_dropout): Dropout(p=0.2, inplace=False)
        )
      )
    )
  )
  (_FeatureImitationNetwork__stage_2): DynamicNeuralNetwork(
    (model_arch): ModuleList(
      (0): Sequential(
        (in_linear): Linear(in_features=500, out_features=300, bias=True)
        (in_batch norm): BatchNorm1d(300, eps=1e-05, momentum=0.1, affine=True, track_running_stats=True)
        (in_activation): Tanh()
        (in_dropout): Dropout(p=0.4, inplace=False)
      )
      (1): Sequential(
        (0_linear): Linear(in_features=300, out_features=100, bias=True)
        (0_batch norm): BatchNorm1d(100, eps=1e-05, momentum=0.1, affine=True, track_running_stats=True)
        (0_activation): Tanh()
        (0_dropout): Dropout(p=0.4, inplace=False)
      )
      (2): Sequential(
        (out_linear): Linear(in_features=100, out_features=1, bias=True)
      )
    )
  )
)
Running on device: cuda
Model Architecture:
FeatureImitationNetwork(
  (_FeatureImitationNetwork__stage_1): ModuleDict(
    (whole_spec_quantile): DynamicNeuralNetwork(
      (model_arch): ModuleList(
        (0): Sequential(
          (in_linear): Linear(in_features=2500, out_features=6000, bias=True)
          (in_batch norm): BatchNorm1d(6000, eps=1e-05, momentum=0.1, affine=True, track_running_stats=True)
          (in_activation): ReLU()
          (in_dropout): Dropout(p=0.2, inplace=False)
        )
        (1): Sequential(
          (0_linear): Linear(in_features=6000, out_features=2000, bias=True)
          (0_batch norm): BatchNorm1d(2000, eps=1e-05, momentum=0.1, affine=True, track_running_stats=True)
          (0_activation): ReLU()
          (0_dropout): Dropout(p=0.2, inplace=False)
        )
        (2): Sequential(
          (1_linear): Linear(in_features=2000, out_features=100, bias=True)
          (1_batch norm): BatchNorm1d(100, eps=1e-05, momentum=0.1, affine=True, track_running_stats=True)
          (1_activation): ReLU()
          (1_dropout): Dropout(p=0.2, inplace=False)
        )
      )
    )
    (delta_quantile): DynamicNeuralNetwork(
      (model_arch): ModuleList(
        (0): Sequential(
          (in_linear): Linear(in_features=2500, out_features=6000, bias=True)
          (in_batch norm): BatchNorm1d(6000, eps=1e-05, momentum=0.1, affine=True, track_running_stats=True)
          (in_activation): ReLU()
          (in_dropout): Dropout(p=0.2, inplace=False)
        )
        (1): Sequential(
          (0_linear): Linear(in_features=6000, out_features=2000, bias=True)
          (0_batch norm): BatchNorm1d(2000, eps=1e-05, momentum=0.1, affine=True, track_running_stats=True)
          (0_activation): ReLU()
          (0_dropout): Dropout(p=0.2, inplace=False)
        )
        (2): Sequential(
          (1_linear): Linear(in_features=2000, out_features=100, bias=True)
          (1_batch norm): BatchNorm1d(100, eps=1e-05, momentum=0.1, affine=True, track_running_stats=True)
          (1_activation): ReLU()
          (1_dropout): Dropout(p=0.2, inplace=False)
        )
      )
    )
    (beta_quantile): DynamicNeuralNetwork(
      (model_arch): ModuleList(
        (0): Sequential(
          (in_linear): Linear(in_features=2500, out_features=6000, bias=True)
          (in_batch norm): BatchNorm1d(6000, eps=1e-05, momentum=0.1, affine=True, track_running_stats=True)
          (in_activation): ReLU()
          (in_dropout): Dropout(p=0.2, inplace=False)
        )
        (1): Sequential(
          (0_linear): Linear(in_features=6000, out_features=2000, bias=True)
          (0_batch norm): BatchNorm1d(2000, eps=1e-05, momentum=0.1, affine=True, track_running_stats=True)
          (0_activation): ReLU()
          (0_dropout): Dropout(p=0.2, inplace=False)
        )
        (2): Sequential(
          (1_linear): Linear(in_features=2000, out_features=100, bias=True)
          (1_batch norm): BatchNorm1d(100, eps=1e-05, momentum=0.1, affine=True, track_running_stats=True)
          (1_activation): ReLU()
          (1_dropout): Dropout(p=0.2, inplace=False)
        )
      )
    )
    (theta_quantile): DynamicNeuralNetwork(
      (model_arch): ModuleList(
        (0): Sequential(
          (in_linear): Linear(in_features=2500, out_features=6000, bias=True)
          (in_batch norm): BatchNorm1d(6000, eps=1e-05, momentum=0.1, affine=True, track_running_stats=True)
          (in_activation): ReLU()
          (in_dropout): Dropout(p=0.2, inplace=False)
        )
        (1): Sequential(
          (0_linear): Linear(in_features=6000, out_features=2000, bias=True)
          (0_batch norm): BatchNorm1d(2000, eps=1e-05, momentum=0.1, affine=True, track_running_stats=True)
          (0_activation): ReLU()
          (0_dropout): Dropout(p=0.2, inplace=False)
        )
        (2): Sequential(
          (1_linear): Linear(in_features=2000, out_features=100, bias=True)
          (1_batch norm): BatchNorm1d(100, eps=1e-05, momentum=0.1, affine=True, track_running_stats=True)
          (1_activation): ReLU()
          (1_dropout): Dropout(p=0.2, inplace=False)
        )
      )
    )
    (alpha_quantile): DynamicNeuralNetwork(
      (model_arch): ModuleList(
        (0): Sequential(
          (in_linear): Linear(in_features=2500, out_features=6000, bias=True)
          (in_batch norm): BatchNorm1d(6000, eps=1e-05, momentum=0.1, affine=True, track_running_stats=True)
          (in_activation): ReLU()
          (in_dropout): Dropout(p=0.2, inplace=False)
        )
        (1): Sequential(
          (0_linear): Linear(in_features=6000, out_features=2000, bias=True)
          (0_batch norm): BatchNorm1d(2000, eps=1e-05, momentum=0.1, affine=True, track_running_stats=True)
          (0_activation): ReLU()
          (0_dropout): Dropout(p=0.2, inplace=False)
        )
        (2): Sequential(
          (1_linear): Linear(in_features=2000, out_features=100, bias=True)
          (1_batch norm): BatchNorm1d(100, eps=1e-05, momentum=0.1, affine=True, track_running_stats=True)
          (1_activation): ReLU()
          (1_dropout): Dropout(p=0.2, inplace=False)
        )
      )
    )
  )
  (_FeatureImitationNetwork__stage_2): DynamicNeuralNetwork(
    (model_arch): ModuleList(
      (0): Sequential(
        (in_linear): Linear(in_features=500, out_features=300, bias=True)
        (in_batch norm): BatchNorm1d(300, eps=1e-05, momentum=0.1, affine=True, track_running_stats=True)
        (in_activation): Tanh()
        (in_dropout): Dropout(p=0.4, inplace=False)
      )
      (1): Sequential(
        (0_linear): Linear(in_features=300, out_features=100, bias=True)
        (0_batch norm): BatchNorm1d(100, eps=1e-05, momentum=0.1, affine=True, track_running_stats=True)
        (0_activation): Tanh()
        (0_dropout): Dropout(p=0.4, inplace=False)
      )
      (2): Sequential(
        (out_linear): Linear(in_features=100, out_features=1, bias=True)
      )
    )
  )
)
[94mOptimizer Parameters:[0m
    [96mlearning rate [0m: 0.005050000000000001
    [96mmomentum      [0m: 0.1
    [96mweight decay  [0m: 0.001
[1mStep[0m  [0/106], [94mLoss[0m : 10.86201
[1mStep[0m  [10/106], [94mLoss[0m : 10.88459
[1mStep[0m  [20/106], [94mLoss[0m : 10.65788
[1mStep[0m  [30/106], [94mLoss[0m : 10.41434
…
epochs                    30
activation              tanh
optimizer                sgd
early stopping         False
dropout                  0.4
momentum                 0.1
weight_decay           0.001
Name: 0, dtype: object
Following models where found:

dict_keys(['whole_spec_quantile', 'delta_quantile', 'beta_quantile', 'theta_quantile', 'alpha_quantile'])

Running on device: cuda
Model Architecture:
FeatureImitationNetwork(
  (_FeatureImitationNetwork__stage_1): ModuleDict(
    (whole_spec_quantile): DynamicNeuralNetwork(
      (model_arch): ModuleList(
        (0): Sequential(
          (in_linear): Linear(in_features=2500, out_features=6000, bias=True)
          (in_batch norm): BatchNorm1d(6000, eps=1e-05, momentum=0.1, affine=True, track_running_stats=True)
          (in_activation): ReLU()
          (in_dropout): Dropout(p=0.2, inplace=False)
        )
        (1): Sequential(
          (0_linear): Linear(in_features=6000, out_features=2000, bias=True)
          (0_batch norm): BatchNorm1d(2000, eps=1e-05, momentum=0.1, affine=True, track_running_stats=True)
          (0_activation): ReLU()
          (0_dropout): Dropout(p=0.2, inplace=False)
        )
        (2): Sequential(
          (1_linear): Linear(in_features=2000, out_features=100, bias=True)
          (1_batch norm): BatchNorm1d(100, eps=1e-05, momentum=0.1, affine=True, track_running_stats=True)
          (1_activation): ReLU()
          (1_dropout): Dropout(p=0.2, inplace=False)
        )
      )
    )
    (delta_quantile): DynamicNeuralNetwork(
      (model_arch): ModuleList(
        (0): Sequential(
          (in_linear): Linear(in_features=2500, out_features=6000, bias=True)
          (in_batch norm): BatchNorm1d(6000, eps=1e-05, momentum=0.1, affine=True, track_running_stats=True)
          (in_activation): ReLU()
          (in_dropout): Dropout(p=0.2, inplace=False)
        )
        (1): Sequential(
          (0_linear): Linear(in_features=6000, out_features=2000, bias=True)
          (0_batch norm): BatchNorm1d(2000, eps=1e-05, momentum=0.1, affine=True, track_running_stats=True)
          (0_activation): ReLU()
          (0_dropout): Dropout(p=0.2, inplace=False)
        )
        (2): Sequential(
          (1_linear): Linear(in_features=2000, out_features=100, bias=True)
          (1_batch norm): BatchNorm1d(100, eps=1e-05, momentum=0.1, affine=True, track_running_stats=True)
          (1_activation): ReLU()
          (1_dropout): Dropout(p=0.2, inplace=False)
        )
      )
    )
    (beta_quantile): DynamicNeuralNetwork(
      (model_arch): ModuleList(
        (0): Sequential(
          (in_linear): Linear(in_features=2500, out_features=6000, bias=True)
          (in_batch norm): BatchNorm1d(6000, eps=1e-05, momentum=0.1, affine=True, track_running_stats=True)
          (in_activation): ReLU()
          (in_dropout): Dropout(p=0.2, inplace=False)
        )
        (1): Sequential(
          (0_linear): Linear(in_features=6000, out_features=2000, bias=True)
          (0_batch norm): BatchNorm1d(2000, eps=1e-05, momentum=0.1, affine=True, track_running_stats=True)
          (0_activation): ReLU()
          (0_dropout): Dropout(p=0.2, inplace=False)
        )
        (2): Sequential(
          (1_linear): Linear(in_features=2000, out_features=100, bias=True)
          (1_batch norm): BatchNorm1d(100, eps=1e-05, momentum=0.1, affine=True, track_running_stats=True)
          (1_activation): ReLU()
          (1_dropout): Dropout(p=0.2, inplace=False)
        )
      )
    )
    (theta_quantile): DynamicNeuralNetwork(
      (model_arch): ModuleList(
        (0): Sequential(
          (in_linear): Linear(in_features=2500, out_features=6000, bias=True)
          (in_batch norm): BatchNorm1d(6000, eps=1e-05, momentum=0.1, affine=True, track_running_stats=True)
          (in_activation): ReLU()
          (in_dropout): Dropout(p=0.2, inplace=False)
        )
        (1): Sequential(
          (0_linear): Linear(in_features=6000, out_features=2000, bias=True)
          (0_batch norm): BatchNorm1d(2000, eps=1e-05, momentum=0.1, affine=True, track_running_stats=True)
          (0_activation): ReLU()
          (0_dropout): Dropout(p=0.2, inplace=False)
        )
        (2): Sequential(
          (1_linear): Linear(in_features=2000, out_features=100, bias=True)
          (1_batch norm): BatchNorm1d(100, eps=1e-05, momentum=0.1, affine=True, track_running_stats=True)
          (1_activation): ReLU()
          (1_dropout): Dropout(p=0.2, inplace=False)
        )
      )
    )
    (alpha_quantile): DynamicNeuralNetwork(
      (model_arch): ModuleList(
        (0): Sequential(
          (in_linear): Linear(in_features=2500, out_features=6000, bias=True)
          (in_batch norm): BatchNorm1d(6000, eps=1e-05, momentum=0.1, affine=True, track_running_stats=True)
          (in_activation): ReLU()
          (in_dropout): Dropout(p=0.2, inplace=False)
        )
        (1): Sequential(
          (0_linear): Linear(in_features=6000, out_features=2000, bias=True)
          (0_batch norm): BatchNorm1d(2000, eps=1e-05, momentum=0.1, affine=True, track_running_stats=True)
          (0_activation): ReLU()
          (0_dropout): Dropout(p=0.2, inplace=False)
        )
        (2): Sequential(
          (1_linear): Linear(in_features=2000, out_features=100, bias=True)
          (1_batch norm): BatchNorm1d(100, eps=1e-05, momentum=0.1, affine=True, track_running_stats=True)
          (1_activation): ReLU()
          (1_dropout): Dropout(p=0.2, inplace=False)
        )
      )
    )
  )
  (_FeatureImitationNetwork__stage_2): DynamicNeuralNetwork(
    (model_arch): ModuleList(
      (0): Sequential(
        (in_linear): Linear(in_features=500, out_features=300, bias=True)
        (in_batch norm): BatchNorm1d(300, eps=1e-05, momentum=0.1, affine=True, track_running_stats=True)
        (in_activation): ReLU()
        (in_dropout): Dropout(p=0.4, inplace=False)
      )
      (1): Sequential(
        (out_linear): Linear(in_features=300, out_features=1, bias=True)
      )
    )
  )
)
Running on device: cuda
Model Architecture:
FeatureImitationNetwork(
  (_FeatureImitationNetwork__stage_1): ModuleDict(
    (whole_spec_quantile): DynamicNeuralNetwork(
      (model_arch): ModuleList(
        (0): Sequential(
          (in_linear): Linear(in_features=2500, out_features=6000, bias=True)
          (in_batch norm): BatchNorm1d(6000, eps=1e-05, momentum=0.1, affine=True, track_running_stats=True)
          (in_activation): ReLU()
          (in_dropout): Dropout(p=0.2, inplace=False)
        )
        (1): Sequential(
          (0_linear): Linear(in_features=6000, out_features=2000, bias=True)
          (0_batch norm): BatchNorm1d(2000, eps=1e-05, momentum=0.1, affine=True, track_running_stats=True)
          (0_activation): ReLU()
          (0_dropout): Dropout(p=0.2, inplace=False)
        )
        (2): Sequential(
          (1_linear): Linear(in_features=2000, out_features=100, bias=True)
          (1_batch norm): BatchNorm1d(100, eps=1e-05, momentum=0.1, affine=True, track_running_stats=True)
          (1_activation): ReLU()
          (1_dropout): Dropout(p=0.2, inplace=False)
        )
      )
    )
    (delta_quantile): DynamicNeuralNetwork(
      (model_arch): ModuleList(
        (0): Sequential(
          (in_linear): Linear(in_features=2500, out_features=6000, bias=True)
          (in_batch norm): BatchNorm1d(6000, eps=1e-05, momentum=0.1, affine=True, track_running_stats=True)
          (in_activation): ReLU()
          (in_dropout): Dropout(p=0.2, inplace=False)
        )
        (1): Sequential(
          (0_linear): Linear(in_features=6000, out_features=2000, bias=True)
          (0_batch norm): BatchNorm1d(2000, eps=1e-05, momentum=0.1, affine=True, track_running_stats=True)
          (0_activation): ReLU()
          (0_dropout): Dropout(p=0.2, inplace=False)
        )
        (2): Sequential(
          (1_linear): Linear(in_features=2000, out_features=100, bias=True)
          (1_batch norm): BatchNorm1d(100, eps=1e-05, momentum=0.1, affine=True, track_running_stats=True)
          (1_activation): ReLU()
          (1_dropout): Dropout(p=0.2, inplace=False)
        )
      )
    )
    (beta_quantile): DynamicNeuralNetwork(
      (model_arch): ModuleList(
        (0): Sequential(
          (in_linear): Linear(in_features=2500, out_features=6000, bias=True)
          (in_batch norm): BatchNorm1d(6000, eps=1e-05, momentum=0.1, affine=True, track_running_stats=True)
          (in_activation): ReLU()
          (in_dropout): Dropout(p=0.2, inplace=False)
        )
        (1): Sequential(
          (0_linear): Linear(in_features=6000, out_features=2000, bias=True)
          (0_batch norm): BatchNorm1d(2000, eps=1e-05, momentum=0.1, affine=True, track_running_stats=True)
          (0_activation): ReLU()
          (0_dropout): Dropout(p=0.2, inplace=False)
        )
        (2): Sequential(
          (1_linear): Linear(in_features=2000, out_features=100, bias=True)
          (1_batch norm): BatchNorm1d(100, eps=1e-05, momentum=0.1, affine=True, track_running_stats=True)
          (1_activation): ReLU()
          (1_dropout): Dropout(p=0.2, inplace=False)
        )
      )
    )
    (theta_quantile): DynamicNeuralNetwork(
      (model_arch): ModuleList(
        (0): Sequential(
          (in_linear): Linear(in_features=2500, out_features=6000, bias=True)
          (in_batch norm): BatchNorm1d(6000, eps=1e-05, momentum=0.1, affine=True, track_running_stats=True)
          (in_activation): ReLU()
          (in_dropout): Dropout(p=0.2, inplace=False)
        )
        (1): Sequential(
          (0_linear): Linear(in_features=6000, out_features=2000, bias=True)
          (0_batch norm): BatchNorm1d(2000, eps=1e-05, momentum=0.1, affine=True, track_running_stats=True)
          (0_activation): ReLU()
          (0_dropout): Dropout(p=0.2, inplace=False)
        )
        (2): Sequential(
          (1_linear): Linear(in_features=2000, out_features=100, bias=True)
          (1_batch norm): BatchNorm1d(100, eps=1e-05, momentum=0.1, affine=True, track_running_stats=True)
          (1_activation): ReLU()
          (1_dropout): Dropout(p=0.2, inplace=False)
        )
      )
    )
    (alpha_quantile): DynamicNeuralNetwork(
      (model_arch): ModuleList(
        (0): Sequential(
          (in_linear): Linear(in_features=2500, out_features=6000, bias=True)
          (in_batch norm): BatchNorm1d(6000, eps=1e-05, momentum=0.1, affine=True, track_running_stats=True)
          (in_activation): ReLU()
          (in_dropout): Dropout(p=0.2, inplace=False)
        )
        (1): Sequential(
          (0_linear): Linear(in_features=6000, out_features=2000, bias=True)
          (0_batch norm): BatchNorm1d(2000, eps=1e-05, momentum=0.1, affine=True, track_running_stats=True)
          (0_activation): ReLU()
          (0_dropout): Dropout(p=0.2, inplace=False)
        )
        (2): Sequential(
          (1_linear): Linear(in_features=2000, out_features=100, bias=True)
          (1_batch norm): BatchNorm1d(100, eps=1e-05, momentum=0.1, affine=True, track_running_stats=True)
          (1_activation): ReLU()
          (1_dropout): Dropout(p=0.2, inplace=False)
        )
      )
    )
  )
  (_FeatureImitationNetwork__stage_2): DynamicNeuralNetwork(
    (model_arch): ModuleList(
      (0): Sequential(
        (in_linear): Linear(in_features=500, out_features=300, bias=True)
        (in_batch norm): BatchNorm1d(300, eps=1e-05, momentum=0.1, affine=True, track_running_stats=True)
        (in_activation): ReLU()
        (in_dropout): Dropout(p=0.4, inplace=False)
      )
      (1): Sequential(
        (out_linear): Linear(in_features=300, out_features=1, bias=True)
      )
    )
  )
)
[94mOptimizer Parameters:[0m
    [96mlearning rate [0m: 0.005050000000000001
    [96mmomentum      [0m: 0.9
    [96mweight decay  [0m: 0.01
[1mStep[0m  [0/26], [94mLoss[0m : 10.94882
[1mStep[0m  [2/26], [94mLoss[0m : 9.79128
[1mStep[0m  [4/26], [94mLoss[0m : 8.78089
[1mStep[0m  [6/26], [94mLoss[0m : 6.67998
[1mStep[0m  [8/26], [94mLoss[0m : 5.00680
…
hidden_sizes         [300]
epochs                  30
activation            relu
optimizer              sgd
early stopping        True
dropout                0.4
momentum               0.9
weight_decay          0.01
Name: 1, dtype: object
Following models where found:

dict_keys(['whole_spec_quantile', 'delta_quantile', 'beta_quantile', 'theta_quantile', 'alpha_quantile'])

Running on device: cuda
Model Architecture:
FeatureImitationNetwork(
  (_FeatureImitationNetwork__stage_1): ModuleDict(
    (whole_spec_quantile): DynamicNeuralNetwork(
      (model_arch): ModuleList(
        (0): Sequential(
          (in_linear): Linear(in_features=2500, out_features=6000, bias=True)
          (in_batch norm): BatchNorm1d(6000, eps=1e-05, momentum=0.1, affine=True, track_running_stats=True)
          (in_activation): ReLU()
          (in_dropout): Dropout(p=0.2, inplace=False)
        )
        (1): Sequential(
          (0_linear): Linear(in_features=6000, out_features=2000, bias=True)
          (0_batch norm): BatchNorm1d(2000, eps=1e-05, momentum=0.1, affine=True, track_running_stats=True)
          (0_activation): ReLU()
          (0_dropout): Dropout(p=0.2, inplace=False)
        )
        (2): Sequential(
          (1_linear): Linear(in_features=2000, out_features=100, bias=True)
          (1_batch norm): BatchNorm1d(100, eps=1e-05, momentum=0.1, affine=True, track_running_stats=True)
          (1_activation): ReLU()
          (1_dropout): Dropout(p=0.2, inplace=False)
        )
      )
    )
    (delta_quantile): DynamicNeuralNetwork(
      (model_arch): ModuleList(
        (0): Sequential(
          (in_linear): Linear(in_features=2500, out_features=6000, bias=True)
          (in_batch norm): BatchNorm1d(6000, eps=1e-05, momentum=0.1, affine=True, track_running_stats=True)
          (in_activation): ReLU()
          (in_dropout): Dropout(p=0.2, inplace=False)
        )
        (1): Sequential(
          (0_linear): Linear(in_features=6000, out_features=2000, bias=True)
          (0_batch norm): BatchNorm1d(2000, eps=1e-05, momentum=0.1, affine=True, track_running_stats=True)
          (0_activation): ReLU()
          (0_dropout): Dropout(p=0.2, inplace=False)
        )
        (2): Sequential(
          (1_linear): Linear(in_features=2000, out_features=100, bias=True)
          (1_batch norm): BatchNorm1d(100, eps=1e-05, momentum=0.1, affine=True, track_running_stats=True)
          (1_activation): ReLU()
          (1_dropout): Dropout(p=0.2, inplace=False)
        )
      )
    )
    (beta_quantile): DynamicNeuralNetwork(
      (model_arch): ModuleList(
        (0): Sequential(
          (in_linear): Linear(in_features=2500, out_features=6000, bias=True)
          (in_batch norm): BatchNorm1d(6000, eps=1e-05, momentum=0.1, affine=True, track_running_stats=True)
          (in_activation): ReLU()
          (in_dropout): Dropout(p=0.2, inplace=False)
        )
        (1): Sequential(
          (0_linear): Linear(in_features=6000, out_features=2000, bias=True)
          (0_batch norm): BatchNorm1d(2000, eps=1e-05, momentum=0.1, affine=True, track_running_stats=True)
          (0_activation): ReLU()
          (0_dropout): Dropout(p=0.2, inplace=False)
        )
        (2): Sequential(
          (1_linear): Linear(in_features=2000, out_features=100, bias=True)
          (1_batch norm): BatchNorm1d(100, eps=1e-05, momentum=0.1, affine=True, track_running_stats=True)
          (1_activation): ReLU()
          (1_dropout): Dropout(p=0.2, inplace=False)
        )
      )
    )
    (theta_quantile): DynamicNeuralNetwork(
      (model_arch): ModuleList(
        (0): Sequential(
          (in_linear): Linear(in_features=2500, out_features=6000, bias=True)
          (in_batch norm): BatchNorm1d(6000, eps=1e-05, momentum=0.1, affine=True, track_running_stats=True)
          (in_activation): ReLU()
          (in_dropout): Dropout(p=0.2, inplace=False)
        )
        (1): Sequential(
          (0_linear): Linear(in_features=6000, out_features=2000, bias=True)
          (0_batch norm): BatchNorm1d(2000, eps=1e-05, momentum=0.1, affine=True, track_running_stats=True)
          (0_activation): ReLU()
          (0_dropout): Dropout(p=0.2, inplace=False)
        )
        (2): Sequential(
          (1_linear): Linear(in_features=2000, out_features=100, bias=True)
          (1_batch norm): BatchNorm1d(100, eps=1e-05, momentum=0.1, affine=True, track_running_stats=True)
          (1_activation): ReLU()
          (1_dropout): Dropout(p=0.2, inplace=False)
        )
      )
    )
    (alpha_quantile): DynamicNeuralNetwork(
      (model_arch): ModuleList(
        (0): Sequential(
          (in_linear): Linear(in_features=2500, out_features=6000, bias=True)
          (in_batch norm): BatchNorm1d(6000, eps=1e-05, momentum=0.1, affine=True, track_running_stats=True)
          (in_activation): ReLU()
          (in_dropout): Dropout(p=0.2, inplace=False)
        )
        (1): Sequential(
          (0_linear): Linear(in_features=6000, out_features=2000, bias=True)
          (0_batch norm): BatchNorm1d(2000, eps=1e-05, momentum=0.1, affine=True, track_running_stats=True)
          (0_activation): ReLU()
          (0_dropout): Dropout(p=0.2, inplace=False)
        )
        (2): Sequential(
          (1_linear): Linear(in_features=2000, out_features=100, bias=True)
          (1_batch norm): BatchNorm1d(100, eps=1e-05, momentum=0.1, affine=True, track_running_stats=True)
          (1_activation): ReLU()
          (1_dropout): Dropout(p=0.2, inplace=False)
        )
      )
    )
  )
  (_FeatureImitationNetwork__stage_2): DynamicNeuralNetwork(
    (model_arch): ModuleList(
      (0): Sequential(
        (in_linear): Linear(in_features=500, out_features=250, bias=True)
        (in_batch norm): BatchNorm1d(250, eps=1e-05, momentum=0.1, affine=True, track_running_stats=True)
        (in_activation): Sigmoid()
        (in_dropout): Dropout(p=0.2, inplace=False)
      )
      (1): Sequential(
        (out_linear): Linear(in_features=250, out_features=1, bias=True)
      )
    )
  )
)
Running on device: cuda
Model Architecture:
FeatureImitationNetwork(
  (_FeatureImitationNetwork__stage_1): ModuleDict(
    (whole_spec_quantile): DynamicNeuralNetwork(
      (model_arch): ModuleList(
        (0): Sequential(
          (in_linear): Linear(in_features=2500, out_features=6000, bias=True)
          (in_batch norm): BatchNorm1d(6000, eps=1e-05, momentum=0.1, affine=True, track_running_stats=True)
          (in_activation): ReLU()
          (in_dropout): Dropout(p=0.2, inplace=False)
        )
        (1): Sequential(
          (0_linear): Linear(in_features=6000, out_features=2000, bias=True)
          (0_batch norm): BatchNorm1d(2000, eps=1e-05, momentum=0.1, affine=True, track_running_stats=True)
          (0_activation): ReLU()
          (0_dropout): Dropout(p=0.2, inplace=False)
        )
        (2): Sequential(
          (1_linear): Linear(in_features=2000, out_features=100, bias=True)
          (1_batch norm): BatchNorm1d(100, eps=1e-05, momentum=0.1, affine=True, track_running_stats=True)
          (1_activation): ReLU()
          (1_dropout): Dropout(p=0.2, inplace=False)
        )
      )
    )
    (delta_quantile): DynamicNeuralNetwork(
      (model_arch): ModuleList(
        (0): Sequential(
          (in_linear): Linear(in_features=2500, out_features=6000, bias=True)
          (in_batch norm): BatchNorm1d(6000, eps=1e-05, momentum=0.1, affine=True, track_running_stats=True)
          (in_activation): ReLU()
          (in_dropout): Dropout(p=0.2, inplace=False)
        )
        (1): Sequential(
          (0_linear): Linear(in_features=6000, out_features=2000, bias=True)
          (0_batch norm): BatchNorm1d(2000, eps=1e-05, momentum=0.1, affine=True, track_running_stats=True)
          (0_activation): ReLU()
          (0_dropout): Dropout(p=0.2, inplace=False)
        )
        (2): Sequential(
          (1_linear): Linear(in_features=2000, out_features=100, bias=True)
          (1_batch norm): BatchNorm1d(100, eps=1e-05, momentum=0.1, affine=True, track_running_stats=True)
          (1_activation): ReLU()
          (1_dropout): Dropout(p=0.2, inplace=False)
        )
      )
    )
    (beta_quantile): DynamicNeuralNetwork(
      (model_arch): ModuleList(
        (0): Sequential(
          (in_linear): Linear(in_features=2500, out_features=6000, bias=True)
          (in_batch norm): BatchNorm1d(6000, eps=1e-05, momentum=0.1, affine=True, track_running_stats=True)
          (in_activation): ReLU()
          (in_dropout): Dropout(p=0.2, inplace=False)
        )
        (1): Sequential(
          (0_linear): Linear(in_features=6000, out_features=2000, bias=True)
          (0_batch norm): BatchNorm1d(2000, eps=1e-05, momentum=0.1, affine=True, track_running_stats=True)
          (0_activation): ReLU()
          (0_dropout): Dropout(p=0.2, inplace=False)
        )
        (2): Sequential(
          (1_linear): Linear(in_features=2000, out_features=100, bias=True)
          (1_batch norm): BatchNorm1d(100, eps=1e-05, momentum=0.1, affine=True, track_running_stats=True)
          (1_activation): ReLU()
          (1_dropout): Dropout(p=0.2, inplace=False)
        )
      )
    )
    (theta_quantile): DynamicNeuralNetwork(
      (model_arch): ModuleList(
        (0): Sequential(
          (in_linear): Linear(in_features=2500, out_features=6000, bias=True)
          (in_batch norm): BatchNorm1d(6000, eps=1e-05, momentum=0.1, affine=True, track_running_stats=True)
          (in_activation): ReLU()
          (in_dropout): Dropout(p=0.2, inplace=False)
        )
        (1): Sequential(
          (0_linear): Linear(in_features=6000, out_features=2000, bias=True)
          (0_batch norm): BatchNorm1d(2000, eps=1e-05, momentum=0.1, affine=True, track_running_stats=True)
          (0_activation): ReLU()
          (0_dropout): Dropout(p=0.2, inplace=False)
        )
        (2): Sequential(
          (1_linear): Linear(in_features=2000, out_features=100, bias=True)
          (1_batch norm): BatchNorm1d(100, eps=1e-05, momentum=0.1, affine=True, track_running_stats=True)
          (1_activation): ReLU()
          (1_dropout): Dropout(p=0.2, inplace=False)
        )
      )
    )
    (alpha_quantile): DynamicNeuralNetwork(
      (model_arch): ModuleList(
        (0): Sequential(
          (in_linear): Linear(in_features=2500, out_features=6000, bias=True)
          (in_batch norm): BatchNorm1d(6000, eps=1e-05, momentum=0.1, affine=True, track_running_stats=True)
          (in_activation): ReLU()
          (in_dropout): Dropout(p=0.2, inplace=False)
        )
        (1): Sequential(
          (0_linear): Linear(in_features=6000, out_features=2000, bias=True)
          (0_batch norm): BatchNorm1d(2000, eps=1e-05, momentum=0.1, affine=True, track_running_stats=True)
          (0_activation): ReLU()
          (0_dropout): Dropout(p=0.2, inplace=False)
        )
        (2): Sequential(
          (1_linear): Linear(in_features=2000, out_features=100, bias=True)
          (1_batch norm): BatchNorm1d(100, eps=1e-05, momentum=0.1, affine=True, track_running_stats=True)
          (1_activation): ReLU()
          (1_dropout): Dropout(p=0.2, inplace=False)
        )
      )
    )
  )
  (_FeatureImitationNetwork__stage_2): DynamicNeuralNetwork(
    (model_arch): ModuleList(
      (0): Sequential(
        (in_linear): Linear(in_features=500, out_features=250, bias=True)
        (in_batch norm): BatchNorm1d(250, eps=1e-05, momentum=0.1, affine=True, track_running_stats=True)
        (in_activation): Sigmoid()
        (in_dropout): Dropout(p=0.2, inplace=False)
      )
      (1): Sequential(
        (out_linear): Linear(in_features=250, out_features=1, bias=True)
      )
    )
  )
)
[94mOptimizer Parameters:[0m
    [96mlearning rate [0m: 0.005050000000000001
    [96mmomentum      [0m: 0.1
    [96mweight decay  [0m: 0.0001
[1mStep[0m  [0/53], [94mLoss[0m : 11.49498
[1mStep[0m  [5/53], [94mLoss[0m : 9.17547
[1mStep[0m  [10/53], [94mLoss[0m : 7.62144
[1mStep[0m  [15/53], [94mLoss[0m : 5.62164
…
hidden_sizes         [250]
epochs                  30
activation         sigmoid
optimizer              sgd
early stopping       False
dropout                0.2
momentum               0.1
weight_decay        0.0001
Name: 2, dtype: object
Following models where found:

dict_keys(['whole_spec_quantile', 'delta_quantile', 'beta_quantile', 'theta_quantile', 'alpha_quantile'])

Running on device: cuda
Model Architecture:
FeatureImitationNetwork(
  (_FeatureImitationNetwork__stage_1): ModuleDict(
    (whole_spec_quantile): DynamicNeuralNetwork(
      (model_arch): ModuleList(
        (0): Sequential(
          (in_linear): Linear(in_features=2500, out_features=6000, bias=True)
          (in_batch norm): BatchNorm1d(6000, eps=1e-05, momentum=0.1, affine=True, track_running_stats=True)
          (in_activation): ReLU()
          (in_dropout): Dropout(p=0.2, inplace=False)
        )
        (1): Sequential(
          (0_linear): Linear(in_features=6000, out_features=2000, bias=True)
          (0_batch norm): BatchNorm1d(2000, eps=1e-05, momentum=0.1, affine=True, track_running_stats=True)
          (0_activation): ReLU()
          (0_dropout): Dropout(p=0.2, inplace=False)
        )
        (2): Sequential(
          (1_linear): Linear(in_features=2000, out_features=100, bias=True)
          (1_batch norm): BatchNorm1d(100, eps=1e-05, momentum=0.1, affine=True, track_running_stats=True)
          (1_activation): ReLU()
          (1_dropout): Dropout(p=0.2, inplace=False)
        )
      )
    )
    (delta_quantile): DynamicNeuralNetwork(
      (model_arch): ModuleList(
        (0): Sequential(
          (in_linear): Linear(in_features=2500, out_features=6000, bias=True)
          (in_batch norm): BatchNorm1d(6000, eps=1e-05, momentum=0.1, affine=True, track_running_stats=True)
          (in_activation): ReLU()
          (in_dropout): Dropout(p=0.2, inplace=False)
        )
        (1): Sequential(
          (0_linear): Linear(in_features=6000, out_features=2000, bias=True)
          (0_batch norm): BatchNorm1d(2000, eps=1e-05, momentum=0.1, affine=True, track_running_stats=True)
          (0_activation): ReLU()
          (0_dropout): Dropout(p=0.2, inplace=False)
        )
        (2): Sequential(
          (1_linear): Linear(in_features=2000, out_features=100, bias=True)
          (1_batch norm): BatchNorm1d(100, eps=1e-05, momentum=0.1, affine=True, track_running_stats=True)
          (1_activation): ReLU()
          (1_dropout): Dropout(p=0.2, inplace=False)
        )
      )
    )
    (beta_quantile): DynamicNeuralNetwork(
      (model_arch): ModuleList(
        (0): Sequential(
          (in_linear): Linear(in_features=2500, out_features=6000, bias=True)
          (in_batch norm): BatchNorm1d(6000, eps=1e-05, momentum=0.1, affine=True, track_running_stats=True)
          (in_activation): ReLU()
          (in_dropout): Dropout(p=0.2, inplace=False)
        )
        (1): Sequential(
          (0_linear): Linear(in_features=6000, out_features=2000, bias=True)
          (0_batch norm): BatchNorm1d(2000, eps=1e-05, momentum=0.1, affine=True, track_running_stats=True)
          (0_activation): ReLU()
          (0_dropout): Dropout(p=0.2, inplace=False)
        )
        (2): Sequential(
          (1_linear): Linear(in_features=2000, out_features=100, bias=True)
          (1_batch norm): BatchNorm1d(100, eps=1e-05, momentum=0.1, affine=True, track_running_stats=True)
          (1_activation): ReLU()
          (1_dropout): Dropout(p=0.2, inplace=False)
        )
      )
    )
    (theta_quantile): DynamicNeuralNetwork(
      (model_arch): ModuleList(
        (0): Sequential(
          (in_linear): Linear(in_features=2500, out_features=6000, bias=True)
          (in_batch norm): BatchNorm1d(6000, eps=1e-05, momentum=0.1, affine=True, track_running_stats=True)
          (in_activation): ReLU()
          (in_dropout): Dropout(p=0.2, inplace=False)
        )
        (1): Sequential(
          (0_linear): Linear(in_features=6000, out_features=2000, bias=True)
          (0_batch norm): BatchNorm1d(2000, eps=1e-05, momentum=0.1, affine=True, track_running_stats=True)
          (0_activation): ReLU()
          (0_dropout): Dropout(p=0.2, inplace=False)
        )
        (2): Sequential(
          (1_linear): Linear(in_features=2000, out_features=100, bias=True)
          (1_batch norm): BatchNorm1d(100, eps=1e-05, momentum=0.1, affine=True, track_running_stats=True)
          (1_activation): ReLU()
          (1_dropout): Dropout(p=0.2, inplace=False)
        )
      )
    )
    (alpha_quantile): DynamicNeuralNetwork(
      (model_arch): ModuleList(
        (0): Sequential(
          (in_linear): Linear(in_features=2500, out_features=6000, bias=True)
          (in_batch norm): BatchNorm1d(6000, eps=1e-05, momentum=0.1, affine=True, track_running_stats=True)
          (in_activation): ReLU()
          (in_dropout): Dropout(p=0.2, inplace=False)
        )
        (1): Sequential(
          (0_linear): Linear(in_features=6000, out_features=2000, bias=True)
          (0_batch norm): BatchNorm1d(2000, eps=1e-05, momentum=0.1, affine=True, track_running_stats=True)
          (0_activation): ReLU()
          (0_dropout): Dropout(p=0.2, inplace=False)
        )
        (2): Sequential(
          (1_linear): Linear(in_features=2000, out_features=100, bias=True)
          (1_batch norm): BatchNorm1d(100, eps=1e-05, momentum=0.1, affine=True, track_running_stats=True)
          (1_activation): ReLU()
          (1_dropout): Dropout(p=0.2, inplace=False)
        )
      )
    )
  )
  (_FeatureImitationNetwork__stage_2): DynamicNeuralNetwork(
    (model_arch): ModuleList(
      (0): Sequential(
        (in_linear): Linear(in_features=500, out_features=200, bias=True)
        (in_batch norm): BatchNorm1d(200, eps=1e-05, momentum=0.1, affine=True, track_running_stats=True)
        (in_activation): ReLU()
        (in_dropout): Dropout(p=0.2, inplace=False)
      )
      (1): Sequential(
        (0_linear): Linear(in_features=200, out_features=50, bias=True)
        (0_batch norm): BatchNorm1d(50, eps=1e-05, momentum=0.1, affine=True, track_running_stats=True)
        (0_activation): ReLU()
        (0_dropout): Dropout(p=0.2, inplace=False)
      )
      (2): Sequential(
        (out_linear): Linear(in_features=50, out_features=1, bias=True)
      )
    )
  )
)
Running on device: cuda
Model Architecture:
FeatureImitationNetwork(
  (_FeatureImitationNetwork__stage_1): ModuleDict(
    (whole_spec_quantile): DynamicNeuralNetwork(
      (model_arch): ModuleList(
        (0): Sequential(
          (in_linear): Linear(in_features=2500, out_features=6000, bias=True)
          (in_batch norm): BatchNorm1d(6000, eps=1e-05, momentum=0.1, affine=True, track_running_stats=True)
          (in_activation): ReLU()
          (in_dropout): Dropout(p=0.2, inplace=False)
        )
        (1): Sequential(
          (0_linear): Linear(in_features=6000, out_features=2000, bias=True)
          (0_batch norm): BatchNorm1d(2000, eps=1e-05, momentum=0.1, affine=True, track_running_stats=True)
          (0_activation): ReLU()
          (0_dropout): Dropout(p=0.2, inplace=False)
        )
        (2): Sequential(
          (1_linear): Linear(in_features=2000, out_features=100, bias=True)
          (1_batch norm): BatchNorm1d(100, eps=1e-05, momentum=0.1, affine=True, track_running_stats=True)
          (1_activation): ReLU()
          (1_dropout): Dropout(p=0.2, inplace=False)
        )
      )
    )
    (delta_quantile): DynamicNeuralNetwork(
      (model_arch): ModuleList(
        (0): Sequential(
          (in_linear): Linear(in_features=2500, out_features=6000, bias=True)
          (in_batch norm): BatchNorm1d(6000, eps=1e-05, momentum=0.1, affine=True, track_running_stats=True)
          (in_activation): ReLU()
          (in_dropout): Dropout(p=0.2, inplace=False)
        )
        (1): Sequential(
          (0_linear): Linear(in_features=6000, out_features=2000, bias=True)
          (0_batch norm): BatchNorm1d(2000, eps=1e-05, momentum=0.1, affine=True, track_running_stats=True)
          (0_activation): ReLU()
          (0_dropout): Dropout(p=0.2, inplace=False)
        )
        (2): Sequential(
          (1_linear): Linear(in_features=2000, out_features=100, bias=True)
          (1_batch norm): BatchNorm1d(100, eps=1e-05, momentum=0.1, affine=True, track_running_stats=True)
          (1_activation): ReLU()
          (1_dropout): Dropout(p=0.2, inplace=False)
        )
      )
    )
    (beta_quantile): DynamicNeuralNetwork(
      (model_arch): ModuleList(
        (0): Sequential(
          (in_linear): Linear(in_features=2500, out_features=6000, bias=True)
          (in_batch norm): BatchNorm1d(6000, eps=1e-05, momentum=0.1, affine=True, track_running_stats=True)
          (in_activation): ReLU()
          (in_dropout): Dropout(p=0.2, inplace=False)
        )
        (1): Sequential(
          (0_linear): Linear(in_features=6000, out_features=2000, bias=True)
          (0_batch norm): BatchNorm1d(2000, eps=1e-05, momentum=0.1, affine=True, track_running_stats=True)
          (0_activation): ReLU()
          (0_dropout): Dropout(p=0.2, inplace=False)
        )
        (2): Sequential(
          (1_linear): Linear(in_features=2000, out_features=100, bias=True)
          (1_batch norm): BatchNorm1d(100, eps=1e-05, momentum=0.1, affine=True, track_running_stats=True)
          (1_activation): ReLU()
          (1_dropout): Dropout(p=0.2, inplace=False)
        )
      )
    )
    (theta_quantile): DynamicNeuralNetwork(
      (model_arch): ModuleList(
        (0): Sequential(
          (in_linear): Linear(in_features=2500, out_features=6000, bias=True)
          (in_batch norm): BatchNorm1d(6000, eps=1e-05, momentum=0.1, affine=True, track_running_stats=True)
          (in_activation): ReLU()
          (in_dropout): Dropout(p=0.2, inplace=False)
        )
        (1): Sequential(
          (0_linear): Linear(in_features=6000, out_features=2000, bias=True)
          (0_batch norm): BatchNorm1d(2000, eps=1e-05, momentum=0.1, affine=True, track_running_stats=True)
          (0_activation): ReLU()
          (0_dropout): Dropout(p=0.2, inplace=False)
        )
        (2): Sequential(
          (1_linear): Linear(in_features=2000, out_features=100, bias=True)
          (1_batch norm): BatchNorm1d(100, eps=1e-05, momentum=0.1, affine=True, track_running_stats=True)
          (1_activation): ReLU()
          (1_dropout): Dropout(p=0.2, inplace=False)
        )
      )
    )
    (alpha_quantile): DynamicNeuralNetwork(
      (model_arch): ModuleList(
        (0): Sequential(
          (in_linear): Linear(in_features=2500, out_features=6000, bias=True)
          (in_batch norm): BatchNorm1d(6000, eps=1e-05, momentum=0.1, affine=True, track_running_stats=True)
          (in_activation): ReLU()
          (in_dropout): Dropout(p=0.2, inplace=False)
        )
        (1): Sequential(
          (0_linear): Linear(in_features=6000, out_features=2000, bias=True)
          (0_batch norm): BatchNorm1d(2000, eps=1e-05, momentum=0.1, affine=True, track_running_stats=True)
          (0_activation): ReLU()
          (0_dropout): Dropout(p=0.2, inplace=False)
        )
        (2): Sequential(
          (1_linear): Linear(in_features=2000, out_features=100, bias=True)
          (1_batch norm): BatchNorm1d(100, eps=1e-05, momentum=0.1, affine=True, track_running_stats=True)
          (1_activation): ReLU()
          (1_dropout): Dropout(p=0.2, inplace=False)
        )
      )
    )
  )
  (_FeatureImitationNetwork__stage_2): DynamicNeuralNetwork(
    (model_arch): ModuleList(
      (0): Sequential(
        (in_linear): Linear(in_features=500, out_features=200, bias=True)
        (in_batch norm): BatchNorm1d(200, eps=1e-05, momentum=0.1, affine=True, track_running_stats=True)
        (in_activation): ReLU()
        (in_dropout): Dropout(p=0.2, inplace=False)
      )
      (1): Sequential(
        (0_linear): Linear(in_features=200, out_features=50, bias=True)
        (0_batch norm): BatchNorm1d(50, eps=1e-05, momentum=0.1, affine=True, track_running_stats=True)
        (0_activation): ReLU()
        (0_dropout): Dropout(p=0.2, inplace=False)
      )
      (2): Sequential(
        (out_linear): Linear(in_features=50, out_features=1, bias=True)
      )
    )
  )
)
[94mOptimizer Parameters:[0m
    [96mlearning rate [0m: 0.005050000000000001
    [96mmomentum      [0m: 0.5
    [96mweight decay  [0m: 0.001
[1mStep[0m  [0/53], [94mLoss[0m : 10.98944
[1mStep[0m  [5/53], [94mLoss[0m : 11.13317
[1mStep[0m  [10/53], [94mLoss[0m : 10.27948
[1mStep[0m  [15/53], [94mLoss[0m : 9.76861
…
epochs                   30
activation             relu
optimizer               sgd
early stopping        False
dropout                 0.2
momentum                0.5
weight_decay          0.001
Name: 3, dtype: object
Following models where found:

dict_keys(['whole_spec_quantile', 'delta_quantile', 'beta_quantile', 'theta_quantile', 'alpha_quantile'])

Running on device: cuda
Model Architecture:
FeatureImitationNetwork(
  (_FeatureImitationNetwork__stage_1): ModuleDict(
    (whole_spec_quantile): DynamicNeuralNetwork(
      (model_arch): ModuleList(
        (0): Sequential(
          (in_linear): Linear(in_features=2500, out_features=6000, bias=True)
          (in_batch norm): BatchNorm1d(6000, eps=1e-05, momentum=0.1, affine=True, track_running_stats=True)
          (in_activation): ReLU()
          (in_dropout): Dropout(p=0.2, inplace=False)
        )
        (1): Sequential(
          (0_linear): Linear(in_features=6000, out_features=2000, bias=True)
          (0_batch norm): BatchNorm1d(2000, eps=1e-05, momentum=0.1, affine=True, track_running_stats=True)
          (0_activation): ReLU()
          (0_dropout): Dropout(p=0.2, inplace=False)
        )
        (2): Sequential(
          (1_linear): Linear(in_features=2000, out_features=100, bias=True)
          (1_batch norm): BatchNorm1d(100, eps=1e-05, momentum=0.1, affine=True, track_running_stats=True)
          (1_activation): ReLU()
          (1_dropout): Dropout(p=0.2, inplace=False)
        )
      )
    )
    (delta_quantile): DynamicNeuralNetwork(
      (model_arch): ModuleList(
        (0): Sequential(
          (in_linear): Linear(in_features=2500, out_features=6000, bias=True)
          (in_batch norm): BatchNorm1d(6000, eps=1e-05, momentum=0.1, affine=True, track_running_stats=True)
          (in_activation): ReLU()
          (in_dropout): Dropout(p=0.2, inplace=False)
        )
        (1): Sequential(
          (0_linear): Linear(in_features=6000, out_features=2000, bias=True)
          (0_batch norm): BatchNorm1d(2000, eps=1e-05, momentum=0.1, affine=True, track_running_stats=True)
          (0_activation): ReLU()
          (0_dropout): Dropout(p=0.2, inplace=False)
        )
        (2): Sequential(
          (1_linear): Linear(in_features=2000, out_features=100, bias=True)
          (1_batch norm): BatchNorm1d(100, eps=1e-05, momentum=0.1, affine=True, track_running_stats=True)
          (1_activation): ReLU()
          (1_dropout): Dropout(p=0.2, inplace=False)
        )
      )
    )
    (beta_quantile): DynamicNeuralNetwork(
      (model_arch): ModuleList(
        (0): Sequential(
          (in_linear): Linear(in_features=2500, out_features=6000, bias=True)
          (in_batch norm): BatchNorm1d(6000, eps=1e-05, momentum=0.1, affine=True, track_running_stats=True)
          (in_activation): ReLU()
          (in_dropout): Dropout(p=0.2, inplace=False)
        )
        (1): Sequential(
          (0_linear): Linear(in_features=6000, out_features=2000, bias=True)
          (0_batch norm): BatchNorm1d(2000, eps=1e-05, momentum=0.1, affine=True, track_running_stats=True)
          (0_activation): ReLU()
          (0_dropout): Dropout(p=0.2, inplace=False)
        )
        (2): Sequential(
          (1_linear): Linear(in_features=2000, out_features=100, bias=True)
          (1_batch norm): BatchNorm1d(100, eps=1e-05, momentum=0.1, affine=True, track_running_stats=True)
          (1_activation): ReLU()
          (1_dropout): Dropout(p=0.2, inplace=False)
        )
      )
    )
    (theta_quantile): DynamicNeuralNetwork(
      (model_arch): ModuleList(
        (0): Sequential(
          (in_linear): Linear(in_features=2500, out_features=6000, bias=True)
          (in_batch norm): BatchNorm1d(6000, eps=1e-05, momentum=0.1, affine=True, track_running_stats=True)
          (in_activation): ReLU()
          (in_dropout): Dropout(p=0.2, inplace=False)
        )
        (1): Sequential(
          (0_linear): Linear(in_features=6000, out_features=2000, bias=True)
          (0_batch norm): BatchNorm1d(2000, eps=1e-05, momentum=0.1, affine=True, track_running_stats=True)
          (0_activation): ReLU()
          (0_dropout): Dropout(p=0.2, inplace=False)
        )
        (2): Sequential(
          (1_linear): Linear(in_features=2000, out_features=100, bias=True)
          (1_batch norm): BatchNorm1d(100, eps=1e-05, momentum=0.1, affine=True, track_running_stats=True)
          (1_activation): ReLU()
          (1_dropout): Dropout(p=0.2, inplace=False)
        )
      )
    )
    (alpha_quantile): DynamicNeuralNetwork(
      (model_arch): ModuleList(
        (0): Sequential(
          (in_linear): Linear(in_features=2500, out_features=6000, bias=True)
          (in_batch norm): BatchNorm1d(6000, eps=1e-05, momentum=0.1, affine=True, track_running_stats=True)
          (in_activation): ReLU()
          (in_dropout): Dropout(p=0.2, inplace=False)
        )
        (1): Sequential(
          (0_linear): Linear(in_features=6000, out_features=2000, bias=True)
          (0_batch norm): BatchNorm1d(2000, eps=1e-05, momentum=0.1, affine=True, track_running_stats=True)
          (0_activation): ReLU()
          (0_dropout): Dropout(p=0.2, inplace=False)
        )
        (2): Sequential(
          (1_linear): Linear(in_features=2000, out_features=100, bias=True)
          (1_batch norm): BatchNorm1d(100, eps=1e-05, momentum=0.1, affine=True, track_running_stats=True)
          (1_activation): ReLU()
          (1_dropout): Dropout(p=0.2, inplace=False)
        )
      )
    )
  )
  (_FeatureImitationNetwork__stage_2): DynamicNeuralNetwork(
    (model_arch): ModuleList(
      (0): Sequential(
        (in_linear): Linear(in_features=500, out_features=250, bias=True)
        (in_batch norm): BatchNorm1d(250, eps=1e-05, momentum=0.1, affine=True, track_running_stats=True)
        (in_activation): Tanh()
        (in_dropout): Dropout(p=0.3, inplace=False)
      )
      (1): Sequential(
        (0_linear): Linear(in_features=250, out_features=50, bias=True)
        (0_batch norm): BatchNorm1d(50, eps=1e-05, momentum=0.1, affine=True, track_running_stats=True)
        (0_activation): Tanh()
        (0_dropout): Dropout(p=0.3, inplace=False)
      )
      (2): Sequential(
        (out_linear): Linear(in_features=50, out_features=1, bias=True)
      )
    )
  )
)
Running on device: cuda
Model Architecture:
FeatureImitationNetwork(
  (_FeatureImitationNetwork__stage_1): ModuleDict(
    (whole_spec_quantile): DynamicNeuralNetwork(
      (model_arch): ModuleList(
        (0): Sequential(
          (in_linear): Linear(in_features=2500, out_features=6000, bias=True)
          (in_batch norm): BatchNorm1d(6000, eps=1e-05, momentum=0.1, affine=True, track_running_stats=True)
          (in_activation): ReLU()
          (in_dropout): Dropout(p=0.2, inplace=False)
        )
        (1): Sequential(
          (0_linear): Linear(in_features=6000, out_features=2000, bias=True)
          (0_batch norm): BatchNorm1d(2000, eps=1e-05, momentum=0.1, affine=True, track_running_stats=True)
          (0_activation): ReLU()
          (0_dropout): Dropout(p=0.2, inplace=False)
        )
        (2): Sequential(
          (1_linear): Linear(in_features=2000, out_features=100, bias=True)
          (1_batch norm): BatchNorm1d(100, eps=1e-05, momentum=0.1, affine=True, track_running_stats=True)
          (1_activation): ReLU()
          (1_dropout): Dropout(p=0.2, inplace=False)
        )
      )
    )
    (delta_quantile): DynamicNeuralNetwork(
      (model_arch): ModuleList(
        (0): Sequential(
          (in_linear): Linear(in_features=2500, out_features=6000, bias=True)
          (in_batch norm): BatchNorm1d(6000, eps=1e-05, momentum=0.1, affine=True, track_running_stats=True)
          (in_activation): ReLU()
          (in_dropout): Dropout(p=0.2, inplace=False)
        )
        (1): Sequential(
          (0_linear): Linear(in_features=6000, out_features=2000, bias=True)
          (0_batch norm): BatchNorm1d(2000, eps=1e-05, momentum=0.1, affine=True, track_running_stats=True)
          (0_activation): ReLU()
          (0_dropout): Dropout(p=0.2, inplace=False)
        )
        (2): Sequential(
          (1_linear): Linear(in_features=2000, out_features=100, bias=True)
          (1_batch norm): BatchNorm1d(100, eps=1e-05, momentum=0.1, affine=True, track_running_stats=True)
          (1_activation): ReLU()
          (1_dropout): Dropout(p=0.2, inplace=False)
        )
      )
    )
    (beta_quantile): DynamicNeuralNetwork(
      (model_arch): ModuleList(
        (0): Sequential(
          (in_linear): Linear(in_features=2500, out_features=6000, bias=True)
          (in_batch norm): BatchNorm1d(6000, eps=1e-05, momentum=0.1, affine=True, track_running_stats=True)
          (in_activation): ReLU()
          (in_dropout): Dropout(p=0.2, inplace=False)
        )
        (1): Sequential(
          (0_linear): Linear(in_features=6000, out_features=2000, bias=True)
          (0_batch norm): BatchNorm1d(2000, eps=1e-05, momentum=0.1, affine=True, track_running_stats=True)
          (0_activation): ReLU()
          (0_dropout): Dropout(p=0.2, inplace=False)
        )
        (2): Sequential(
          (1_linear): Linear(in_features=2000, out_features=100, bias=True)
          (1_batch norm): BatchNorm1d(100, eps=1e-05, momentum=0.1, affine=True, track_running_stats=True)
          (1_activation): ReLU()
          (1_dropout): Dropout(p=0.2, inplace=False)
        )
      )
    )
    (theta_quantile): DynamicNeuralNetwork(
      (model_arch): ModuleList(
        (0): Sequential(
          (in_linear): Linear(in_features=2500, out_features=6000, bias=True)
          (in_batch norm): BatchNorm1d(6000, eps=1e-05, momentum=0.1, affine=True, track_running_stats=True)
          (in_activation): ReLU()
          (in_dropout): Dropout(p=0.2, inplace=False)
        )
        (1): Sequential(
          (0_linear): Linear(in_features=6000, out_features=2000, bias=True)
          (0_batch norm): BatchNorm1d(2000, eps=1e-05, momentum=0.1, affine=True, track_running_stats=True)
          (0_activation): ReLU()
          (0_dropout): Dropout(p=0.2, inplace=False)
        )
        (2): Sequential(
          (1_linear): Linear(in_features=2000, out_features=100, bias=True)
          (1_batch norm): BatchNorm1d(100, eps=1e-05, momentum=0.1, affine=True, track_running_stats=True)
          (1_activation): ReLU()
          (1_dropout): Dropout(p=0.2, inplace=False)
        )
      )
    )
    (alpha_quantile): DynamicNeuralNetwork(
      (model_arch): ModuleList(
        (0): Sequential(
          (in_linear): Linear(in_features=2500, out_features=6000, bias=True)
          (in_batch norm): BatchNorm1d(6000, eps=1e-05, momentum=0.1, affine=True, track_running_stats=True)
          (in_activation): ReLU()
          (in_dropout): Dropout(p=0.2, inplace=False)
        )
        (1): Sequential(
          (0_linear): Linear(in_features=6000, out_features=2000, bias=True)
          (0_batch norm): BatchNorm1d(2000, eps=1e-05, momentum=0.1, affine=True, track_running_stats=True)
          (0_activation): ReLU()
          (0_dropout): Dropout(p=0.2, inplace=False)
        )
        (2): Sequential(
          (1_linear): Linear(in_features=2000, out_features=100, bias=True)
          (1_batch norm): BatchNorm1d(100, eps=1e-05, momentum=0.1, affine=True, track_running_stats=True)
          (1_activation): ReLU()
          (1_dropout): Dropout(p=0.2, inplace=False)
        )
      )
    )
  )
  (_FeatureImitationNetwork__stage_2): DynamicNeuralNetwork(
    (model_arch): ModuleList(
      (0): Sequential(
        (in_linear): Linear(in_features=500, out_features=250, bias=True)
        (in_batch norm): BatchNorm1d(250, eps=1e-05, momentum=0.1, affine=True, track_running_stats=True)
        (in_activation): Tanh()
        (in_dropout): Dropout(p=0.3, inplace=False)
      )
      (1): Sequential(
        (0_linear): Linear(in_features=250, out_features=50, bias=True)
        (0_batch norm): BatchNorm1d(50, eps=1e-05, momentum=0.1, affine=True, track_running_stats=True)
        (0_activation): Tanh()
        (0_dropout): Dropout(p=0.3, inplace=False)
      )
      (2): Sequential(
        (out_linear): Linear(in_features=50, out_features=1, bias=True)
      )
    )
  )
)
[94mOptimizer Parameters:[0m
    [96mlearning rate [0m: 0.005050000000000001
    [96mmomentum      [0m: 0.1
    [96mweight decay  [0m: 0.01
[1mStep[0m  [0/53], [94mLoss[0m : 11.34118
[1mStep[0m  [5/53], [94mLoss[0m : 10.75208
[1mStep[0m  [10/53], [94mLoss[0m : 11.05136
[1mStep[0m  [15/53], [94mLoss[0m : 10.87048
…
epochs                   30
activation             tanh
optimizer               sgd
early stopping        False
dropout                 0.2
momentum                0.5
weight_decay         0.0001
Name: 5, dtype: object
Following models where found:

dict_keys(['whole_spec_quantile', 'delta_quantile', 'beta_quantile', 'theta_quantile', 'alpha_quantile'])

Running on device: cuda
Model Architecture:
FeatureImitationNetwork(
  (_FeatureImitationNetwork__stage_1): ModuleDict(
    (whole_spec_quantile): DynamicNeuralNetwork(
      (model_arch): ModuleList(
        (0): Sequential(
          (in_linear): Linear(in_features=2500, out_features=6000, bias=True)
          (in_batch norm): BatchNorm1d(6000, eps=1e-05, momentum=0.1, affine=True, track_running_stats=True)
          (in_activation): ReLU()
          (in_dropout): Dropout(p=0.2, inplace=False)
        )
        (1): Sequential(
          (0_linear): Linear(in_features=6000, out_features=2000, bias=True)
          (0_batch norm): BatchNorm1d(2000, eps=1e-05, momentum=0.1, affine=True, track_running_stats=True)
          (0_activation): ReLU()
          (0_dropout): Dropout(p=0.2, inplace=False)
        )
        (2): Sequential(
          (1_linear): Linear(in_features=2000, out_features=100, bias=True)
          (1_batch norm): BatchNorm1d(100, eps=1e-05, momentum=0.1, affine=True, track_running_stats=True)
          (1_activation): ReLU()
          (1_dropout): Dropout(p=0.2, inplace=False)
        )
      )
    )
    (delta_quantile): DynamicNeuralNetwork(
      (model_arch): ModuleList(
        (0): Sequential(
          (in_linear): Linear(in_features=2500, out_features=6000, bias=True)
          (in_batch norm): BatchNorm1d(6000, eps=1e-05, momentum=0.1, affine=True, track_running_stats=True)
          (in_activation): ReLU()
          (in_dropout): Dropout(p=0.2, inplace=False)
        )
        (1): Sequential(
          (0_linear): Linear(in_features=6000, out_features=2000, bias=True)
          (0_batch norm): BatchNorm1d(2000, eps=1e-05, momentum=0.1, affine=True, track_running_stats=True)
          (0_activation): ReLU()
          (0_dropout): Dropout(p=0.2, inplace=False)
        )
        (2): Sequential(
          (1_linear): Linear(in_features=2000, out_features=100, bias=True)
          (1_batch norm): BatchNorm1d(100, eps=1e-05, momentum=0.1, affine=True, track_running_stats=True)
          (1_activation): ReLU()
          (1_dropout): Dropout(p=0.2, inplace=False)
        )
      )
    )
    (beta_quantile): DynamicNeuralNetwork(
      (model_arch): ModuleList(
        (0): Sequential(
          (in_linear): Linear(in_features=2500, out_features=6000, bias=True)
          (in_batch norm): BatchNorm1d(6000, eps=1e-05, momentum=0.1, affine=True, track_running_stats=True)
          (in_activation): ReLU()
          (in_dropout): Dropout(p=0.2, inplace=False)
        )
        (1): Sequential(
          (0_linear): Linear(in_features=6000, out_features=2000, bias=True)
          (0_batch norm): BatchNorm1d(2000, eps=1e-05, momentum=0.1, affine=True, track_running_stats=True)
          (0_activation): ReLU()
          (0_dropout): Dropout(p=0.2, inplace=False)
        )
        (2): Sequential(
          (1_linear): Linear(in_features=2000, out_features=100, bias=True)
          (1_batch norm): BatchNorm1d(100, eps=1e-05, momentum=0.1, affine=True, track_running_stats=True)
          (1_activation): ReLU()
          (1_dropout): Dropout(p=0.2, inplace=False)
        )
      )
    )
    (theta_quantile): DynamicNeuralNetwork(
      (model_arch): ModuleList(
        (0): Sequential(
          (in_linear): Linear(in_features=2500, out_features=6000, bias=True)
          (in_batch norm): BatchNorm1d(6000, eps=1e-05, momentum=0.1, affine=True, track_running_stats=True)
          (in_activation): ReLU()
          (in_dropout): Dropout(p=0.2, inplace=False)
        )
        (1): Sequential(
          (0_linear): Linear(in_features=6000, out_features=2000, bias=True)
          (0_batch norm): BatchNorm1d(2000, eps=1e-05, momentum=0.1, affine=True, track_running_stats=True)
          (0_activation): ReLU()
          (0_dropout): Dropout(p=0.2, inplace=False)
        )
        (2): Sequential(
          (1_linear): Linear(in_features=2000, out_features=100, bias=True)
          (1_batch norm): BatchNorm1d(100, eps=1e-05, momentum=0.1, affine=True, track_running_stats=True)
          (1_activation): ReLU()
          (1_dropout): Dropout(p=0.2, inplace=False)
        )
      )
    )
    (alpha_quantile): DynamicNeuralNetwork(
      (model_arch): ModuleList(
        (0): Sequential(
          (in_linear): Linear(in_features=2500, out_features=6000, bias=True)
          (in_batch norm): BatchNorm1d(6000, eps=1e-05, momentum=0.1, affine=True, track_running_stats=True)
          (in_activation): ReLU()
          (in_dropout): Dropout(p=0.2, inplace=False)
        )
        (1): Sequential(
          (0_linear): Linear(in_features=6000, out_features=2000, bias=True)
          (0_batch norm): BatchNorm1d(2000, eps=1e-05, momentum=0.1, affine=True, track_running_stats=True)
          (0_activation): ReLU()
          (0_dropout): Dropout(p=0.2, inplace=False)
        )
        (2): Sequential(
          (1_linear): Linear(in_features=2000, out_features=100, bias=True)
          (1_batch norm): BatchNorm1d(100, eps=1e-05, momentum=0.1, affine=True, track_running_stats=True)
          (1_activation): ReLU()
          (1_dropout): Dropout(p=0.2, inplace=False)
        )
      )
    )
  )
  (_FeatureImitationNetwork__stage_2): DynamicNeuralNetwork(
    (model_arch): ModuleList(
      (0): Sequential(
        (in_linear): Linear(in_features=500, out_features=100, bias=True)
        (in_batch norm): BatchNorm1d(100, eps=1e-05, momentum=0.1, affine=True, track_running_stats=True)
        (in_activation): ReLU()
        (in_dropout): Dropout(p=0.2, inplace=False)
      )
      (1): Sequential(
        (out_linear): Linear(in_features=100, out_features=1, bias=True)
      )
    )
  )
)
Running on device: cuda
Model Architecture:
FeatureImitationNetwork(
  (_FeatureImitationNetwork__stage_1): ModuleDict(
    (whole_spec_quantile): DynamicNeuralNetwork(
      (model_arch): ModuleList(
        (0): Sequential(
          (in_linear): Linear(in_features=2500, out_features=6000, bias=True)
          (in_batch norm): BatchNorm1d(6000, eps=1e-05, momentum=0.1, affine=True, track_running_stats=True)
          (in_activation): ReLU()
          (in_dropout): Dropout(p=0.2, inplace=False)
        )
        (1): Sequential(
          (0_linear): Linear(in_features=6000, out_features=2000, bias=True)
          (0_batch norm): BatchNorm1d(2000, eps=1e-05, momentum=0.1, affine=True, track_running_stats=True)
          (0_activation): ReLU()
          (0_dropout): Dropout(p=0.2, inplace=False)
        )
        (2): Sequential(
          (1_linear): Linear(in_features=2000, out_features=100, bias=True)
          (1_batch norm): BatchNorm1d(100, eps=1e-05, momentum=0.1, affine=True, track_running_stats=True)
          (1_activation): ReLU()
          (1_dropout): Dropout(p=0.2, inplace=False)
        )
      )
    )
    (delta_quantile): DynamicNeuralNetwork(
      (model_arch): ModuleList(
        (0): Sequential(
          (in_linear): Linear(in_features=2500, out_features=6000, bias=True)
          (in_batch norm): BatchNorm1d(6000, eps=1e-05, momentum=0.1, affine=True, track_running_stats=True)
          (in_activation): ReLU()
          (in_dropout): Dropout(p=0.2, inplace=False)
        )
        (1): Sequential(
          (0_linear): Linear(in_features=6000, out_features=2000, bias=True)
          (0_batch norm): BatchNorm1d(2000, eps=1e-05, momentum=0.1, affine=True, track_running_stats=True)
          (0_activation): ReLU()
          (0_dropout): Dropout(p=0.2, inplace=False)
        )
        (2): Sequential(
          (1_linear): Linear(in_features=2000, out_features=100, bias=True)
          (1_batch norm): BatchNorm1d(100, eps=1e-05, momentum=0.1, affine=True, track_running_stats=True)
          (1_activation): ReLU()
          (1_dropout): Dropout(p=0.2, inplace=False)
        )
      )
    )
    (beta_quantile): DynamicNeuralNetwork(
      (model_arch): ModuleList(
        (0): Sequential(
          (in_linear): Linear(in_features=2500, out_features=6000, bias=True)
          (in_batch norm): BatchNorm1d(6000, eps=1e-05, momentum=0.1, affine=True, track_running_stats=True)
          (in_activation): ReLU()
          (in_dropout): Dropout(p=0.2, inplace=False)
        )
        (1): Sequential(
          (0_linear): Linear(in_features=6000, out_features=2000, bias=True)
          (0_batch norm): BatchNorm1d(2000, eps=1e-05, momentum=0.1, affine=True, track_running_stats=True)
          (0_activation): ReLU()
          (0_dropout): Dropout(p=0.2, inplace=False)
        )
        (2): Sequential(
          (1_linear): Linear(in_features=2000, out_features=100, bias=True)
          (1_batch norm): BatchNorm1d(100, eps=1e-05, momentum=0.1, affine=True, track_running_stats=True)
          (1_activation): ReLU()
          (1_dropout): Dropout(p=0.2, inplace=False)
        )
      )
    )
    (theta_quantile): DynamicNeuralNetwork(
      (model_arch): ModuleList(
        (0): Sequential(
          (in_linear): Linear(in_features=2500, out_features=6000, bias=True)
          (in_batch norm): BatchNorm1d(6000, eps=1e-05, momentum=0.1, affine=True, track_running_stats=True)
          (in_activation): ReLU()
          (in_dropout): Dropout(p=0.2, inplace=False)
        )
        (1): Sequential(
          (0_linear): Linear(in_features=6000, out_features=2000, bias=True)
          (0_batch norm): BatchNorm1d(2000, eps=1e-05, momentum=0.1, affine=True, track_running_stats=True)
          (0_activation): ReLU()
          (0_dropout): Dropout(p=0.2, inplace=False)
        )
        (2): Sequential(
          (1_linear): Linear(in_features=2000, out_features=100, bias=True)
          (1_batch norm): BatchNorm1d(100, eps=1e-05, momentum=0.1, affine=True, track_running_stats=True)
          (1_activation): ReLU()
          (1_dropout): Dropout(p=0.2, inplace=False)
        )
      )
    )
    (alpha_quantile): DynamicNeuralNetwork(
      (model_arch): ModuleList(
        (0): Sequential(
          (in_linear): Linear(in_features=2500, out_features=6000, bias=True)
          (in_batch norm): BatchNorm1d(6000, eps=1e-05, momentum=0.1, affine=True, track_running_stats=True)
          (in_activation): ReLU()
          (in_dropout): Dropout(p=0.2, inplace=False)
        )
        (1): Sequential(
          (0_linear): Linear(in_features=6000, out_features=2000, bias=True)
          (0_batch norm): BatchNorm1d(2000, eps=1e-05, momentum=0.1, affine=True, track_running_stats=True)
          (0_activation): ReLU()
          (0_dropout): Dropout(p=0.2, inplace=False)
        )
        (2): Sequential(
          (1_linear): Linear(in_features=2000, out_features=100, bias=True)
          (1_batch norm): BatchNorm1d(100, eps=1e-05, momentum=0.1, affine=True, track_running_stats=True)
          (1_activation): ReLU()
          (1_dropout): Dropout(p=0.2, inplace=False)
        )
      )
    )
  )
  (_FeatureImitationNetwork__stage_2): DynamicNeuralNetwork(
    (model_arch): ModuleList(
      (0): Sequential(
        (in_linear): Linear(in_features=500, out_features=100, bias=True)
        (in_batch norm): BatchNorm1d(100, eps=1e-05, momentum=0.1, affine=True, track_running_stats=True)
        (in_activation): ReLU()
        (in_dropout): Dropout(p=0.2, inplace=False)
      )
      (1): Sequential(
        (out_linear): Linear(in_features=100, out_features=1, bias=True)
      )
    )
  )
)
[94mOptimizer Parameters:[0m
    [96mlearning rate [0m: 0.005050000000000001
    [96mmomentum      [0m: 0.9
    [96mweight decay  [0m: 0.001
[1mStep[0m  [0/53], [94mLoss[0m : 11.32262
[1mStep[0m  [5/53], [94mLoss[0m : 10.18493
[1mStep[0m  [10/53], [94mLoss[0m : 7.73034
[1mStep[0m  [15/53], [94mLoss[0m : 4.93157
…
