…
-----------------
Process ID:  2
Number of Nodes:  1
Number of Array Tasks:  16
-----------------
Using device: cuda

AMD Instinct MI210
Memory Usage:
Allocated: 0.0 GB
Cached:    0.0 GB
theta
whole_spec
delta
alpha
beta
Following models where found:

dict_keys(['whole_spec_quantile', 'delta_quantile', 'beta_quantile', 'theta_quantile', 'alpha_quantile'])

Running on device: cuda
Model Architecture:
FeatureImitationNetwork(
  (_FeatureImitationNetwork__stage_1): ModuleDict(
    (whole_spec_quantile): DynamicNeuralNetwork(
      (model_arch): ModuleList(
        (0): Sequential(
          (in_linear): Linear(in_features=2500, out_features=6000, bias=True)
          (in_batch norm): BatchNorm1d(6000, eps=1e-05, momentum=0.1, affine=True, track_running_stats=True)
          (in_activation): ReLU()
          (in_dropout): Dropout(p=0.2, inplace=False)
        )
        (1): Sequential(
          (0_linear): Linear(in_features=6000, out_features=2000, bias=True)
          (0_batch norm): BatchNorm1d(2000, eps=1e-05, momentum=0.1, affine=True, track_running_stats=True)
          (0_activation): ReLU()
          (0_dropout): Dropout(p=0.2, inplace=False)
        )
        (2): Sequential(
          (1_linear): Linear(in_features=2000, out_features=100, bias=True)
          (1_batch norm): BatchNorm1d(100, eps=1e-05, momentum=0.1, affine=True, track_running_stats=True)
          (1_activation): ReLU()
          (1_dropout): Dropout(p=0.2, inplace=False)
        )
      )
    )
    (delta_quantile): DynamicNeuralNetwork(
      (model_arch): ModuleList(
        (0): Sequential(
          (in_linear): Linear(in_features=2500, out_features=6000, bias=True)
          (in_batch norm): BatchNorm1d(6000, eps=1e-05, momentum=0.1, affine=True, track_running_stats=True)
          (in_activation): ReLU()
          (in_dropout): Dropout(p=0.2, inplace=False)
        )
        (1): Sequential(
          (0_linear): Linear(in_features=6000, out_features=2000, bias=True)
          (0_batch norm): BatchNorm1d(2000, eps=1e-05, momentum=0.1, affine=True, track_running_stats=True)
          (0_activation): ReLU()
          (0_dropout): Dropout(p=0.2, inplace=False)
        )
        (2): Sequential(
          (1_linear): Linear(in_features=2000, out_features=100, bias=True)
          (1_batch norm): BatchNorm1d(100, eps=1e-05, momentum=0.1, affine=True, track_running_stats=True)
          (1_activation): ReLU()
          (1_dropout): Dropout(p=0.2, inplace=False)
        )
      )
    )
    (beta_quantile): DynamicNeuralNetwork(
      (model_arch): ModuleList(
        (0): Sequential(
          (in_linear): Linear(in_features=2500, out_features=6000, bias=True)
          (in_batch norm): BatchNorm1d(6000, eps=1e-05, momentum=0.1, affine=True, track_running_stats=True)
          (in_activation): ReLU()
          (in_dropout): Dropout(p=0.2, inplace=False)
        )
        (1): Sequential(
          (0_linear): Linear(in_features=6000, out_features=2000, bias=True)
          (0_batch norm): BatchNorm1d(2000, eps=1e-05, momentum=0.1, affine=True, track_running_stats=True)
          (0_activation): ReLU()
          (0_dropout): Dropout(p=0.2, inplace=False)
        )
        (2): Sequential(
          (1_linear): Linear(in_features=2000, out_features=100, bias=True)
          (1_batch norm): BatchNorm1d(100, eps=1e-05, momentum=0.1, affine=True, track_running_stats=True)
          (1_activation): ReLU()
          (1_dropout): Dropout(p=0.2, inplace=False)
        )
      )
    )
    (theta_quantile): DynamicNeuralNetwork(
      (model_arch): ModuleList(
        (0): Sequential(
          (in_linear): Linear(in_features=2500, out_features=6000, bias=True)
          (in_batch norm): BatchNorm1d(6000, eps=1e-05, momentum=0.1, affine=True, track_running_stats=True)
          (in_activation): ReLU()
          (in_dropout): Dropout(p=0.2, inplace=False)
        )
        (1): Sequential(
          (0_linear): Linear(in_features=6000, out_features=2000, bias=True)
          (0_batch norm): BatchNorm1d(2000, eps=1e-05, momentum=0.1, affine=True, track_running_stats=True)
          (0_activation): ReLU()
          (0_dropout): Dropout(p=0.2, inplace=False)
        )
        (2): Sequential(
          (1_linear): Linear(in_features=2000, out_features=100, bias=True)
          (1_batch norm): BatchNorm1d(100, eps=1e-05, momentum=0.1, affine=True, track_running_stats=True)
          (1_activation): ReLU()
          (1_dropout): Dropout(p=0.2, inplace=False)
        )
      )
    )
    (alpha_quantile): DynamicNeuralNetwork(
      (model_arch): ModuleList(
        (0): Sequential(
          (in_linear): Linear(in_features=2500, out_features=6000, bias=True)
          (in_batch norm): BatchNorm1d(6000, eps=1e-05, momentum=0.1, affine=True, track_running_stats=True)
          (in_activation): ReLU()
          (in_dropout): Dropout(p=0.2, inplace=False)
        )
        (1): Sequential(
          (0_linear): Linear(in_features=6000, out_features=2000, bias=True)
          (0_batch norm): BatchNorm1d(2000, eps=1e-05, momentum=0.1, affine=True, track_running_stats=True)
          (0_activation): ReLU()
          (0_dropout): Dropout(p=0.2, inplace=False)
        )
        (2): Sequential(
          (1_linear): Linear(in_features=2000, out_features=100, bias=True)
          (1_batch norm): BatchNorm1d(100, eps=1e-05, momentum=0.1, affine=True, track_running_stats=True)
          (1_activation): ReLU()
          (1_dropout): Dropout(p=0.2, inplace=False)
        )
      )
    )
  )
  (_FeatureImitationNetwork__stage_2): DynamicNeuralNetwork(
    (model_arch): ModuleList(
      (0): Sequential(
        (in_linear): Linear(in_features=500, out_features=300, bias=True)
        (in_batch norm): BatchNorm1d(300, eps=1e-05, momentum=0.1, affine=True, track_running_stats=True)
        (in_activation): Tanh()
        (in_dropout): Dropout(p=0.2, inplace=False)
      )
      (1): Sequential(
        (0_linear): Linear(in_features=300, out_features=100, bias=True)
        (0_batch norm): BatchNorm1d(100, eps=1e-05, momentum=0.1, affine=True, track_running_stats=True)
        (0_activation): Tanh()
        (0_dropout): Dropout(p=0.2, inplace=False)
      )
      (2): Sequential(
        (out_linear): Linear(in_features=100, out_features=1, bias=True)
      )
    )
  )
)
Running on device: cuda
Model Architecture:
FeatureImitationNetwork(
  (_FeatureImitationNetwork__stage_1): ModuleDict(
    (whole_spec_quantile): DynamicNeuralNetwork(
      (model_arch): ModuleList(
        (0): Sequential(
          (in_linear): Linear(in_features=2500, out_features=6000, bias=True)
          (in_batch norm): BatchNorm1d(6000, eps=1e-05, momentum=0.1, affine=True, track_running_stats=True)
          (in_activation): ReLU()
          (in_dropout): Dropout(p=0.2, inplace=False)
        )
        (1): Sequential(
          (0_linear): Linear(in_features=6000, out_features=2000, bias=True)
          (0_batch norm): BatchNorm1d(2000, eps=1e-05, momentum=0.1, affine=True, track_running_stats=True)
          (0_activation): ReLU()
          (0_dropout): Dropout(p=0.2, inplace=False)
        )
        (2): Sequential(
          (1_linear): Linear(in_features=2000, out_features=100, bias=True)
          (1_batch norm): BatchNorm1d(100, eps=1e-05, momentum=0.1, affine=True, track_running_stats=True)
          (1_activation): ReLU()
          (1_dropout): Dropout(p=0.2, inplace=False)
        )
      )
    )
    (delta_quantile): DynamicNeuralNetwork(
      (model_arch): ModuleList(
        (0): Sequential(
          (in_linear): Linear(in_features=2500, out_features=6000, bias=True)
          (in_batch norm): BatchNorm1d(6000, eps=1e-05, momentum=0.1, affine=True, track_running_stats=True)
          (in_activation): ReLU()
          (in_dropout): Dropout(p=0.2, inplace=False)
        )
        (1): Sequential(
          (0_linear): Linear(in_features=6000, out_features=2000, bias=True)
          (0_batch norm): BatchNorm1d(2000, eps=1e-05, momentum=0.1, affine=True, track_running_stats=True)
          (0_activation): ReLU()
          (0_dropout): Dropout(p=0.2, inplace=False)
        )
        (2): Sequential(
          (1_linear): Linear(in_features=2000, out_features=100, bias=True)
          (1_batch norm): BatchNorm1d(100, eps=1e-05, momentum=0.1, affine=True, track_running_stats=True)
          (1_activation): ReLU()
          (1_dropout): Dropout(p=0.2, inplace=False)
        )
      )
    )
    (beta_quantile): DynamicNeuralNetwork(
      (model_arch): ModuleList(
        (0): Sequential(
          (in_linear): Linear(in_features=2500, out_features=6000, bias=True)
          (in_batch norm): BatchNorm1d(6000, eps=1e-05, momentum=0.1, affine=True, track_running_stats=True)
          (in_activation): ReLU()
          (in_dropout): Dropout(p=0.2, inplace=False)
        )
        (1): Sequential(
          (0_linear): Linear(in_features=6000, out_features=2000, bias=True)
          (0_batch norm): BatchNorm1d(2000, eps=1e-05, momentum=0.1, affine=True, track_running_stats=True)
          (0_activation): ReLU()
          (0_dropout): Dropout(p=0.2, inplace=False)
        )
        (2): Sequential(
          (1_linear): Linear(in_features=2000, out_features=100, bias=True)
          (1_batch norm): BatchNorm1d(100, eps=1e-05, momentum=0.1, affine=True, track_running_stats=True)
          (1_activation): ReLU()
          (1_dropout): Dropout(p=0.2, inplace=False)
        )
      )
    )
    (theta_quantile): DynamicNeuralNetwork(
      (model_arch): ModuleList(
        (0): Sequential(
          (in_linear): Linear(in_features=2500, out_features=6000, bias=True)
          (in_batch norm): BatchNorm1d(6000, eps=1e-05, momentum=0.1, affine=True, track_running_stats=True)
          (in_activation): ReLU()
          (in_dropout): Dropout(p=0.2, inplace=False)
        )
        (1): Sequential(
          (0_linear): Linear(in_features=6000, out_features=2000, bias=True)
          (0_batch norm): BatchNorm1d(2000, eps=1e-05, momentum=0.1, affine=True, track_running_stats=True)
          (0_activation): ReLU()
          (0_dropout): Dropout(p=0.2, inplace=False)
        )
        (2): Sequential(
          (1_linear): Linear(in_features=2000, out_features=100, bias=True)
          (1_batch norm): BatchNorm1d(100, eps=1e-05, momentum=0.1, affine=True, track_running_stats=True)
          (1_activation): ReLU()
          (1_dropout): Dropout(p=0.2, inplace=False)
        )
      )
    )
    (alpha_quantile): DynamicNeuralNetwork(
      (model_arch): ModuleList(
        (0): Sequential(
          (in_linear): Linear(in_features=2500, out_features=6000, bias=True)
          (in_batch norm): BatchNorm1d(6000, eps=1e-05, momentum=0.1, affine=True, track_running_stats=True)
          (in_activation): ReLU()
          (in_dropout): Dropout(p=0.2, inplace=False)
        )
        (1): Sequential(
          (0_linear): Linear(in_features=6000, out_features=2000, bias=True)
          (0_batch norm): BatchNorm1d(2000, eps=1e-05, momentum=0.1, affine=True, track_running_stats=True)
          (0_activation): ReLU()
          (0_dropout): Dropout(p=0.2, inplace=False)
        )
        (2): Sequential(
          (1_linear): Linear(in_features=2000, out_features=100, bias=True)
          (1_batch norm): BatchNorm1d(100, eps=1e-05, momentum=0.1, affine=True, track_running_stats=True)
          (1_activation): ReLU()
          (1_dropout): Dropout(p=0.2, inplace=False)
        )
      )
    )
  )
  (_FeatureImitationNetwork__stage_2): DynamicNeuralNetwork(
    (model_arch): ModuleList(
      (0): Sequential(
        (in_linear): Linear(in_features=500, out_features=300, bias=True)
        (in_batch norm): BatchNorm1d(300, eps=1e-05, momentum=0.1, affine=True, track_running_stats=True)
        (in_activation): Tanh()
        (in_dropout): Dropout(p=0.2, inplace=False)
      )
      (1): Sequential(
        (0_linear): Linear(in_features=300, out_features=100, bias=True)
        (0_batch norm): BatchNorm1d(100, eps=1e-05, momentum=0.1, affine=True, track_running_stats=True)
        (0_activation): Tanh()
        (0_dropout): Dropout(p=0.2, inplace=False)
      )
      (2): Sequential(
        (out_linear): Linear(in_features=100, out_features=1, bias=True)
      )
    )
  )
)
[94mOptimizer Parameters:[0m
    [96mlearning rate [0m: 0.0001
    [96mmomentum      [0m: 0.1
    [96mweight decay  [0m: 0.01
[1mStep[0m  [0/53], [94mLoss[0m : 11.06001
[1mStep[0m  [5/53], [94mLoss[0m : 10.81750
[1mStep[0m  [10/53], [94mLoss[0m : 11.07603
[1mStep[0m  [15/53], [94mLoss[0m : 11.12480
[1mStep[0m  [20/53], [94mLoss[0m : 11.27729
…
epochs                    30
activation           sigmoid
optimizer                sgd
early stopping         False
dropout                  0.2
momentum                 0.5
weight_decay          0.0001
Name: 1, dtype: object
Following models where found:

dict_keys(['whole_spec_quantile', 'delta_quantile', 'beta_quantile', 'theta_quantile', 'alpha_quantile'])

Running on device: cuda
Model Architecture:
FeatureImitationNetwork(
  (_FeatureImitationNetwork__stage_1): ModuleDict(
    (whole_spec_quantile): DynamicNeuralNetwork(
      (model_arch): ModuleList(
        (0): Sequential(
          (in_linear): Linear(in_features=2500, out_features=6000, bias=True)
          (in_batch norm): BatchNorm1d(6000, eps=1e-05, momentum=0.1, affine=True, track_running_stats=True)
          (in_activation): ReLU()
          (in_dropout): Dropout(p=0.2, inplace=False)
        )
        (1): Sequential(
          (0_linear): Linear(in_features=6000, out_features=2000, bias=True)
          (0_batch norm): BatchNorm1d(2000, eps=1e-05, momentum=0.1, affine=True, track_running_stats=True)
          (0_activation): ReLU()
          (0_dropout): Dropout(p=0.2, inplace=False)
        )
        (2): Sequential(
          (1_linear): Linear(in_features=2000, out_features=100, bias=True)
          (1_batch norm): BatchNorm1d(100, eps=1e-05, momentum=0.1, affine=True, track_running_stats=True)
          (1_activation): ReLU()
          (1_dropout): Dropout(p=0.2, inplace=False)
        )
      )
    )
    (delta_quantile): DynamicNeuralNetwork(
      (model_arch): ModuleList(
        (0): Sequential(
          (in_linear): Linear(in_features=2500, out_features=6000, bias=True)
          (in_batch norm): BatchNorm1d(6000, eps=1e-05, momentum=0.1, affine=True, track_running_stats=True)
          (in_activation): ReLU()
          (in_dropout): Dropout(p=0.2, inplace=False)
        )
        (1): Sequential(
          (0_linear): Linear(in_features=6000, out_features=2000, bias=True)
          (0_batch norm): BatchNorm1d(2000, eps=1e-05, momentum=0.1, affine=True, track_running_stats=True)
          (0_activation): ReLU()
          (0_dropout): Dropout(p=0.2, inplace=False)
        )
        (2): Sequential(
          (1_linear): Linear(in_features=2000, out_features=100, bias=True)
          (1_batch norm): BatchNorm1d(100, eps=1e-05, momentum=0.1, affine=True, track_running_stats=True)
          (1_activation): ReLU()
          (1_dropout): Dropout(p=0.2, inplace=False)
        )
      )
    )
    (beta_quantile): DynamicNeuralNetwork(
      (model_arch): ModuleList(
        (0): Sequential(
          (in_linear): Linear(in_features=2500, out_features=6000, bias=True)
          (in_batch norm): BatchNorm1d(6000, eps=1e-05, momentum=0.1, affine=True, track_running_stats=True)
          (in_activation): ReLU()
          (in_dropout): Dropout(p=0.2, inplace=False)
        )
        (1): Sequential(
          (0_linear): Linear(in_features=6000, out_features=2000, bias=True)
          (0_batch norm): BatchNorm1d(2000, eps=1e-05, momentum=0.1, affine=True, track_running_stats=True)
          (0_activation): ReLU()
          (0_dropout): Dropout(p=0.2, inplace=False)
        )
        (2): Sequential(
          (1_linear): Linear(in_features=2000, out_features=100, bias=True)
          (1_batch norm): BatchNorm1d(100, eps=1e-05, momentum=0.1, affine=True, track_running_stats=True)
          (1_activation): ReLU()
          (1_dropout): Dropout(p=0.2, inplace=False)
        )
      )
    )
    (theta_quantile): DynamicNeuralNetwork(
      (model_arch): ModuleList(
        (0): Sequential(
          (in_linear): Linear(in_features=2500, out_features=6000, bias=True)
          (in_batch norm): BatchNorm1d(6000, eps=1e-05, momentum=0.1, affine=True, track_running_stats=True)
          (in_activation): ReLU()
          (in_dropout): Dropout(p=0.2, inplace=False)
        )
        (1): Sequential(
          (0_linear): Linear(in_features=6000, out_features=2000, bias=True)
          (0_batch norm): BatchNorm1d(2000, eps=1e-05, momentum=0.1, affine=True, track_running_stats=True)
          (0_activation): ReLU()
          (0_dropout): Dropout(p=0.2, inplace=False)
        )
        (2): Sequential(
          (1_linear): Linear(in_features=2000, out_features=100, bias=True)
          (1_batch norm): BatchNorm1d(100, eps=1e-05, momentum=0.1, affine=True, track_running_stats=True)
          (1_activation): ReLU()
          (1_dropout): Dropout(p=0.2, inplace=False)
        )
      )
    )
    (alpha_quantile): DynamicNeuralNetwork(
      (model_arch): ModuleList(
        (0): Sequential(
          (in_linear): Linear(in_features=2500, out_features=6000, bias=True)
          (in_batch norm): BatchNorm1d(6000, eps=1e-05, momentum=0.1, affine=True, track_running_stats=True)
          (in_activation): ReLU()
          (in_dropout): Dropout(p=0.2, inplace=False)
        )
        (1): Sequential(
          (0_linear): Linear(in_features=6000, out_features=2000, bias=True)
          (0_batch norm): BatchNorm1d(2000, eps=1e-05, momentum=0.1, affine=True, track_running_stats=True)
          (0_activation): ReLU()
          (0_dropout): Dropout(p=0.2, inplace=False)
        )
        (2): Sequential(
          (1_linear): Linear(in_features=2000, out_features=100, bias=True)
          (1_batch norm): BatchNorm1d(100, eps=1e-05, momentum=0.1, affine=True, track_running_stats=True)
          (1_activation): ReLU()
          (1_dropout): Dropout(p=0.2, inplace=False)
        )
      )
    )
  )
  (_FeatureImitationNetwork__stage_2): DynamicNeuralNetwork(
    (model_arch): ModuleList(
      (0): Sequential(
        (in_linear): Linear(in_features=500, out_features=200, bias=True)
        (in_batch norm): BatchNorm1d(200, eps=1e-05, momentum=0.1, affine=True, track_running_stats=True)
        (in_activation): ReLU()
        (in_dropout): Dropout(p=0.4, inplace=False)
      )
      (1): Sequential(
        (0_linear): Linear(in_features=200, out_features=50, bias=True)
        (0_batch norm): BatchNorm1d(50, eps=1e-05, momentum=0.1, affine=True, track_running_stats=True)
        (0_activation): ReLU()
        (0_dropout): Dropout(p=0.4, inplace=False)
      )
      (2): Sequential(
        (out_linear): Linear(in_features=50, out_features=1, bias=True)
      )
    )
  )
)
Running on device: cuda
Model Architecture:
FeatureImitationNetwork(
  (_FeatureImitationNetwork__stage_1): ModuleDict(
    (whole_spec_quantile): DynamicNeuralNetwork(
      (model_arch): ModuleList(
        (0): Sequential(
          (in_linear): Linear(in_features=2500, out_features=6000, bias=True)
          (in_batch norm): BatchNorm1d(6000, eps=1e-05, momentum=0.1, affine=True, track_running_stats=True)
          (in_activation): ReLU()
          (in_dropout): Dropout(p=0.2, inplace=False)
        )
        (1): Sequential(
          (0_linear): Linear(in_features=6000, out_features=2000, bias=True)
          (0_batch norm): BatchNorm1d(2000, eps=1e-05, momentum=0.1, affine=True, track_running_stats=True)
          (0_activation): ReLU()
          (0_dropout): Dropout(p=0.2, inplace=False)
        )
        (2): Sequential(
          (1_linear): Linear(in_features=2000, out_features=100, bias=True)
          (1_batch norm): BatchNorm1d(100, eps=1e-05, momentum=0.1, affine=True, track_running_stats=True)
          (1_activation): ReLU()
          (1_dropout): Dropout(p=0.2, inplace=False)
        )
      )
    )
    (delta_quantile): DynamicNeuralNetwork(
      (model_arch): ModuleList(
        (0): Sequential(
          (in_linear): Linear(in_features=2500, out_features=6000, bias=True)
          (in_batch norm): BatchNorm1d(6000, eps=1e-05, momentum=0.1, affine=True, track_running_stats=True)
          (in_activation): ReLU()
          (in_dropout): Dropout(p=0.2, inplace=False)
        )
        (1): Sequential(
          (0_linear): Linear(in_features=6000, out_features=2000, bias=True)
          (0_batch norm): BatchNorm1d(2000, eps=1e-05, momentum=0.1, affine=True, track_running_stats=True)
          (0_activation): ReLU()
          (0_dropout): Dropout(p=0.2, inplace=False)
        )
        (2): Sequential(
          (1_linear): Linear(in_features=2000, out_features=100, bias=True)
          (1_batch norm): BatchNorm1d(100, eps=1e-05, momentum=0.1, affine=True, track_running_stats=True)
          (1_activation): ReLU()
          (1_dropout): Dropout(p=0.2, inplace=False)
        )
      )
    )
    (beta_quantile): DynamicNeuralNetwork(
      (model_arch): ModuleList(
        (0): Sequential(
          (in_linear): Linear(in_features=2500, out_features=6000, bias=True)
          (in_batch norm): BatchNorm1d(6000, eps=1e-05, momentum=0.1, affine=True, track_running_stats=True)
          (in_activation): ReLU()
          (in_dropout): Dropout(p=0.2, inplace=False)
        )
        (1): Sequential(
          (0_linear): Linear(in_features=6000, out_features=2000, bias=True)
          (0_batch norm): BatchNorm1d(2000, eps=1e-05, momentum=0.1, affine=True, track_running_stats=True)
          (0_activation): ReLU()
          (0_dropout): Dropout(p=0.2, inplace=False)
        )
        (2): Sequential(
          (1_linear): Linear(in_features=2000, out_features=100, bias=True)
          (1_batch norm): BatchNorm1d(100, eps=1e-05, momentum=0.1, affine=True, track_running_stats=True)
          (1_activation): ReLU()
          (1_dropout): Dropout(p=0.2, inplace=False)
        )
      )
    )
    (theta_quantile): DynamicNeuralNetwork(
      (model_arch): ModuleList(
        (0): Sequential(
          (in_linear): Linear(in_features=2500, out_features=6000, bias=True)
          (in_batch norm): BatchNorm1d(6000, eps=1e-05, momentum=0.1, affine=True, track_running_stats=True)
          (in_activation): ReLU()
          (in_dropout): Dropout(p=0.2, inplace=False)
        )
        (1): Sequential(
          (0_linear): Linear(in_features=6000, out_features=2000, bias=True)
          (0_batch norm): BatchNorm1d(2000, eps=1e-05, momentum=0.1, affine=True, track_running_stats=True)
          (0_activation): ReLU()
          (0_dropout): Dropout(p=0.2, inplace=False)
        )
        (2): Sequential(
          (1_linear): Linear(in_features=2000, out_features=100, bias=True)
          (1_batch norm): BatchNorm1d(100, eps=1e-05, momentum=0.1, affine=True, track_running_stats=True)
          (1_activation): ReLU()
          (1_dropout): Dropout(p=0.2, inplace=False)
        )
      )
    )
    (alpha_quantile): DynamicNeuralNetwork(
      (model_arch): ModuleList(
        (0): Sequential(
          (in_linear): Linear(in_features=2500, out_features=6000, bias=True)
          (in_batch norm): BatchNorm1d(6000, eps=1e-05, momentum=0.1, affine=True, track_running_stats=True)
          (in_activation): ReLU()
          (in_dropout): Dropout(p=0.2, inplace=False)
        )
        (1): Sequential(
          (0_linear): Linear(in_features=6000, out_features=2000, bias=True)
          (0_batch norm): BatchNorm1d(2000, eps=1e-05, momentum=0.1, affine=True, track_running_stats=True)
          (0_activation): ReLU()
          (0_dropout): Dropout(p=0.2, inplace=False)
        )
        (2): Sequential(
          (1_linear): Linear(in_features=2000, out_features=100, bias=True)
          (1_batch norm): BatchNorm1d(100, eps=1e-05, momentum=0.1, affine=True, track_running_stats=True)
          (1_activation): ReLU()
          (1_dropout): Dropout(p=0.2, inplace=False)
        )
      )
    )
  )
  (_FeatureImitationNetwork__stage_2): DynamicNeuralNetwork(
    (model_arch): ModuleList(
      (0): Sequential(
        (in_linear): Linear(in_features=500, out_features=200, bias=True)
        (in_batch norm): BatchNorm1d(200, eps=1e-05, momentum=0.1, affine=True, track_running_stats=True)
        (in_activation): ReLU()
        (in_dropout): Dropout(p=0.4, inplace=False)
      )
      (1): Sequential(
        (0_linear): Linear(in_features=200, out_features=50, bias=True)
        (0_batch norm): BatchNorm1d(50, eps=1e-05, momentum=0.1, affine=True, track_running_stats=True)
        (0_activation): ReLU()
        (0_dropout): Dropout(p=0.4, inplace=False)
      )
      (2): Sequential(
        (out_linear): Linear(in_features=50, out_features=1, bias=True)
      )
    )
  )
)
[94mOptimizer Parameters:[0m
    [96mlearning rate [0m: 0.0001
    [96mmomentum      [0m: 0.5
    [96mweight decay  [0m: 0.0001
[1mStep[0m  [0/53], [94mLoss[0m : 10.85761
[1mStep[0m  [5/53], [94mLoss[0m : 10.92532
[1mStep[0m  [10/53], [94mLoss[0m : 10.77575
[1mStep[0m  [15/53], [94mLoss[0m : 10.61189
[1mStep[0m  [20/53], [94mLoss[0m : 10.49584
…
epochs                    30
activation              relu
optimizer                sgd
early stopping          True
dropout                  0.4
momentum                 0.9
weight_decay           0.001
Name: 4, dtype: object
Following models where found:

dict_keys(['whole_spec_quantile', 'delta_quantile', 'beta_quantile', 'theta_quantile', 'alpha_quantile'])

Running on device: cuda
Model Architecture:
FeatureImitationNetwork(
  (_FeatureImitationNetwork__stage_1): ModuleDict(
    (whole_spec_quantile): DynamicNeuralNetwork(
      (model_arch): ModuleList(
        (0): Sequential(
          (in_linear): Linear(in_features=2500, out_features=6000, bias=True)
          (in_batch norm): BatchNorm1d(6000, eps=1e-05, momentum=0.1, affine=True, track_running_stats=True)
          (in_activation): ReLU()
          (in_dropout): Dropout(p=0.2, inplace=False)
        )
        (1): Sequential(
          (0_linear): Linear(in_features=6000, out_features=2000, bias=True)
          (0_batch norm): BatchNorm1d(2000, eps=1e-05, momentum=0.1, affine=True, track_running_stats=True)
          (0_activation): ReLU()
          (0_dropout): Dropout(p=0.2, inplace=False)
        )
        (2): Sequential(
          (1_linear): Linear(in_features=2000, out_features=100, bias=True)
          (1_batch norm): BatchNorm1d(100, eps=1e-05, momentum=0.1, affine=True, track_running_stats=True)
          (1_activation): ReLU()
          (1_dropout): Dropout(p=0.2, inplace=False)
        )
      )
    )
    (delta_quantile): DynamicNeuralNetwork(
      (model_arch): ModuleList(
        (0): Sequential(
          (in_linear): Linear(in_features=2500, out_features=6000, bias=True)
          (in_batch norm): BatchNorm1d(6000, eps=1e-05, momentum=0.1, affine=True, track_running_stats=True)
          (in_activation): ReLU()
          (in_dropout): Dropout(p=0.2, inplace=False)
        )
        (1): Sequential(
          (0_linear): Linear(in_features=6000, out_features=2000, bias=True)
          (0_batch norm): BatchNorm1d(2000, eps=1e-05, momentum=0.1, affine=True, track_running_stats=True)
          (0_activation): ReLU()
          (0_dropout): Dropout(p=0.2, inplace=False)
        )
        (2): Sequential(
          (1_linear): Linear(in_features=2000, out_features=100, bias=True)
          (1_batch norm): BatchNorm1d(100, eps=1e-05, momentum=0.1, affine=True, track_running_stats=True)
          (1_activation): ReLU()
          (1_dropout): Dropout(p=0.2, inplace=False)
        )
      )
    )
    (beta_quantile): DynamicNeuralNetwork(
      (model_arch): ModuleList(
        (0): Sequential(
          (in_linear): Linear(in_features=2500, out_features=6000, bias=True)
          (in_batch norm): BatchNorm1d(6000, eps=1e-05, momentum=0.1, affine=True, track_running_stats=True)
          (in_activation): ReLU()
          (in_dropout): Dropout(p=0.2, inplace=False)
        )
        (1): Sequential(
          (0_linear): Linear(in_features=6000, out_features=2000, bias=True)
          (0_batch norm): BatchNorm1d(2000, eps=1e-05, momentum=0.1, affine=True, track_running_stats=True)
          (0_activation): ReLU()
          (0_dropout): Dropout(p=0.2, inplace=False)
        )
        (2): Sequential(
          (1_linear): Linear(in_features=2000, out_features=100, bias=True)
          (1_batch norm): BatchNorm1d(100, eps=1e-05, momentum=0.1, affine=True, track_running_stats=True)
          (1_activation): ReLU()
          (1_dropout): Dropout(p=0.2, inplace=False)
        )
      )
    )
    (theta_quantile): DynamicNeuralNetwork(
      (model_arch): ModuleList(
        (0): Sequential(
          (in_linear): Linear(in_features=2500, out_features=6000, bias=True)
          (in_batch norm): BatchNorm1d(6000, eps=1e-05, momentum=0.1, affine=True, track_running_stats=True)
          (in_activation): ReLU()
          (in_dropout): Dropout(p=0.2, inplace=False)
        )
        (1): Sequential(
          (0_linear): Linear(in_features=6000, out_features=2000, bias=True)
          (0_batch norm): BatchNorm1d(2000, eps=1e-05, momentum=0.1, affine=True, track_running_stats=True)
          (0_activation): ReLU()
          (0_dropout): Dropout(p=0.2, inplace=False)
        )
        (2): Sequential(
          (1_linear): Linear(in_features=2000, out_features=100, bias=True)
          (1_batch norm): BatchNorm1d(100, eps=1e-05, momentum=0.1, affine=True, track_running_stats=True)
          (1_activation): ReLU()
          (1_dropout): Dropout(p=0.2, inplace=False)
        )
      )
    )
    (alpha_quantile): DynamicNeuralNetwork(
      (model_arch): ModuleList(
        (0): Sequential(
          (in_linear): Linear(in_features=2500, out_features=6000, bias=True)
          (in_batch norm): BatchNorm1d(6000, eps=1e-05, momentum=0.1, affine=True, track_running_stats=True)
          (in_activation): ReLU()
          (in_dropout): Dropout(p=0.2, inplace=False)
        )
        (1): Sequential(
          (0_linear): Linear(in_features=6000, out_features=2000, bias=True)
          (0_batch norm): BatchNorm1d(2000, eps=1e-05, momentum=0.1, affine=True, track_running_stats=True)
          (0_activation): ReLU()
          (0_dropout): Dropout(p=0.2, inplace=False)
        )
        (2): Sequential(
          (1_linear): Linear(in_features=2000, out_features=100, bias=True)
          (1_batch norm): BatchNorm1d(100, eps=1e-05, momentum=0.1, affine=True, track_running_stats=True)
          (1_activation): ReLU()
          (1_dropout): Dropout(p=0.2, inplace=False)
        )
      )
    )
  )
  (_FeatureImitationNetwork__stage_2): DynamicNeuralNetwork(
    (model_arch): ModuleList(
      (0): Sequential(
        (in_linear): Linear(in_features=500, out_features=300, bias=True)
        (in_batch norm): BatchNorm1d(300, eps=1e-05, momentum=0.1, affine=True, track_running_stats=True)
        (in_activation): Sigmoid()
        (in_dropout): Dropout(p=0.4, inplace=False)
      )
      (1): Sequential(
        (out_linear): Linear(in_features=300, out_features=1, bias=True)
      )
    )
  )
)
Running on device: cuda
Model Architecture:
FeatureImitationNetwork(
  (_FeatureImitationNetwork__stage_1): ModuleDict(
    (whole_spec_quantile): DynamicNeuralNetwork(
      (model_arch): ModuleList(
        (0): Sequential(
          (in_linear): Linear(in_features=2500, out_features=6000, bias=True)
          (in_batch norm): BatchNorm1d(6000, eps=1e-05, momentum=0.1, affine=True, track_running_stats=True)
          (in_activation): ReLU()
          (in_dropout): Dropout(p=0.2, inplace=False)
        )
        (1): Sequential(
          (0_linear): Linear(in_features=6000, out_features=2000, bias=True)
          (0_batch norm): BatchNorm1d(2000, eps=1e-05, momentum=0.1, affine=True, track_running_stats=True)
          (0_activation): ReLU()
          (0_dropout): Dropout(p=0.2, inplace=False)
        )
        (2): Sequential(
          (1_linear): Linear(in_features=2000, out_features=100, bias=True)
          (1_batch norm): BatchNorm1d(100, eps=1e-05, momentum=0.1, affine=True, track_running_stats=True)
          (1_activation): ReLU()
          (1_dropout): Dropout(p=0.2, inplace=False)
        )
      )
    )
    (delta_quantile): DynamicNeuralNetwork(
      (model_arch): ModuleList(
        (0): Sequential(
          (in_linear): Linear(in_features=2500, out_features=6000, bias=True)
          (in_batch norm): BatchNorm1d(6000, eps=1e-05, momentum=0.1, affine=True, track_running_stats=True)
          (in_activation): ReLU()
          (in_dropout): Dropout(p=0.2, inplace=False)
        )
        (1): Sequential(
          (0_linear): Linear(in_features=6000, out_features=2000, bias=True)
          (0_batch norm): BatchNorm1d(2000, eps=1e-05, momentum=0.1, affine=True, track_running_stats=True)
          (0_activation): ReLU()
          (0_dropout): Dropout(p=0.2, inplace=False)
        )
        (2): Sequential(
          (1_linear): Linear(in_features=2000, out_features=100, bias=True)
          (1_batch norm): BatchNorm1d(100, eps=1e-05, momentum=0.1, affine=True, track_running_stats=True)
          (1_activation): ReLU()
          (1_dropout): Dropout(p=0.2, inplace=False)
        )
      )
    )
    (beta_quantile): DynamicNeuralNetwork(
      (model_arch): ModuleList(
        (0): Sequential(
          (in_linear): Linear(in_features=2500, out_features=6000, bias=True)
          (in_batch norm): BatchNorm1d(6000, eps=1e-05, momentum=0.1, affine=True, track_running_stats=True)
          (in_activation): ReLU()
          (in_dropout): Dropout(p=0.2, inplace=False)
        )
        (1): Sequential(
          (0_linear): Linear(in_features=6000, out_features=2000, bias=True)
          (0_batch norm): BatchNorm1d(2000, eps=1e-05, momentum=0.1, affine=True, track_running_stats=True)
          (0_activation): ReLU()
          (0_dropout): Dropout(p=0.2, inplace=False)
        )
        (2): Sequential(
          (1_linear): Linear(in_features=2000, out_features=100, bias=True)
          (1_batch norm): BatchNorm1d(100, eps=1e-05, momentum=0.1, affine=True, track_running_stats=True)
          (1_activation): ReLU()
          (1_dropout): Dropout(p=0.2, inplace=False)
        )
      )
    )
    (theta_quantile): DynamicNeuralNetwork(
      (model_arch): ModuleList(
        (0): Sequential(
          (in_linear): Linear(in_features=2500, out_features=6000, bias=True)
          (in_batch norm): BatchNorm1d(6000, eps=1e-05, momentum=0.1, affine=True, track_running_stats=True)
          (in_activation): ReLU()
          (in_dropout): Dropout(p=0.2, inplace=False)
        )
        (1): Sequential(
          (0_linear): Linear(in_features=6000, out_features=2000, bias=True)
          (0_batch norm): BatchNorm1d(2000, eps=1e-05, momentum=0.1, affine=True, track_running_stats=True)
          (0_activation): ReLU()
          (0_dropout): Dropout(p=0.2, inplace=False)
        )
        (2): Sequential(
          (1_linear): Linear(in_features=2000, out_features=100, bias=True)
          (1_batch norm): BatchNorm1d(100, eps=1e-05, momentum=0.1, affine=True, track_running_stats=True)
          (1_activation): ReLU()
          (1_dropout): Dropout(p=0.2, inplace=False)
        )
      )
    )
    (alpha_quantile): DynamicNeuralNetwork(
      (model_arch): ModuleList(
        (0): Sequential(
          (in_linear): Linear(in_features=2500, out_features=6000, bias=True)
          (in_batch norm): BatchNorm1d(6000, eps=1e-05, momentum=0.1, affine=True, track_running_stats=True)
          (in_activation): ReLU()
          (in_dropout): Dropout(p=0.2, inplace=False)
        )
        (1): Sequential(
          (0_linear): Linear(in_features=6000, out_features=2000, bias=True)
          (0_batch norm): BatchNorm1d(2000, eps=1e-05, momentum=0.1, affine=True, track_running_stats=True)
          (0_activation): ReLU()
          (0_dropout): Dropout(p=0.2, inplace=False)
        )
        (2): Sequential(
          (1_linear): Linear(in_features=2000, out_features=100, bias=True)
          (1_batch norm): BatchNorm1d(100, eps=1e-05, momentum=0.1, affine=True, track_running_stats=True)
          (1_activation): ReLU()
          (1_dropout): Dropout(p=0.2, inplace=False)
        )
      )
    )
  )
  (_FeatureImitationNetwork__stage_2): DynamicNeuralNetwork(
    (model_arch): ModuleList(
      (0): Sequential(
        (in_linear): Linear(in_features=500, out_features=300, bias=True)
        (in_batch norm): BatchNorm1d(300, eps=1e-05, momentum=0.1, affine=True, track_running_stats=True)
        (in_activation): Sigmoid()
        (in_dropout): Dropout(p=0.4, inplace=False)
      )
      (1): Sequential(
        (out_linear): Linear(in_features=300, out_features=1, bias=True)
      )
    )
  )
)
[94mOptimizer Parameters:[0m
    [96mlearning rate [0m: 0.0001
    [96mmomentum      [0m: 0.9
    [96mweight decay  [0m: 0.01
[1mStep[0m  [0/26], [94mLoss[0m : 10.95522
[1mStep[0m  [2/26], [94mLoss[0m : 10.98120
[1mStep[0m  [4/26], [94mLoss[0m : 10.91834
[1mStep[0m  [6/26], [94mLoss[0m : 10.85965
[1mStep[0m  [8/26], [94mLoss[0m : 10.77266
…
hidden_sizes         [300]
epochs                  30
activation         sigmoid
optimizer              sgd
early stopping       False
dropout                0.3
momentum               0.1
weight_decay         0.001
Name: 6, dtype: object
Following models where found:

dict_keys(['whole_spec_quantile', 'delta_quantile', 'beta_quantile', 'theta_quantile', 'alpha_quantile'])

Running on device: cuda
Model Architecture:
FeatureImitationNetwork(
  (_FeatureImitationNetwork__stage_1): ModuleDict(
    (whole_spec_quantile): DynamicNeuralNetwork(
      (model_arch): ModuleList(
        (0): Sequential(
          (in_linear): Linear(in_features=2500, out_features=6000, bias=True)
          (in_batch norm): BatchNorm1d(6000, eps=1e-05, momentum=0.1, affine=True, track_running_stats=True)
          (in_activation): ReLU()
          (in_dropout): Dropout(p=0.2, inplace=False)
        )
        (1): Sequential(
          (0_linear): Linear(in_features=6000, out_features=2000, bias=True)
          (0_batch norm): BatchNorm1d(2000, eps=1e-05, momentum=0.1, affine=True, track_running_stats=True)
          (0_activation): ReLU()
          (0_dropout): Dropout(p=0.2, inplace=False)
        )
        (2): Sequential(
          (1_linear): Linear(in_features=2000, out_features=100, bias=True)
          (1_batch norm): BatchNorm1d(100, eps=1e-05, momentum=0.1, affine=True, track_running_stats=True)
          (1_activation): ReLU()
          (1_dropout): Dropout(p=0.2, inplace=False)
        )
      )
    )
    (delta_quantile): DynamicNeuralNetwork(
      (model_arch): ModuleList(
        (0): Sequential(
          (in_linear): Linear(in_features=2500, out_features=6000, bias=True)
          (in_batch norm): BatchNorm1d(6000, eps=1e-05, momentum=0.1, affine=True, track_running_stats=True)
          (in_activation): ReLU()
          (in_dropout): Dropout(p=0.2, inplace=False)
        )
        (1): Sequential(
          (0_linear): Linear(in_features=6000, out_features=2000, bias=True)
          (0_batch norm): BatchNorm1d(2000, eps=1e-05, momentum=0.1, affine=True, track_running_stats=True)
          (0_activation): ReLU()
          (0_dropout): Dropout(p=0.2, inplace=False)
        )
        (2): Sequential(
          (1_linear): Linear(in_features=2000, out_features=100, bias=True)
          (1_batch norm): BatchNorm1d(100, eps=1e-05, momentum=0.1, affine=True, track_running_stats=True)
          (1_activation): ReLU()
          (1_dropout): Dropout(p=0.2, inplace=False)
        )
      )
    )
    (beta_quantile): DynamicNeuralNetwork(
      (model_arch): ModuleList(
        (0): Sequential(
          (in_linear): Linear(in_features=2500, out_features=6000, bias=True)
          (in_batch norm): BatchNorm1d(6000, eps=1e-05, momentum=0.1, affine=True, track_running_stats=True)
          (in_activation): ReLU()
          (in_dropout): Dropout(p=0.2, inplace=False)
        )
        (1): Sequential(
          (0_linear): Linear(in_features=6000, out_features=2000, bias=True)
          (0_batch norm): BatchNorm1d(2000, eps=1e-05, momentum=0.1, affine=True, track_running_stats=True)
          (0_activation): ReLU()
          (0_dropout): Dropout(p=0.2, inplace=False)
        )
        (2): Sequential(
          (1_linear): Linear(in_features=2000, out_features=100, bias=True)
          (1_batch norm): BatchNorm1d(100, eps=1e-05, momentum=0.1, affine=True, track_running_stats=True)
          (1_activation): ReLU()
          (1_dropout): Dropout(p=0.2, inplace=False)
        )
      )
    )
    (theta_quantile): DynamicNeuralNetwork(
      (model_arch): ModuleList(
        (0): Sequential(
          (in_linear): Linear(in_features=2500, out_features=6000, bias=True)
          (in_batch norm): BatchNorm1d(6000, eps=1e-05, momentum=0.1, affine=True, track_running_stats=True)
          (in_activation): ReLU()
          (in_dropout): Dropout(p=0.2, inplace=False)
        )
        (1): Sequential(
          (0_linear): Linear(in_features=6000, out_features=2000, bias=True)
          (0_batch norm): BatchNorm1d(2000, eps=1e-05, momentum=0.1, affine=True, track_running_stats=True)
          (0_activation): ReLU()
          (0_dropout): Dropout(p=0.2, inplace=False)
        )
        (2): Sequential(
          (1_linear): Linear(in_features=2000, out_features=100, bias=True)
          (1_batch norm): BatchNorm1d(100, eps=1e-05, momentum=0.1, affine=True, track_running_stats=True)
          (1_activation): ReLU()
          (1_dropout): Dropout(p=0.2, inplace=False)
        )
      )
    )
    (alpha_quantile): DynamicNeuralNetwork(
      (model_arch): ModuleList(
        (0): Sequential(
          (in_linear): Linear(in_features=2500, out_features=6000, bias=True)
          (in_batch norm): BatchNorm1d(6000, eps=1e-05, momentum=0.1, affine=True, track_running_stats=True)
          (in_activation): ReLU()
          (in_dropout): Dropout(p=0.2, inplace=False)
        )
        (1): Sequential(
          (0_linear): Linear(in_features=6000, out_features=2000, bias=True)
          (0_batch norm): BatchNorm1d(2000, eps=1e-05, momentum=0.1, affine=True, track_running_stats=True)
          (0_activation): ReLU()
          (0_dropout): Dropout(p=0.2, inplace=False)
        )
        (2): Sequential(
          (1_linear): Linear(in_features=2000, out_features=100, bias=True)
          (1_batch norm): BatchNorm1d(100, eps=1e-05, momentum=0.1, affine=True, track_running_stats=True)
          (1_activation): ReLU()
          (1_dropout): Dropout(p=0.2, inplace=False)
        )
      )
    )
  )
  (_FeatureImitationNetwork__stage_2): DynamicNeuralNetwork(
    (model_arch): ModuleList(
      (0): Sequential(
        (in_linear): Linear(in_features=500, out_features=250, bias=True)
        (in_batch norm): BatchNorm1d(250, eps=1e-05, momentum=0.1, affine=True, track_running_stats=True)
        (in_activation): Tanh()
        (in_dropout): Dropout(p=0.4, inplace=False)
      )
      (1): Sequential(
        (out_linear): Linear(in_features=250, out_features=1, bias=True)
      )
    )
  )
)
Running on device: cuda
Model Architecture:
FeatureImitationNetwork(
  (_FeatureImitationNetwork__stage_1): ModuleDict(
    (whole_spec_quantile): DynamicNeuralNetwork(
      (model_arch): ModuleList(
        (0): Sequential(
          (in_linear): Linear(in_features=2500, out_features=6000, bias=True)
          (in_batch norm): BatchNorm1d(6000, eps=1e-05, momentum=0.1, affine=True, track_running_stats=True)
          (in_activation): ReLU()
          (in_dropout): Dropout(p=0.2, inplace=False)
        )
        (1): Sequential(
          (0_linear): Linear(in_features=6000, out_features=2000, bias=True)
          (0_batch norm): BatchNorm1d(2000, eps=1e-05, momentum=0.1, affine=True, track_running_stats=True)
          (0_activation): ReLU()
          (0_dropout): Dropout(p=0.2, inplace=False)
        )
        (2): Sequential(
          (1_linear): Linear(in_features=2000, out_features=100, bias=True)
          (1_batch norm): BatchNorm1d(100, eps=1e-05, momentum=0.1, affine=True, track_running_stats=True)
          (1_activation): ReLU()
          (1_dropout): Dropout(p=0.2, inplace=False)
        )
      )
    )
    (delta_quantile): DynamicNeuralNetwork(
      (model_arch): ModuleList(
        (0): Sequential(
          (in_linear): Linear(in_features=2500, out_features=6000, bias=True)
          (in_batch norm): BatchNorm1d(6000, eps=1e-05, momentum=0.1, affine=True, track_running_stats=True)
          (in_activation): ReLU()
          (in_dropout): Dropout(p=0.2, inplace=False)
        )
        (1): Sequential(
          (0_linear): Linear(in_features=6000, out_features=2000, bias=True)
          (0_batch norm): BatchNorm1d(2000, eps=1e-05, momentum=0.1, affine=True, track_running_stats=True)
          (0_activation): ReLU()
          (0_dropout): Dropout(p=0.2, inplace=False)
        )
        (2): Sequential(
          (1_linear): Linear(in_features=2000, out_features=100, bias=True)
          (1_batch norm): BatchNorm1d(100, eps=1e-05, momentum=0.1, affine=True, track_running_stats=True)
          (1_activation): ReLU()
          (1_dropout): Dropout(p=0.2, inplace=False)
        )
      )
    )
    (beta_quantile): DynamicNeuralNetwork(
      (model_arch): ModuleList(
        (0): Sequential(
          (in_linear): Linear(in_features=2500, out_features=6000, bias=True)
          (in_batch norm): BatchNorm1d(6000, eps=1e-05, momentum=0.1, affine=True, track_running_stats=True)
          (in_activation): ReLU()
          (in_dropout): Dropout(p=0.2, inplace=False)
        )
        (1): Sequential(
          (0_linear): Linear(in_features=6000, out_features=2000, bias=True)
          (0_batch norm): BatchNorm1d(2000, eps=1e-05, momentum=0.1, affine=True, track_running_stats=True)
          (0_activation): ReLU()
          (0_dropout): Dropout(p=0.2, inplace=False)
        )
        (2): Sequential(
          (1_linear): Linear(in_features=2000, out_features=100, bias=True)
          (1_batch norm): BatchNorm1d(100, eps=1e-05, momentum=0.1, affine=True, track_running_stats=True)
          (1_activation): ReLU()
          (1_dropout): Dropout(p=0.2, inplace=False)
        )
      )
    )
    (theta_quantile): DynamicNeuralNetwork(
      (model_arch): ModuleList(
        (0): Sequential(
          (in_linear): Linear(in_features=2500, out_features=6000, bias=True)
          (in_batch norm): BatchNorm1d(6000, eps=1e-05, momentum=0.1, affine=True, track_running_stats=True)
          (in_activation): ReLU()
          (in_dropout): Dropout(p=0.2, inplace=False)
        )
        (1): Sequential(
          (0_linear): Linear(in_features=6000, out_features=2000, bias=True)
          (0_batch norm): BatchNorm1d(2000, eps=1e-05, momentum=0.1, affine=True, track_running_stats=True)
          (0_activation): ReLU()
          (0_dropout): Dropout(p=0.2, inplace=False)
        )
        (2): Sequential(
          (1_linear): Linear(in_features=2000, out_features=100, bias=True)
          (1_batch norm): BatchNorm1d(100, eps=1e-05, momentum=0.1, affine=True, track_running_stats=True)
          (1_activation): ReLU()
          (1_dropout): Dropout(p=0.2, inplace=False)
        )
      )
    )
    (alpha_quantile): DynamicNeuralNetwork(
      (model_arch): ModuleList(
        (0): Sequential(
          (in_linear): Linear(in_features=2500, out_features=6000, bias=True)
          (in_batch norm): BatchNorm1d(6000, eps=1e-05, momentum=0.1, affine=True, track_running_stats=True)
          (in_activation): ReLU()
          (in_dropout): Dropout(p=0.2, inplace=False)
        )
        (1): Sequential(
          (0_linear): Linear(in_features=6000, out_features=2000, bias=True)
          (0_batch norm): BatchNorm1d(2000, eps=1e-05, momentum=0.1, affine=True, track_running_stats=True)
          (0_activation): ReLU()
          (0_dropout): Dropout(p=0.2, inplace=False)
        )
        (2): Sequential(
          (1_linear): Linear(in_features=2000, out_features=100, bias=True)
          (1_batch norm): BatchNorm1d(100, eps=1e-05, momentum=0.1, affine=True, track_running_stats=True)
          (1_activation): ReLU()
          (1_dropout): Dropout(p=0.2, inplace=False)
        )
      )
    )
  )
  (_FeatureImitationNetwork__stage_2): DynamicNeuralNetwork(
    (model_arch): ModuleList(
      (0): Sequential(
        (in_linear): Linear(in_features=500, out_features=250, bias=True)
        (in_batch norm): BatchNorm1d(250, eps=1e-05, momentum=0.1, affine=True, track_running_stats=True)
        (in_activation): Tanh()
        (in_dropout): Dropout(p=0.4, inplace=False)
      )
      (1): Sequential(
        (out_linear): Linear(in_features=250, out_features=1, bias=True)
      )
    )
  )
)
[94mOptimizer Parameters:[0m
    [96mlearning rate [0m: 0.0001
    [96mmomentum      [0m: 0.1
    [96mweight decay  [0m: 0.001
[1mStep[0m  [0/26], [94mLoss[0m : 10.96408
[1mStep[0m  [2/26], [94mLoss[0m : 10.85694
[1mStep[0m  [4/26], [94mLoss[0m : 10.58493
[1mStep[0m  [6/26], [94mLoss[0m : 10.71878
[1mStep[0m  [8/26], [94mLoss[0m : 10.95107
…
epochs                    30
activation              tanh
optimizer                sgd
early stopping         False
dropout                  0.2
momentum                 0.9
weight_decay          0.0001
Name: 8, dtype: object
Following models where found:

dict_keys(['whole_spec_quantile', 'delta_quantile', 'beta_quantile', 'theta_quantile', 'alpha_quantile'])

Running on device: cuda
Model Architecture:
FeatureImitationNetwork(
  (_FeatureImitationNetwork__stage_1): ModuleDict(
    (whole_spec_quantile): DynamicNeuralNetwork(
      (model_arch): ModuleList(
        (0): Sequential(
          (in_linear): Linear(in_features=2500, out_features=6000, bias=True)
          (in_batch norm): BatchNorm1d(6000, eps=1e-05, momentum=0.1, affine=True, track_running_stats=True)
          (in_activation): ReLU()
          (in_dropout): Dropout(p=0.2, inplace=False)
        )
        (1): Sequential(
          (0_linear): Linear(in_features=6000, out_features=2000, bias=True)
          (0_batch norm): BatchNorm1d(2000, eps=1e-05, momentum=0.1, affine=True, track_running_stats=True)
          (0_activation): ReLU()
          (0_dropout): Dropout(p=0.2, inplace=False)
        )
        (2): Sequential(
          (1_linear): Linear(in_features=2000, out_features=100, bias=True)
          (1_batch norm): BatchNorm1d(100, eps=1e-05, momentum=0.1, affine=True, track_running_stats=True)
          (1_activation): ReLU()
          (1_dropout): Dropout(p=0.2, inplace=False)
        )
      )
    )
    (delta_quantile): DynamicNeuralNetwork(
      (model_arch): ModuleList(
        (0): Sequential(
          (in_linear): Linear(in_features=2500, out_features=6000, bias=True)
          (in_batch norm): BatchNorm1d(6000, eps=1e-05, momentum=0.1, affine=True, track_running_stats=True)
          (in_activation): ReLU()
          (in_dropout): Dropout(p=0.2, inplace=False)
        )
        (1): Sequential(
          (0_linear): Linear(in_features=6000, out_features=2000, bias=True)
          (0_batch norm): BatchNorm1d(2000, eps=1e-05, momentum=0.1, affine=True, track_running_stats=True)
          (0_activation): ReLU()
          (0_dropout): Dropout(p=0.2, inplace=False)
        )
        (2): Sequential(
          (1_linear): Linear(in_features=2000, out_features=100, bias=True)
          (1_batch norm): BatchNorm1d(100, eps=1e-05, momentum=0.1, affine=True, track_running_stats=True)
          (1_activation): ReLU()
          (1_dropout): Dropout(p=0.2, inplace=False)
        )
      )
    )
    (beta_quantile): DynamicNeuralNetwork(
      (model_arch): ModuleList(
        (0): Sequential(
          (in_linear): Linear(in_features=2500, out_features=6000, bias=True)
          (in_batch norm): BatchNorm1d(6000, eps=1e-05, momentum=0.1, affine=True, track_running_stats=True)
          (in_activation): ReLU()
          (in_dropout): Dropout(p=0.2, inplace=False)
        )
        (1): Sequential(
          (0_linear): Linear(in_features=6000, out_features=2000, bias=True)
          (0_batch norm): BatchNorm1d(2000, eps=1e-05, momentum=0.1, affine=True, track_running_stats=True)
          (0_activation): ReLU()
          (0_dropout): Dropout(p=0.2, inplace=False)
        )
        (2): Sequential(
          (1_linear): Linear(in_features=2000, out_features=100, bias=True)
          (1_batch norm): BatchNorm1d(100, eps=1e-05, momentum=0.1, affine=True, track_running_stats=True)
          (1_activation): ReLU()
          (1_dropout): Dropout(p=0.2, inplace=False)
        )
      )
    )
    (theta_quantile): DynamicNeuralNetwork(
      (model_arch): ModuleList(
        (0): Sequential(
          (in_linear): Linear(in_features=2500, out_features=6000, bias=True)
          (in_batch norm): BatchNorm1d(6000, eps=1e-05, momentum=0.1, affine=True, track_running_stats=True)
          (in_activation): ReLU()
          (in_dropout): Dropout(p=0.2, inplace=False)
        )
        (1): Sequential(
          (0_linear): Linear(in_features=6000, out_features=2000, bias=True)
          (0_batch norm): BatchNorm1d(2000, eps=1e-05, momentum=0.1, affine=True, track_running_stats=True)
          (0_activation): ReLU()
          (0_dropout): Dropout(p=0.2, inplace=False)
        )
        (2): Sequential(
          (1_linear): Linear(in_features=2000, out_features=100, bias=True)
          (1_batch norm): BatchNorm1d(100, eps=1e-05, momentum=0.1, affine=True, track_running_stats=True)
          (1_activation): ReLU()
          (1_dropout): Dropout(p=0.2, inplace=False)
        )
      )
    )
    (alpha_quantile): DynamicNeuralNetwork(
      (model_arch): ModuleList(
        (0): Sequential(
          (in_linear): Linear(in_features=2500, out_features=6000, bias=True)
          (in_batch norm): BatchNorm1d(6000, eps=1e-05, momentum=0.1, affine=True, track_running_stats=True)
          (in_activation): ReLU()
          (in_dropout): Dropout(p=0.2, inplace=False)
        )
        (1): Sequential(
          (0_linear): Linear(in_features=6000, out_features=2000, bias=True)
          (0_batch norm): BatchNorm1d(2000, eps=1e-05, momentum=0.1, affine=True, track_running_stats=True)
          (0_activation): ReLU()
          (0_dropout): Dropout(p=0.2, inplace=False)
        )
        (2): Sequential(
          (1_linear): Linear(in_features=2000, out_features=100, bias=True)
          (1_batch norm): BatchNorm1d(100, eps=1e-05, momentum=0.1, affine=True, track_running_stats=True)
          (1_activation): ReLU()
          (1_dropout): Dropout(p=0.2, inplace=False)
        )
      )
    )
  )
  (_FeatureImitationNetwork__stage_2): DynamicNeuralNetwork(
    (model_arch): ModuleList(
      (0): Sequential(
        (in_linear): Linear(in_features=500, out_features=250, bias=True)
        (in_batch norm): BatchNorm1d(250, eps=1e-05, momentum=0.1, affine=True, track_running_stats=True)
        (in_activation): ReLU()
        (in_dropout): Dropout(p=0.2, inplace=False)
      )
      (1): Sequential(
        (0_linear): Linear(in_features=250, out_features=50, bias=True)
        (0_batch norm): BatchNorm1d(50, eps=1e-05, momentum=0.1, affine=True, track_running_stats=True)
        (0_activation): ReLU()
        (0_dropout): Dropout(p=0.2, inplace=False)
      )
      (2): Sequential(
        (out_linear): Linear(in_features=50, out_features=1, bias=True)
      )
    )
  )
)
Running on device: cuda
Model Architecture:
FeatureImitationNetwork(
  (_FeatureImitationNetwork__stage_1): ModuleDict(
    (whole_spec_quantile): DynamicNeuralNetwork(
      (model_arch): ModuleList(
        (0): Sequential(
          (in_linear): Linear(in_features=2500, out_features=6000, bias=True)
          (in_batch norm): BatchNorm1d(6000, eps=1e-05, momentum=0.1, affine=True, track_running_stats=True)
          (in_activation): ReLU()
          (in_dropout): Dropout(p=0.2, inplace=False)
        )
        (1): Sequential(
          (0_linear): Linear(in_features=6000, out_features=2000, bias=True)
          (0_batch norm): BatchNorm1d(2000, eps=1e-05, momentum=0.1, affine=True, track_running_stats=True)
          (0_activation): ReLU()
          (0_dropout): Dropout(p=0.2, inplace=False)
        )
        (2): Sequential(
          (1_linear): Linear(in_features=2000, out_features=100, bias=True)
          (1_batch norm): BatchNorm1d(100, eps=1e-05, momentum=0.1, affine=True, track_running_stats=True)
          (1_activation): ReLU()
          (1_dropout): Dropout(p=0.2, inplace=False)
        )
      )
    )
    (delta_quantile): DynamicNeuralNetwork(
      (model_arch): ModuleList(
        (0): Sequential(
          (in_linear): Linear(in_features=2500, out_features=6000, bias=True)
          (in_batch norm): BatchNorm1d(6000, eps=1e-05, momentum=0.1, affine=True, track_running_stats=True)
          (in_activation): ReLU()
          (in_dropout): Dropout(p=0.2, inplace=False)
        )
        (1): Sequential(
          (0_linear): Linear(in_features=6000, out_features=2000, bias=True)
          (0_batch norm): BatchNorm1d(2000, eps=1e-05, momentum=0.1, affine=True, track_running_stats=True)
          (0_activation): ReLU()
          (0_dropout): Dropout(p=0.2, inplace=False)
        )
        (2): Sequential(
          (1_linear): Linear(in_features=2000, out_features=100, bias=True)
          (1_batch norm): BatchNorm1d(100, eps=1e-05, momentum=0.1, affine=True, track_running_stats=True)
          (1_activation): ReLU()
          (1_dropout): Dropout(p=0.2, inplace=False)
        )
      )
    )
    (beta_quantile): DynamicNeuralNetwork(
      (model_arch): ModuleList(
        (0): Sequential(
          (in_linear): Linear(in_features=2500, out_features=6000, bias=True)
          (in_batch norm): BatchNorm1d(6000, eps=1e-05, momentum=0.1, affine=True, track_running_stats=True)
          (in_activation): ReLU()
          (in_dropout): Dropout(p=0.2, inplace=False)
        )
        (1): Sequential(
          (0_linear): Linear(in_features=6000, out_features=2000, bias=True)
          (0_batch norm): BatchNorm1d(2000, eps=1e-05, momentum=0.1, affine=True, track_running_stats=True)
          (0_activation): ReLU()
          (0_dropout): Dropout(p=0.2, inplace=False)
        )
        (2): Sequential(
          (1_linear): Linear(in_features=2000, out_features=100, bias=True)
          (1_batch norm): BatchNorm1d(100, eps=1e-05, momentum=0.1, affine=True, track_running_stats=True)
          (1_activation): ReLU()
          (1_dropout): Dropout(p=0.2, inplace=False)
        )
      )
    )
    (theta_quantile): DynamicNeuralNetwork(
      (model_arch): ModuleList(
        (0): Sequential(
          (in_linear): Linear(in_features=2500, out_features=6000, bias=True)
          (in_batch norm): BatchNorm1d(6000, eps=1e-05, momentum=0.1, affine=True, track_running_stats=True)
          (in_activation): ReLU()
          (in_dropout): Dropout(p=0.2, inplace=False)
        )
        (1): Sequential(
          (0_linear): Linear(in_features=6000, out_features=2000, bias=True)
          (0_batch norm): BatchNorm1d(2000, eps=1e-05, momentum=0.1, affine=True, track_running_stats=True)
          (0_activation): ReLU()
          (0_dropout): Dropout(p=0.2, inplace=False)
        )
        (2): Sequential(
          (1_linear): Linear(in_features=2000, out_features=100, bias=True)
          (1_batch norm): BatchNorm1d(100, eps=1e-05, momentum=0.1, affine=True, track_running_stats=True)
          (1_activation): ReLU()
          (1_dropout): Dropout(p=0.2, inplace=False)
        )
      )
    )
    (alpha_quantile): DynamicNeuralNetwork(
      (model_arch): ModuleList(
        (0): Sequential(
          (in_linear): Linear(in_features=2500, out_features=6000, bias=True)
          (in_batch norm): BatchNorm1d(6000, eps=1e-05, momentum=0.1, affine=True, track_running_stats=True)
          (in_activation): ReLU()
          (in_dropout): Dropout(p=0.2, inplace=False)
        )
        (1): Sequential(
          (0_linear): Linear(in_features=6000, out_features=2000, bias=True)
          (0_batch norm): BatchNorm1d(2000, eps=1e-05, momentum=0.1, affine=True, track_running_stats=True)
          (0_activation): ReLU()
          (0_dropout): Dropout(p=0.2, inplace=False)
        )
        (2): Sequential(
          (1_linear): Linear(in_features=2000, out_features=100, bias=True)
          (1_batch norm): BatchNorm1d(100, eps=1e-05, momentum=0.1, affine=True, track_running_stats=True)
          (1_activation): ReLU()
          (1_dropout): Dropout(p=0.2, inplace=False)
        )
      )
    )
  )
  (_FeatureImitationNetwork__stage_2): DynamicNeuralNetwork(
    (model_arch): ModuleList(
      (0): Sequential(
        (in_linear): Linear(in_features=500, out_features=250, bias=True)
        (in_batch norm): BatchNorm1d(250, eps=1e-05, momentum=0.1, affine=True, track_running_stats=True)
        (in_activation): ReLU()
        (in_dropout): Dropout(p=0.2, inplace=False)
      )
      (1): Sequential(
        (0_linear): Linear(in_features=250, out_features=50, bias=True)
        (0_batch norm): BatchNorm1d(50, eps=1e-05, momentum=0.1, affine=True, track_running_stats=True)
        (0_activation): ReLU()
        (0_dropout): Dropout(p=0.2, inplace=False)
      )
      (2): Sequential(
        (out_linear): Linear(in_features=50, out_features=1, bias=True)
      )
    )
  )
)
[94mOptimizer Parameters:[0m
    [96mlearning rate [0m: 0.0001
    [96mmomentum      [0m: 0.5
    [96mweight decay  [0m: 0.001
[1mStep[0m  [0/53], [94mLoss[0m : 10.86604
[1mStep[0m  [5/53], [94mLoss[0m : 10.71717
[1mStep[0m  [10/53], [94mLoss[0m : 10.64612
[1mStep[0m  [15/53], [94mLoss[0m : 10.76642
[1mStep[0m  [20/53], [94mLoss[0m : 11.05204
…
epochs                   30
activation          sigmoid
optimizer               sgd
early stopping        False
dropout                 0.2
momentum                0.1
weight_decay         0.0001
Name: 11, dtype: object
Following models where found:

dict_keys(['whole_spec_quantile', 'delta_quantile', 'beta_quantile', 'theta_quantile', 'alpha_quantile'])

Running on device: cuda
Model Architecture:
FeatureImitationNetwork(
  (_FeatureImitationNetwork__stage_1): ModuleDict(
    (whole_spec_quantile): DynamicNeuralNetwork(
      (model_arch): ModuleList(
        (0): Sequential(
          (in_linear): Linear(in_features=2500, out_features=6000, bias=True)
          (in_batch norm): BatchNorm1d(6000, eps=1e-05, momentum=0.1, affine=True, track_running_stats=True)
          (in_activation): ReLU()
          (in_dropout): Dropout(p=0.2, inplace=False)
        )
        (1): Sequential(
          (0_linear): Linear(in_features=6000, out_features=2000, bias=True)
          (0_batch norm): BatchNorm1d(2000, eps=1e-05, momentum=0.1, affine=True, track_running_stats=True)
          (0_activation): ReLU()
          (0_dropout): Dropout(p=0.2, inplace=False)
        )
        (2): Sequential(
          (1_linear): Linear(in_features=2000, out_features=100, bias=True)
          (1_batch norm): BatchNorm1d(100, eps=1e-05, momentum=0.1, affine=True, track_running_stats=True)
          (1_activation): ReLU()
          (1_dropout): Dropout(p=0.2, inplace=False)
        )
      )
    )
    (delta_quantile): DynamicNeuralNetwork(
      (model_arch): ModuleList(
        (0): Sequential(
          (in_linear): Linear(in_features=2500, out_features=6000, bias=True)
          (in_batch norm): BatchNorm1d(6000, eps=1e-05, momentum=0.1, affine=True, track_running_stats=True)
          (in_activation): ReLU()
          (in_dropout): Dropout(p=0.2, inplace=False)
        )
        (1): Sequential(
          (0_linear): Linear(in_features=6000, out_features=2000, bias=True)
          (0_batch norm): BatchNorm1d(2000, eps=1e-05, momentum=0.1, affine=True, track_running_stats=True)
          (0_activation): ReLU()
          (0_dropout): Dropout(p=0.2, inplace=False)
        )
        (2): Sequential(
          (1_linear): Linear(in_features=2000, out_features=100, bias=True)
          (1_batch norm): BatchNorm1d(100, eps=1e-05, momentum=0.1, affine=True, track_running_stats=True)
          (1_activation): ReLU()
          (1_dropout): Dropout(p=0.2, inplace=False)
        )
      )
    )
    (beta_quantile): DynamicNeuralNetwork(
      (model_arch): ModuleList(
        (0): Sequential(
          (in_linear): Linear(in_features=2500, out_features=6000, bias=True)
          (in_batch norm): BatchNorm1d(6000, eps=1e-05, momentum=0.1, affine=True, track_running_stats=True)
          (in_activation): ReLU()
          (in_dropout): Dropout(p=0.2, inplace=False)
        )
        (1): Sequential(
          (0_linear): Linear(in_features=6000, out_features=2000, bias=True)
          (0_batch norm): BatchNorm1d(2000, eps=1e-05, momentum=0.1, affine=True, track_running_stats=True)
          (0_activation): ReLU()
          (0_dropout): Dropout(p=0.2, inplace=False)
        )
        (2): Sequential(
          (1_linear): Linear(in_features=2000, out_features=100, bias=True)
          (1_batch norm): BatchNorm1d(100, eps=1e-05, momentum=0.1, affine=True, track_running_stats=True)
          (1_activation): ReLU()
          (1_dropout): Dropout(p=0.2, inplace=False)
        )
      )
    )
    (theta_quantile): DynamicNeuralNetwork(
      (model_arch): ModuleList(
        (0): Sequential(
          (in_linear): Linear(in_features=2500, out_features=6000, bias=True)
          (in_batch norm): BatchNorm1d(6000, eps=1e-05, momentum=0.1, affine=True, track_running_stats=True)
          (in_activation): ReLU()
          (in_dropout): Dropout(p=0.2, inplace=False)
        )
        (1): Sequential(
          (0_linear): Linear(in_features=6000, out_features=2000, bias=True)
          (0_batch norm): BatchNorm1d(2000, eps=1e-05, momentum=0.1, affine=True, track_running_stats=True)
          (0_activation): ReLU()
          (0_dropout): Dropout(p=0.2, inplace=False)
        )
        (2): Sequential(
          (1_linear): Linear(in_features=2000, out_features=100, bias=True)
          (1_batch norm): BatchNorm1d(100, eps=1e-05, momentum=0.1, affine=True, track_running_stats=True)
          (1_activation): ReLU()
          (1_dropout): Dropout(p=0.2, inplace=False)
        )
      )
    )
    (alpha_quantile): DynamicNeuralNetwork(
      (model_arch): ModuleList(
        (0): Sequential(
          (in_linear): Linear(in_features=2500, out_features=6000, bias=True)
          (in_batch norm): BatchNorm1d(6000, eps=1e-05, momentum=0.1, affine=True, track_running_stats=True)
          (in_activation): ReLU()
          (in_dropout): Dropout(p=0.2, inplace=False)
        )
        (1): Sequential(
          (0_linear): Linear(in_features=6000, out_features=2000, bias=True)
          (0_batch norm): BatchNorm1d(2000, eps=1e-05, momentum=0.1, affine=True, track_running_stats=True)
          (0_activation): ReLU()
          (0_dropout): Dropout(p=0.2, inplace=False)
        )
        (2): Sequential(
          (1_linear): Linear(in_features=2000, out_features=100, bias=True)
          (1_batch norm): BatchNorm1d(100, eps=1e-05, momentum=0.1, affine=True, track_running_stats=True)
          (1_activation): ReLU()
          (1_dropout): Dropout(p=0.2, inplace=False)
        )
      )
    )
  )
  (_FeatureImitationNetwork__stage_2): DynamicNeuralNetwork(
    (model_arch): ModuleList(
      (0): Sequential(
        (in_linear): Linear(in_features=500, out_features=100, bias=True)
        (in_batch norm): BatchNorm1d(100, eps=1e-05, momentum=0.1, affine=True, track_running_stats=True)
        (in_activation): ReLU()
        (in_dropout): Dropout(p=0.2, inplace=False)
      )
      (1): Sequential(
        (out_linear): Linear(in_features=100, out_features=1, bias=True)
      )
    )
  )
)
Running on device: cuda
Model Architecture:
FeatureImitationNetwork(
  (_FeatureImitationNetwork__stage_1): ModuleDict(
    (whole_spec_quantile): DynamicNeuralNetwork(
      (model_arch): ModuleList(
        (0): Sequential(
          (in_linear): Linear(in_features=2500, out_features=6000, bias=True)
          (in_batch norm): BatchNorm1d(6000, eps=1e-05, momentum=0.1, affine=True, track_running_stats=True)
          (in_activation): ReLU()
          (in_dropout): Dropout(p=0.2, inplace=False)
        )
        (1): Sequential(
          (0_linear): Linear(in_features=6000, out_features=2000, bias=True)
          (0_batch norm): BatchNorm1d(2000, eps=1e-05, momentum=0.1, affine=True, track_running_stats=True)
          (0_activation): ReLU()
          (0_dropout): Dropout(p=0.2, inplace=False)
        )
        (2): Sequential(
          (1_linear): Linear(in_features=2000, out_features=100, bias=True)
          (1_batch norm): BatchNorm1d(100, eps=1e-05, momentum=0.1, affine=True, track_running_stats=True)
          (1_activation): ReLU()
          (1_dropout): Dropout(p=0.2, inplace=False)
        )
      )
    )
    (delta_quantile): DynamicNeuralNetwork(
      (model_arch): ModuleList(
        (0): Sequential(
          (in_linear): Linear(in_features=2500, out_features=6000, bias=True)
          (in_batch norm): BatchNorm1d(6000, eps=1e-05, momentum=0.1, affine=True, track_running_stats=True)
          (in_activation): ReLU()
          (in_dropout): Dropout(p=0.2, inplace=False)
        )
        (1): Sequential(
          (0_linear): Linear(in_features=6000, out_features=2000, bias=True)
          (0_batch norm): BatchNorm1d(2000, eps=1e-05, momentum=0.1, affine=True, track_running_stats=True)
          (0_activation): ReLU()
          (0_dropout): Dropout(p=0.2, inplace=False)
        )
        (2): Sequential(
          (1_linear): Linear(in_features=2000, out_features=100, bias=True)
          (1_batch norm): BatchNorm1d(100, eps=1e-05, momentum=0.1, affine=True, track_running_stats=True)
          (1_activation): ReLU()
          (1_dropout): Dropout(p=0.2, inplace=False)
        )
      )
    )
    (beta_quantile): DynamicNeuralNetwork(
      (model_arch): ModuleList(
        (0): Sequential(
          (in_linear): Linear(in_features=2500, out_features=6000, bias=True)
          (in_batch norm): BatchNorm1d(6000, eps=1e-05, momentum=0.1, affine=True, track_running_stats=True)
          (in_activation): ReLU()
          (in_dropout): Dropout(p=0.2, inplace=False)
        )
        (1): Sequential(
          (0_linear): Linear(in_features=6000, out_features=2000, bias=True)
          (0_batch norm): BatchNorm1d(2000, eps=1e-05, momentum=0.1, affine=True, track_running_stats=True)
          (0_activation): ReLU()
          (0_dropout): Dropout(p=0.2, inplace=False)
        )
        (2): Sequential(
          (1_linear): Linear(in_features=2000, out_features=100, bias=True)
          (1_batch norm): BatchNorm1d(100, eps=1e-05, momentum=0.1, affine=True, track_running_stats=True)
          (1_activation): ReLU()
          (1_dropout): Dropout(p=0.2, inplace=False)
        )
      )
    )
    (theta_quantile): DynamicNeuralNetwork(
      (model_arch): ModuleList(
        (0): Sequential(
          (in_linear): Linear(in_features=2500, out_features=6000, bias=True)
          (in_batch norm): BatchNorm1d(6000, eps=1e-05, momentum=0.1, affine=True, track_running_stats=True)
          (in_activation): ReLU()
          (in_dropout): Dropout(p=0.2, inplace=False)
        )
        (1): Sequential(
          (0_linear): Linear(in_features=6000, out_features=2000, bias=True)
          (0_batch norm): BatchNorm1d(2000, eps=1e-05, momentum=0.1, affine=True, track_running_stats=True)
          (0_activation): ReLU()
          (0_dropout): Dropout(p=0.2, inplace=False)
        )
        (2): Sequential(
          (1_linear): Linear(in_features=2000, out_features=100, bias=True)
          (1_batch norm): BatchNorm1d(100, eps=1e-05, momentum=0.1, affine=True, track_running_stats=True)
          (1_activation): ReLU()
          (1_dropout): Dropout(p=0.2, inplace=False)
        )
      )
    )
    (alpha_quantile): DynamicNeuralNetwork(
      (model_arch): ModuleList(
        (0): Sequential(
          (in_linear): Linear(in_features=2500, out_features=6000, bias=True)
          (in_batch norm): BatchNorm1d(6000, eps=1e-05, momentum=0.1, affine=True, track_running_stats=True)
          (in_activation): ReLU()
          (in_dropout): Dropout(p=0.2, inplace=False)
        )
        (1): Sequential(
          (0_linear): Linear(in_features=6000, out_features=2000, bias=True)
          (0_batch norm): BatchNorm1d(2000, eps=1e-05, momentum=0.1, affine=True, track_running_stats=True)
          (0_activation): ReLU()
          (0_dropout): Dropout(p=0.2, inplace=False)
        )
        (2): Sequential(
          (1_linear): Linear(in_features=2000, out_features=100, bias=True)
          (1_batch norm): BatchNorm1d(100, eps=1e-05, momentum=0.1, affine=True, track_running_stats=True)
          (1_activation): ReLU()
          (1_dropout): Dropout(p=0.2, inplace=False)
        )
      )
    )
  )
  (_FeatureImitationNetwork__stage_2): DynamicNeuralNetwork(
    (model_arch): ModuleList(
      (0): Sequential(
        (in_linear): Linear(in_features=500, out_features=100, bias=True)
        (in_batch norm): BatchNorm1d(100, eps=1e-05, momentum=0.1, affine=True, track_running_stats=True)
        (in_activation): ReLU()
        (in_dropout): Dropout(p=0.2, inplace=False)
      )
      (1): Sequential(
        (out_linear): Linear(in_features=100, out_features=1, bias=True)
      )
    )
  )
)
[94mOptimizer Parameters:[0m
    [96mlearning rate [0m: 0.0001
    [96mmomentum      [0m: 0.1
    [96mweight decay  [0m: 0.01
[1mStep[0m  [0/26], [94mLoss[0m : 10.61803
[1mStep[0m  [2/26], [94mLoss[0m : 10.94682
[1mStep[0m  [4/26], [94mLoss[0m : 10.87359
[1mStep[0m  [6/26], [94mLoss[0m : 10.93610
[1mStep[0m  [8/26], [94mLoss[0m : 10.64500
…
[1mStep[0m  [50/53], [94mLoss[0m : 8.68979

====================================
[1mEpoch[0m [29/30], [94mTrain[0m: 8.751, [92mTest[0m: 8.416, [96mlr[0m: 9e-05
====================================

====================================
[92mFinal Evaluation MAE Loss[0m: 8.235
====================================

Phase 1 - Evaluation MAE:  8.235376578110914
Running on device: cuda
Model Architecture:
FeatureImitationNetwork(
  (_FeatureImitationNetwork__stage_1): ModuleDict(
    (whole_spec_quantile): DynamicNeuralNetwork(
      (model_arch): ModuleList(
        (0): Sequential(
          (in_linear): Linear(in_features=2500, out_features=6000, bias=True)
          (in_batch norm): BatchNorm1d(6000, eps=1e-05, momentum=0.1, affine=True, track_running_stats=True)
          (in_activation): ReLU()
          (in_dropout): Dropout(p=0.2, inplace=False)
        )
        (1): Sequential(
          (0_linear): Linear(in_features=6000, out_features=2000, bias=True)
          (0_batch norm): BatchNorm1d(2000, eps=1e-05, momentum=0.1, affine=True, track_running_stats=True)
          (0_activation): ReLU()
          (0_dropout): Dropout(p=0.2, inplace=False)
        )
        (2): Sequential(
          (1_linear): Linear(in_features=2000, out_features=100, bias=True)
          (1_batch norm): BatchNorm1d(100, eps=1e-05, momentum=0.1, affine=True, track_running_stats=True)
          (1_activation): ReLU()
          (1_dropout): Dropout(p=0.2, inplace=False)
        )
      )
    )
    (delta_quantile): DynamicNeuralNetwork(
      (model_arch): ModuleList(
        (0): Sequential(
          (in_linear): Linear(in_features=2500, out_features=6000, bias=True)
          (in_batch norm): BatchNorm1d(6000, eps=1e-05, momentum=0.1, affine=True, track_running_stats=True)
          (in_activation): ReLU()
          (in_dropout): Dropout(p=0.2, inplace=False)
        )
        (1): Sequential(
          (0_linear): Linear(in_features=6000, out_features=2000, bias=True)
          (0_batch norm): BatchNorm1d(2000, eps=1e-05, momentum=0.1, affine=True, track_running_stats=True)
          (0_activation): ReLU()
          (0_dropout): Dropout(p=0.2, inplace=False)
        )
        (2): Sequential(
          (1_linear): Linear(in_features=2000, out_features=100, bias=True)
          (1_batch norm): BatchNorm1d(100, eps=1e-05, momentum=0.1, affine=True, track_running_stats=True)
          (1_activation): ReLU()
          (1_dropout): Dropout(p=0.2, inplace=False)
        )
      )
    )
    (beta_quantile): DynamicNeuralNetwork(
      (model_arch): ModuleList(
        (0): Sequential(
          (in_linear): Linear(in_features=2500, out_features=6000, bias=True)
          (in_batch norm): BatchNorm1d(6000, eps=1e-05, momentum=0.1, affine=True, track_running_stats=True)
          (in_activation): ReLU()
          (in_dropout): Dropout(p=0.2, inplace=False)
        )
        (1): Sequential(
          (0_linear): Linear(in_features=6000, out_features=2000, bias=True)
          (0_batch norm): BatchNorm1d(2000, eps=1e-05, momentum=0.1, affine=True, track_running_stats=True)
          (0_activation): ReLU()
          (0_dropout): Dropout(p=0.2, inplace=False)
        )
        (2): Sequential(
          (1_linear): Linear(in_features=2000, out_features=100, bias=True)
          (1_batch norm): BatchNorm1d(100, eps=1e-05, momentum=0.1, affine=True, track_running_stats=True)
          (1_activation): ReLU()
          (1_dropout): Dropout(p=0.2, inplace=False)
        )
      )
    )
    (theta_quantile): DynamicNeuralNetwork(
      (model_arch): ModuleList(
        (0): Sequential(
          (in_linear): Linear(in_features=2500, out_features=6000, bias=True)
          (in_batch norm): BatchNorm1d(6000, eps=1e-05, momentum=0.1, affine=True, track_running_stats=True)
          (in_activation): ReLU()
          (in_dropout): Dropout(p=0.2, inplace=False)
        )
        (1): Sequential(
          (0_linear): Linear(in_features=6000, out_features=2000, bias=True)
          (0_batch norm): BatchNorm1d(2000, eps=1e-05, momentum=0.1, affine=True, track_running_stats=True)
          (0_activation): ReLU()
          (0_dropout): Dropout(p=0.2, inplace=False)
        )
        (2): Sequential(
          (1_linear): Linear(in_features=2000, out_features=100, bias=True)
          (1_batch norm): BatchNorm1d(100, eps=1e-05, momentum=0.1, affine=True, track_running_stats=True)
          (1_activation): ReLU()
          (1_dropout): Dropout(p=0.2, inplace=False)
        )
      )
    )
    (alpha_quantile): DynamicNeuralNetwork(
      (model_arch): ModuleList(
        (0): Sequential(
          (in_linear): Linear(in_features=2500, out_features=6000, bias=True)
          (in_batch norm): BatchNorm1d(6000, eps=1e-05, momentum=0.1, affine=True, track_running_stats=True)
          (in_activation): ReLU()
          (in_dropout): Dropout(p=0.2, inplace=False)
        )
        (1): Sequential(
          (0_linear): Linear(in_features=6000, out_features=2000, bias=True)
          (0_batch norm): BatchNorm1d(2000, eps=1e-05, momentum=0.1, affine=True, track_running_stats=True)
          (0_activation): ReLU()
          (0_dropout): Dropout(p=0.2, inplace=False)
        )
        (2): Sequential(
          (1_linear): Linear(in_features=2000, out_features=100, bias=True)
          (1_batch norm): BatchNorm1d(100, eps=1e-05, momentum=0.1, affine=True, track_running_stats=True)
          (1_activation): ReLU()
          (1_dropout): Dropout(p=0.2, inplace=False)
        )
      )
    )
  )
  (_FeatureImitationNetwork__stage_2): DynamicNeuralNetwork(
    (model_arch): ModuleList(
      (0): Sequential(
        (in_linear): Linear(in_features=500, out_features=200, bias=True)
        (in_batch norm): BatchNorm1d(200, eps=1e-05, momentum=0.1, affine=True, track_running_stats=True)
        (in_activation): Tanh()
        (in_dropout): Dropout(p=0.2, inplace=False)
      )
      (1): Sequential(
        (0_linear): Linear(in_features=200, out_features=50, bias=True)
        (0_batch norm): BatchNorm1d(50, eps=1e-05, momentum=0.1, affine=True, track_running_stats=True)
        (0_activation): Tanh()
        (0_dropout): Dropout(p=0.2, inplace=False)
      )
      (2): Sequential(
        (out_linear): Linear(in_features=50, out_features=1, bias=True)
      )
    )
  )
)
Running on device: cuda
