…
-----------------
Process ID:  9
Number of Nodes:  1
Number of Array Tasks:  16
-----------------
Using device: cuda

AMD Instinct MI210
Memory Usage:
Allocated: 0.0 GB
Cached:    0.0 GB
theta
whole_spec
delta
alpha
beta
Following models where found:

dict_keys(['whole_spec_quantile', 'delta_quantile', 'beta_quantile', 'theta_quantile', 'alpha_quantile'])

Running on device: cuda
Model Architecture:
FeatureImitationNetwork(
  (_FeatureImitationNetwork__stage_1): ModuleDict(
    (whole_spec_quantile): DynamicNeuralNetwork(
      (model_arch): ModuleList(
        (0): Sequential(
          (in_linear): Linear(in_features=2500, out_features=6000, bias=True)
          (in_batch norm): BatchNorm1d(6000, eps=1e-05, momentum=0.1, affine=True, track_running_stats=True)
          (in_activation): ReLU()
          (in_dropout): Dropout(p=0.2, inplace=False)
        )
        (1): Sequential(
          (0_linear): Linear(in_features=6000, out_features=2000, bias=True)
          (0_batch norm): BatchNorm1d(2000, eps=1e-05, momentum=0.1, affine=True, track_running_stats=True)
          (0_activation): ReLU()
          (0_dropout): Dropout(p=0.2, inplace=False)
        )
        (2): Sequential(
          (1_linear): Linear(in_features=2000, out_features=100, bias=True)
          (1_batch norm): BatchNorm1d(100, eps=1e-05, momentum=0.1, affine=True, track_running_stats=True)
          (1_activation): ReLU()
          (1_dropout): Dropout(p=0.2, inplace=False)
        )
      )
    )
    (delta_quantile): DynamicNeuralNetwork(
      (model_arch): ModuleList(
        (0): Sequential(
          (in_linear): Linear(in_features=2500, out_features=6000, bias=True)
          (in_batch norm): BatchNorm1d(6000, eps=1e-05, momentum=0.1, affine=True, track_running_stats=True)
          (in_activation): ReLU()
          (in_dropout): Dropout(p=0.2, inplace=False)
        )
        (1): Sequential(
          (0_linear): Linear(in_features=6000, out_features=2000, bias=True)
          (0_batch norm): BatchNorm1d(2000, eps=1e-05, momentum=0.1, affine=True, track_running_stats=True)
          (0_activation): ReLU()
          (0_dropout): Dropout(p=0.2, inplace=False)
        )
        (2): Sequential(
          (1_linear): Linear(in_features=2000, out_features=100, bias=True)
          (1_batch norm): BatchNorm1d(100, eps=1e-05, momentum=0.1, affine=True, track_running_stats=True)
          (1_activation): ReLU()
          (1_dropout): Dropout(p=0.2, inplace=False)
        )
      )
    )
    (beta_quantile): DynamicNeuralNetwork(
      (model_arch): ModuleList(
        (0): Sequential(
          (in_linear): Linear(in_features=2500, out_features=6000, bias=True)
          (in_batch norm): BatchNorm1d(6000, eps=1e-05, momentum=0.1, affine=True, track_running_stats=True)
          (in_activation): ReLU()
          (in_dropout): Dropout(p=0.2, inplace=False)
        )
        (1): Sequential(
          (0_linear): Linear(in_features=6000, out_features=2000, bias=True)
          (0_batch norm): BatchNorm1d(2000, eps=1e-05, momentum=0.1, affine=True, track_running_stats=True)
          (0_activation): ReLU()
          (0_dropout): Dropout(p=0.2, inplace=False)
        )
        (2): Sequential(
          (1_linear): Linear(in_features=2000, out_features=100, bias=True)
          (1_batch norm): BatchNorm1d(100, eps=1e-05, momentum=0.1, affine=True, track_running_stats=True)
          (1_activation): ReLU()
          (1_dropout): Dropout(p=0.2, inplace=False)
        )
      )
    )
    (theta_quantile): DynamicNeuralNetwork(
      (model_arch): ModuleList(
        (0): Sequential(
          (in_linear): Linear(in_features=2500, out_features=6000, bias=True)
          (in_batch norm): BatchNorm1d(6000, eps=1e-05, momentum=0.1, affine=True, track_running_stats=True)
          (in_activation): ReLU()
          (in_dropout): Dropout(p=0.2, inplace=False)
        )
        (1): Sequential(
          (0_linear): Linear(in_features=6000, out_features=2000, bias=True)
          (0_batch norm): BatchNorm1d(2000, eps=1e-05, momentum=0.1, affine=True, track_running_stats=True)
          (0_activation): ReLU()
          (0_dropout): Dropout(p=0.2, inplace=False)
        )
        (2): Sequential(
          (1_linear): Linear(in_features=2000, out_features=100, bias=True)
          (1_batch norm): BatchNorm1d(100, eps=1e-05, momentum=0.1, affine=True, track_running_stats=True)
          (1_activation): ReLU()
          (1_dropout): Dropout(p=0.2, inplace=False)
        )
      )
    )
    (alpha_quantile): DynamicNeuralNetwork(
      (model_arch): ModuleList(
        (0): Sequential(
          (in_linear): Linear(in_features=2500, out_features=6000, bias=True)
          (in_batch norm): BatchNorm1d(6000, eps=1e-05, momentum=0.1, affine=True, track_running_stats=True)
          (in_activation): ReLU()
          (in_dropout): Dropout(p=0.2, inplace=False)
        )
        (1): Sequential(
          (0_linear): Linear(in_features=6000, out_features=2000, bias=True)
          (0_batch norm): BatchNorm1d(2000, eps=1e-05, momentum=0.1, affine=True, track_running_stats=True)
          (0_activation): ReLU()
          (0_dropout): Dropout(p=0.2, inplace=False)
        )
        (2): Sequential(
          (1_linear): Linear(in_features=2000, out_features=100, bias=True)
          (1_batch norm): BatchNorm1d(100, eps=1e-05, momentum=0.1, affine=True, track_running_stats=True)
          (1_activation): ReLU()
          (1_dropout): Dropout(p=0.2, inplace=False)
        )
      )
    )
  )
  (_FeatureImitationNetwork__stage_2): DynamicNeuralNetwork(
    (model_arch): ModuleList(
      (0): Sequential(
        (in_linear): Linear(in_features=500, out_features=100, bias=True)
        (in_batch norm): BatchNorm1d(100, eps=1e-05, momentum=0.1, affine=True, track_running_stats=True)
        (in_activation): Tanh()
        (in_dropout): Dropout(p=0.3, inplace=False)
      )
      (1): Sequential(
        (out_linear): Linear(in_features=100, out_features=1, bias=True)
      )
    )
  )
)
Running on device: cuda
Model Architecture:
FeatureImitationNetwork(
  (_FeatureImitationNetwork__stage_1): ModuleDict(
    (whole_spec_quantile): DynamicNeuralNetwork(
      (model_arch): ModuleList(
        (0): Sequential(
          (in_linear): Linear(in_features=2500, out_features=6000, bias=True)
          (in_batch norm): BatchNorm1d(6000, eps=1e-05, momentum=0.1, affine=True, track_running_stats=True)
          (in_activation): ReLU()
          (in_dropout): Dropout(p=0.2, inplace=False)
        )
        (1): Sequential(
          (0_linear): Linear(in_features=6000, out_features=2000, bias=True)
          (0_batch norm): BatchNorm1d(2000, eps=1e-05, momentum=0.1, affine=True, track_running_stats=True)
          (0_activation): ReLU()
          (0_dropout): Dropout(p=0.2, inplace=False)
        )
        (2): Sequential(
          (1_linear): Linear(in_features=2000, out_features=100, bias=True)
          (1_batch norm): BatchNorm1d(100, eps=1e-05, momentum=0.1, affine=True, track_running_stats=True)
          (1_activation): ReLU()
          (1_dropout): Dropout(p=0.2, inplace=False)
        )
      )
    )
    (delta_quantile): DynamicNeuralNetwork(
      (model_arch): ModuleList(
        (0): Sequential(
          (in_linear): Linear(in_features=2500, out_features=6000, bias=True)
          (in_batch norm): BatchNorm1d(6000, eps=1e-05, momentum=0.1, affine=True, track_running_stats=True)
          (in_activation): ReLU()
          (in_dropout): Dropout(p=0.2, inplace=False)
        )
        (1): Sequential(
          (0_linear): Linear(in_features=6000, out_features=2000, bias=True)
          (0_batch norm): BatchNorm1d(2000, eps=1e-05, momentum=0.1, affine=True, track_running_stats=True)
          (0_activation): ReLU()
          (0_dropout): Dropout(p=0.2, inplace=False)
        )
        (2): Sequential(
          (1_linear): Linear(in_features=2000, out_features=100, bias=True)
          (1_batch norm): BatchNorm1d(100, eps=1e-05, momentum=0.1, affine=True, track_running_stats=True)
          (1_activation): ReLU()
          (1_dropout): Dropout(p=0.2, inplace=False)
        )
      )
    )
    (beta_quantile): DynamicNeuralNetwork(
      (model_arch): ModuleList(
        (0): Sequential(
          (in_linear): Linear(in_features=2500, out_features=6000, bias=True)
          (in_batch norm): BatchNorm1d(6000, eps=1e-05, momentum=0.1, affine=True, track_running_stats=True)
          (in_activation): ReLU()
          (in_dropout): Dropout(p=0.2, inplace=False)
        )
        (1): Sequential(
          (0_linear): Linear(in_features=6000, out_features=2000, bias=True)
          (0_batch norm): BatchNorm1d(2000, eps=1e-05, momentum=0.1, affine=True, track_running_stats=True)
          (0_activation): ReLU()
          (0_dropout): Dropout(p=0.2, inplace=False)
        )
        (2): Sequential(
          (1_linear): Linear(in_features=2000, out_features=100, bias=True)
          (1_batch norm): BatchNorm1d(100, eps=1e-05, momentum=0.1, affine=True, track_running_stats=True)
          (1_activation): ReLU()
          (1_dropout): Dropout(p=0.2, inplace=False)
        )
      )
    )
    (theta_quantile): DynamicNeuralNetwork(
      (model_arch): ModuleList(
        (0): Sequential(
          (in_linear): Linear(in_features=2500, out_features=6000, bias=True)
          (in_batch norm): BatchNorm1d(6000, eps=1e-05, momentum=0.1, affine=True, track_running_stats=True)
          (in_activation): ReLU()
          (in_dropout): Dropout(p=0.2, inplace=False)
        )
        (1): Sequential(
          (0_linear): Linear(in_features=6000, out_features=2000, bias=True)
          (0_batch norm): BatchNorm1d(2000, eps=1e-05, momentum=0.1, affine=True, track_running_stats=True)
          (0_activation): ReLU()
          (0_dropout): Dropout(p=0.2, inplace=False)
        )
        (2): Sequential(
          (1_linear): Linear(in_features=2000, out_features=100, bias=True)
          (1_batch norm): BatchNorm1d(100, eps=1e-05, momentum=0.1, affine=True, track_running_stats=True)
          (1_activation): ReLU()
          (1_dropout): Dropout(p=0.2, inplace=False)
        )
      )
    )
    (alpha_quantile): DynamicNeuralNetwork(
      (model_arch): ModuleList(
        (0): Sequential(
          (in_linear): Linear(in_features=2500, out_features=6000, bias=True)
          (in_batch norm): BatchNorm1d(6000, eps=1e-05, momentum=0.1, affine=True, track_running_stats=True)
          (in_activation): ReLU()
          (in_dropout): Dropout(p=0.2, inplace=False)
        )
        (1): Sequential(
          (0_linear): Linear(in_features=6000, out_features=2000, bias=True)
          (0_batch norm): BatchNorm1d(2000, eps=1e-05, momentum=0.1, affine=True, track_running_stats=True)
          (0_activation): ReLU()
          (0_dropout): Dropout(p=0.2, inplace=False)
        )
        (2): Sequential(
          (1_linear): Linear(in_features=2000, out_features=100, bias=True)
          (1_batch norm): BatchNorm1d(100, eps=1e-05, momentum=0.1, affine=True, track_running_stats=True)
          (1_activation): ReLU()
          (1_dropout): Dropout(p=0.2, inplace=False)
        )
      )
    )
  )
  (_FeatureImitationNetwork__stage_2): DynamicNeuralNetwork(
    (model_arch): ModuleList(
      (0): Sequential(
        (in_linear): Linear(in_features=500, out_features=100, bias=True)
        (in_batch norm): BatchNorm1d(100, eps=1e-05, momentum=0.1, affine=True, track_running_stats=True)
        (in_activation): Tanh()
        (in_dropout): Dropout(p=0.3, inplace=False)
      )
      (1): Sequential(
        (out_linear): Linear(in_features=100, out_features=1, bias=True)
      )
    )
  )
)
[94mOptimizer Parameters:[0m
    [96mlearning rate [0m: 0.005050000000000001
    [96mmomentum      [0m: 0.1
    [96mweight decay  [0m: 0.01
[1mStep[0m  [0/21], [94mLoss[0m : 10.85075
[1mStep[0m  [2/21], [94mLoss[0m : 10.86596
[1mStep[0m  [4/21], [94mLoss[0m : 10.99674
[1mStep[0m  [6/21], [94mLoss[0m : 10.88281
[1mStep[0m  [8/21], [94mLoss[0m : 11.05391
…
hidden_sizes         [100]
epochs                  30
activation            tanh
optimizer              sgd
early stopping       False
dropout                0.3
momentum               0.1
weight_decay          0.01
Name: 0, dtype: object
Following models where found:

dict_keys(['whole_spec_quantile', 'delta_quantile', 'beta_quantile', 'theta_quantile', 'alpha_quantile'])

Running on device: cuda
Model Architecture:
FeatureImitationNetwork(
  (_FeatureImitationNetwork__stage_1): ModuleDict(
    (whole_spec_quantile): DynamicNeuralNetwork(
      (model_arch): ModuleList(
        (0): Sequential(
          (in_linear): Linear(in_features=2500, out_features=6000, bias=True)
          (in_batch norm): BatchNorm1d(6000, eps=1e-05, momentum=0.1, affine=True, track_running_stats=True)
          (in_activation): ReLU()
          (in_dropout): Dropout(p=0.2, inplace=False)
        )
        (1): Sequential(
          (0_linear): Linear(in_features=6000, out_features=2000, bias=True)
          (0_batch norm): BatchNorm1d(2000, eps=1e-05, momentum=0.1, affine=True, track_running_stats=True)
          (0_activation): ReLU()
          (0_dropout): Dropout(p=0.2, inplace=False)
        )
        (2): Sequential(
          (1_linear): Linear(in_features=2000, out_features=100, bias=True)
          (1_batch norm): BatchNorm1d(100, eps=1e-05, momentum=0.1, affine=True, track_running_stats=True)
          (1_activation): ReLU()
          (1_dropout): Dropout(p=0.2, inplace=False)
        )
      )
    )
    (delta_quantile): DynamicNeuralNetwork(
      (model_arch): ModuleList(
        (0): Sequential(
          (in_linear): Linear(in_features=2500, out_features=6000, bias=True)
          (in_batch norm): BatchNorm1d(6000, eps=1e-05, momentum=0.1, affine=True, track_running_stats=True)
          (in_activation): ReLU()
          (in_dropout): Dropout(p=0.2, inplace=False)
        )
        (1): Sequential(
          (0_linear): Linear(in_features=6000, out_features=2000, bias=True)
          (0_batch norm): BatchNorm1d(2000, eps=1e-05, momentum=0.1, affine=True, track_running_stats=True)
          (0_activation): ReLU()
          (0_dropout): Dropout(p=0.2, inplace=False)
        )
        (2): Sequential(
          (1_linear): Linear(in_features=2000, out_features=100, bias=True)
          (1_batch norm): BatchNorm1d(100, eps=1e-05, momentum=0.1, affine=True, track_running_stats=True)
          (1_activation): ReLU()
          (1_dropout): Dropout(p=0.2, inplace=False)
        )
      )
    )
    (beta_quantile): DynamicNeuralNetwork(
      (model_arch): ModuleList(
        (0): Sequential(
          (in_linear): Linear(in_features=2500, out_features=6000, bias=True)
          (in_batch norm): BatchNorm1d(6000, eps=1e-05, momentum=0.1, affine=True, track_running_stats=True)
          (in_activation): ReLU()
          (in_dropout): Dropout(p=0.2, inplace=False)
        )
        (1): Sequential(
          (0_linear): Linear(in_features=6000, out_features=2000, bias=True)
          (0_batch norm): BatchNorm1d(2000, eps=1e-05, momentum=0.1, affine=True, track_running_stats=True)
          (0_activation): ReLU()
          (0_dropout): Dropout(p=0.2, inplace=False)
        )
        (2): Sequential(
          (1_linear): Linear(in_features=2000, out_features=100, bias=True)
          (1_batch norm): BatchNorm1d(100, eps=1e-05, momentum=0.1, affine=True, track_running_stats=True)
          (1_activation): ReLU()
          (1_dropout): Dropout(p=0.2, inplace=False)
        )
      )
    )
    (theta_quantile): DynamicNeuralNetwork(
      (model_arch): ModuleList(
        (0): Sequential(
          (in_linear): Linear(in_features=2500, out_features=6000, bias=True)
          (in_batch norm): BatchNorm1d(6000, eps=1e-05, momentum=0.1, affine=True, track_running_stats=True)
          (in_activation): ReLU()
          (in_dropout): Dropout(p=0.2, inplace=False)
        )
        (1): Sequential(
          (0_linear): Linear(in_features=6000, out_features=2000, bias=True)
          (0_batch norm): BatchNorm1d(2000, eps=1e-05, momentum=0.1, affine=True, track_running_stats=True)
          (0_activation): ReLU()
          (0_dropout): Dropout(p=0.2, inplace=False)
        )
        (2): Sequential(
          (1_linear): Linear(in_features=2000, out_features=100, bias=True)
          (1_batch norm): BatchNorm1d(100, eps=1e-05, momentum=0.1, affine=True, track_running_stats=True)
          (1_activation): ReLU()
          (1_dropout): Dropout(p=0.2, inplace=False)
        )
      )
    )
    (alpha_quantile): DynamicNeuralNetwork(
      (model_arch): ModuleList(
        (0): Sequential(
          (in_linear): Linear(in_features=2500, out_features=6000, bias=True)
          (in_batch norm): BatchNorm1d(6000, eps=1e-05, momentum=0.1, affine=True, track_running_stats=True)
          (in_activation): ReLU()
          (in_dropout): Dropout(p=0.2, inplace=False)
        )
        (1): Sequential(
          (0_linear): Linear(in_features=6000, out_features=2000, bias=True)
          (0_batch norm): BatchNorm1d(2000, eps=1e-05, momentum=0.1, affine=True, track_running_stats=True)
          (0_activation): ReLU()
          (0_dropout): Dropout(p=0.2, inplace=False)
        )
        (2): Sequential(
          (1_linear): Linear(in_features=2000, out_features=100, bias=True)
          (1_batch norm): BatchNorm1d(100, eps=1e-05, momentum=0.1, affine=True, track_running_stats=True)
          (1_activation): ReLU()
          (1_dropout): Dropout(p=0.2, inplace=False)
        )
      )
    )
  )
  (_FeatureImitationNetwork__stage_2): DynamicNeuralNetwork(
    (model_arch): ModuleList(
      (0): Sequential(
        (in_linear): Linear(in_features=500, out_features=250, bias=True)
        (in_batch norm): BatchNorm1d(250, eps=1e-05, momentum=0.1, affine=True, track_running_stats=True)
        (in_activation): Tanh()
        (in_dropout): Dropout(p=0.3, inplace=False)
      )
      (1): Sequential(
        (0_linear): Linear(in_features=250, out_features=50, bias=True)
        (0_batch norm): BatchNorm1d(50, eps=1e-05, momentum=0.1, affine=True, track_running_stats=True)
        (0_activation): Tanh()
        (0_dropout): Dropout(p=0.3, inplace=False)
      )
      (2): Sequential(
        (out_linear): Linear(in_features=50, out_features=1, bias=True)
      )
    )
  )
)
Running on device: cuda
Model Architecture:
FeatureImitationNetwork(
  (_FeatureImitationNetwork__stage_1): ModuleDict(
    (whole_spec_quantile): DynamicNeuralNetwork(
      (model_arch): ModuleList(
        (0): Sequential(
          (in_linear): Linear(in_features=2500, out_features=6000, bias=True)
          (in_batch norm): BatchNorm1d(6000, eps=1e-05, momentum=0.1, affine=True, track_running_stats=True)
          (in_activation): ReLU()
          (in_dropout): Dropout(p=0.2, inplace=False)
        )
        (1): Sequential(
          (0_linear): Linear(in_features=6000, out_features=2000, bias=True)
          (0_batch norm): BatchNorm1d(2000, eps=1e-05, momentum=0.1, affine=True, track_running_stats=True)
          (0_activation): ReLU()
          (0_dropout): Dropout(p=0.2, inplace=False)
        )
        (2): Sequential(
          (1_linear): Linear(in_features=2000, out_features=100, bias=True)
          (1_batch norm): BatchNorm1d(100, eps=1e-05, momentum=0.1, affine=True, track_running_stats=True)
          (1_activation): ReLU()
          (1_dropout): Dropout(p=0.2, inplace=False)
        )
      )
    )
    (delta_quantile): DynamicNeuralNetwork(
      (model_arch): ModuleList(
        (0): Sequential(
          (in_linear): Linear(in_features=2500, out_features=6000, bias=True)
          (in_batch norm): BatchNorm1d(6000, eps=1e-05, momentum=0.1, affine=True, track_running_stats=True)
          (in_activation): ReLU()
          (in_dropout): Dropout(p=0.2, inplace=False)
        )
        (1): Sequential(
          (0_linear): Linear(in_features=6000, out_features=2000, bias=True)
          (0_batch norm): BatchNorm1d(2000, eps=1e-05, momentum=0.1, affine=True, track_running_stats=True)
          (0_activation): ReLU()
          (0_dropout): Dropout(p=0.2, inplace=False)
        )
        (2): Sequential(
          (1_linear): Linear(in_features=2000, out_features=100, bias=True)
          (1_batch norm): BatchNorm1d(100, eps=1e-05, momentum=0.1, affine=True, track_running_stats=True)
          (1_activation): ReLU()
          (1_dropout): Dropout(p=0.2, inplace=False)
        )
      )
    )
    (beta_quantile): DynamicNeuralNetwork(
      (model_arch): ModuleList(
        (0): Sequential(
          (in_linear): Linear(in_features=2500, out_features=6000, bias=True)
          (in_batch norm): BatchNorm1d(6000, eps=1e-05, momentum=0.1, affine=True, track_running_stats=True)
          (in_activation): ReLU()
          (in_dropout): Dropout(p=0.2, inplace=False)
        )
        (1): Sequential(
          (0_linear): Linear(in_features=6000, out_features=2000, bias=True)
          (0_batch norm): BatchNorm1d(2000, eps=1e-05, momentum=0.1, affine=True, track_running_stats=True)
          (0_activation): ReLU()
          (0_dropout): Dropout(p=0.2, inplace=False)
        )
        (2): Sequential(
          (1_linear): Linear(in_features=2000, out_features=100, bias=True)
          (1_batch norm): BatchNorm1d(100, eps=1e-05, momentum=0.1, affine=True, track_running_stats=True)
          (1_activation): ReLU()
          (1_dropout): Dropout(p=0.2, inplace=False)
        )
      )
    )
    (theta_quantile): DynamicNeuralNetwork(
      (model_arch): ModuleList(
        (0): Sequential(
          (in_linear): Linear(in_features=2500, out_features=6000, bias=True)
          (in_batch norm): BatchNorm1d(6000, eps=1e-05, momentum=0.1, affine=True, track_running_stats=True)
          (in_activation): ReLU()
          (in_dropout): Dropout(p=0.2, inplace=False)
        )
        (1): Sequential(
          (0_linear): Linear(in_features=6000, out_features=2000, bias=True)
          (0_batch norm): BatchNorm1d(2000, eps=1e-05, momentum=0.1, affine=True, track_running_stats=True)
          (0_activation): ReLU()
          (0_dropout): Dropout(p=0.2, inplace=False)
        )
        (2): Sequential(
          (1_linear): Linear(in_features=2000, out_features=100, bias=True)
          (1_batch norm): BatchNorm1d(100, eps=1e-05, momentum=0.1, affine=True, track_running_stats=True)
          (1_activation): ReLU()
          (1_dropout): Dropout(p=0.2, inplace=False)
        )
      )
    )
    (alpha_quantile): DynamicNeuralNetwork(
      (model_arch): ModuleList(
        (0): Sequential(
          (in_linear): Linear(in_features=2500, out_features=6000, bias=True)
          (in_batch norm): BatchNorm1d(6000, eps=1e-05, momentum=0.1, affine=True, track_running_stats=True)
          (in_activation): ReLU()
          (in_dropout): Dropout(p=0.2, inplace=False)
        )
        (1): Sequential(
          (0_linear): Linear(in_features=6000, out_features=2000, bias=True)
          (0_batch norm): BatchNorm1d(2000, eps=1e-05, momentum=0.1, affine=True, track_running_stats=True)
          (0_activation): ReLU()
          (0_dropout): Dropout(p=0.2, inplace=False)
        )
        (2): Sequential(
          (1_linear): Linear(in_features=2000, out_features=100, bias=True)
          (1_batch norm): BatchNorm1d(100, eps=1e-05, momentum=0.1, affine=True, track_running_stats=True)
          (1_activation): ReLU()
          (1_dropout): Dropout(p=0.2, inplace=False)
        )
      )
    )
  )
  (_FeatureImitationNetwork__stage_2): DynamicNeuralNetwork(
    (model_arch): ModuleList(
      (0): Sequential(
        (in_linear): Linear(in_features=500, out_features=250, bias=True)
        (in_batch norm): BatchNorm1d(250, eps=1e-05, momentum=0.1, affine=True, track_running_stats=True)
        (in_activation): Tanh()
        (in_dropout): Dropout(p=0.3, inplace=False)
      )
      (1): Sequential(
        (0_linear): Linear(in_features=250, out_features=50, bias=True)
        (0_batch norm): BatchNorm1d(50, eps=1e-05, momentum=0.1, affine=True, track_running_stats=True)
        (0_activation): Tanh()
        (0_dropout): Dropout(p=0.3, inplace=False)
      )
      (2): Sequential(
        (out_linear): Linear(in_features=50, out_features=1, bias=True)
      )
    )
  )
)
[94mOptimizer Parameters:[0m
    [96mlearning rate [0m: 0.005050000000000001
    [96mmomentum      [0m: 0.5
    [96mweight decay  [0m: 0.0001
[1mStep[0m  [0/21], [94mLoss[0m : 11.02349
[1mStep[0m  [2/21], [94mLoss[0m : 10.68941
[1mStep[0m  [4/21], [94mLoss[0m : 10.72057
[1mStep[0m  [6/21], [94mLoss[0m : 10.86070
…
epochs                   30
activation             tanh
optimizer               sgd
early stopping        False
dropout                 0.3
momentum                0.5
weight_decay         0.0001
Name: 1, dtype: object
Following models where found:

dict_keys(['whole_spec_quantile', 'delta_quantile', 'beta_quantile', 'theta_quantile', 'alpha_quantile'])

Running on device: cuda
Model Architecture:
FeatureImitationNetwork(
  (_FeatureImitationNetwork__stage_1): ModuleDict(
    (whole_spec_quantile): DynamicNeuralNetwork(
      (model_arch): ModuleList(
        (0): Sequential(
          (in_linear): Linear(in_features=2500, out_features=6000, bias=True)
          (in_batch norm): BatchNorm1d(6000, eps=1e-05, momentum=0.1, affine=True, track_running_stats=True)
          (in_activation): ReLU()
          (in_dropout): Dropout(p=0.2, inplace=False)
        )
        (1): Sequential(
          (0_linear): Linear(in_features=6000, out_features=2000, bias=True)
          (0_batch norm): BatchNorm1d(2000, eps=1e-05, momentum=0.1, affine=True, track_running_stats=True)
          (0_activation): ReLU()
          (0_dropout): Dropout(p=0.2, inplace=False)
        )
        (2): Sequential(
          (1_linear): Linear(in_features=2000, out_features=100, bias=True)
          (1_batch norm): BatchNorm1d(100, eps=1e-05, momentum=0.1, affine=True, track_running_stats=True)
          (1_activation): ReLU()
          (1_dropout): Dropout(p=0.2, inplace=False)
        )
      )
    )
    (delta_quantile): DynamicNeuralNetwork(
      (model_arch): ModuleList(
        (0): Sequential(
          (in_linear): Linear(in_features=2500, out_features=6000, bias=True)
          (in_batch norm): BatchNorm1d(6000, eps=1e-05, momentum=0.1, affine=True, track_running_stats=True)
          (in_activation): ReLU()
          (in_dropout): Dropout(p=0.2, inplace=False)
        )
        (1): Sequential(
          (0_linear): Linear(in_features=6000, out_features=2000, bias=True)
          (0_batch norm): BatchNorm1d(2000, eps=1e-05, momentum=0.1, affine=True, track_running_stats=True)
          (0_activation): ReLU()
          (0_dropout): Dropout(p=0.2, inplace=False)
        )
        (2): Sequential(
          (1_linear): Linear(in_features=2000, out_features=100, bias=True)
          (1_batch norm): BatchNorm1d(100, eps=1e-05, momentum=0.1, affine=True, track_running_stats=True)
          (1_activation): ReLU()
          (1_dropout): Dropout(p=0.2, inplace=False)
        )
      )
    )
    (beta_quantile): DynamicNeuralNetwork(
      (model_arch): ModuleList(
        (0): Sequential(
          (in_linear): Linear(in_features=2500, out_features=6000, bias=True)
          (in_batch norm): BatchNorm1d(6000, eps=1e-05, momentum=0.1, affine=True, track_running_stats=True)
          (in_activation): ReLU()
          (in_dropout): Dropout(p=0.2, inplace=False)
        )
        (1): Sequential(
          (0_linear): Linear(in_features=6000, out_features=2000, bias=True)
          (0_batch norm): BatchNorm1d(2000, eps=1e-05, momentum=0.1, affine=True, track_running_stats=True)
          (0_activation): ReLU()
          (0_dropout): Dropout(p=0.2, inplace=False)
        )
        (2): Sequential(
          (1_linear): Linear(in_features=2000, out_features=100, bias=True)
          (1_batch norm): BatchNorm1d(100, eps=1e-05, momentum=0.1, affine=True, track_running_stats=True)
          (1_activation): ReLU()
          (1_dropout): Dropout(p=0.2, inplace=False)
        )
      )
    )
    (theta_quantile): DynamicNeuralNetwork(
      (model_arch): ModuleList(
        (0): Sequential(
          (in_linear): Linear(in_features=2500, out_features=6000, bias=True)
          (in_batch norm): BatchNorm1d(6000, eps=1e-05, momentum=0.1, affine=True, track_running_stats=True)
          (in_activation): ReLU()
          (in_dropout): Dropout(p=0.2, inplace=False)
        )
        (1): Sequential(
          (0_linear): Linear(in_features=6000, out_features=2000, bias=True)
          (0_batch norm): BatchNorm1d(2000, eps=1e-05, momentum=0.1, affine=True, track_running_stats=True)
          (0_activation): ReLU()
          (0_dropout): Dropout(p=0.2, inplace=False)
        )
        (2): Sequential(
          (1_linear): Linear(in_features=2000, out_features=100, bias=True)
          (1_batch norm): BatchNorm1d(100, eps=1e-05, momentum=0.1, affine=True, track_running_stats=True)
          (1_activation): ReLU()
          (1_dropout): Dropout(p=0.2, inplace=False)
        )
      )
    )
    (alpha_quantile): DynamicNeuralNetwork(
      (model_arch): ModuleList(
        (0): Sequential(
          (in_linear): Linear(in_features=2500, out_features=6000, bias=True)
          (in_batch norm): BatchNorm1d(6000, eps=1e-05, momentum=0.1, affine=True, track_running_stats=True)
          (in_activation): ReLU()
          (in_dropout): Dropout(p=0.2, inplace=False)
        )
        (1): Sequential(
          (0_linear): Linear(in_features=6000, out_features=2000, bias=True)
          (0_batch norm): BatchNorm1d(2000, eps=1e-05, momentum=0.1, affine=True, track_running_stats=True)
          (0_activation): ReLU()
          (0_dropout): Dropout(p=0.2, inplace=False)
        )
        (2): Sequential(
          (1_linear): Linear(in_features=2000, out_features=100, bias=True)
          (1_batch norm): BatchNorm1d(100, eps=1e-05, momentum=0.1, affine=True, track_running_stats=True)
          (1_activation): ReLU()
          (1_dropout): Dropout(p=0.2, inplace=False)
        )
      )
    )
  )
  (_FeatureImitationNetwork__stage_2): DynamicNeuralNetwork(
    (model_arch): ModuleList(
      (0): Sequential(
        (in_linear): Linear(in_features=500, out_features=300, bias=True)
        (in_batch norm): BatchNorm1d(300, eps=1e-05, momentum=0.1, affine=True, track_running_stats=True)
        (in_activation): Sigmoid()
        (in_dropout): Dropout(p=0.2, inplace=False)
      )
      (1): Sequential(
        (out_linear): Linear(in_features=300, out_features=1, bias=True)
      )
    )
  )
)
Running on device: cuda
Model Architecture:
FeatureImitationNetwork(
  (_FeatureImitationNetwork__stage_1): ModuleDict(
    (whole_spec_quantile): DynamicNeuralNetwork(
      (model_arch): ModuleList(
        (0): Sequential(
          (in_linear): Linear(in_features=2500, out_features=6000, bias=True)
          (in_batch norm): BatchNorm1d(6000, eps=1e-05, momentum=0.1, affine=True, track_running_stats=True)
          (in_activation): ReLU()
          (in_dropout): Dropout(p=0.2, inplace=False)
        )
        (1): Sequential(
          (0_linear): Linear(in_features=6000, out_features=2000, bias=True)
          (0_batch norm): BatchNorm1d(2000, eps=1e-05, momentum=0.1, affine=True, track_running_stats=True)
          (0_activation): ReLU()
          (0_dropout): Dropout(p=0.2, inplace=False)
        )
        (2): Sequential(
          (1_linear): Linear(in_features=2000, out_features=100, bias=True)
          (1_batch norm): BatchNorm1d(100, eps=1e-05, momentum=0.1, affine=True, track_running_stats=True)
          (1_activation): ReLU()
          (1_dropout): Dropout(p=0.2, inplace=False)
        )
      )
    )
    (delta_quantile): DynamicNeuralNetwork(
      (model_arch): ModuleList(
        (0): Sequential(
          (in_linear): Linear(in_features=2500, out_features=6000, bias=True)
          (in_batch norm): BatchNorm1d(6000, eps=1e-05, momentum=0.1, affine=True, track_running_stats=True)
          (in_activation): ReLU()
          (in_dropout): Dropout(p=0.2, inplace=False)
        )
        (1): Sequential(
          (0_linear): Linear(in_features=6000, out_features=2000, bias=True)
          (0_batch norm): BatchNorm1d(2000, eps=1e-05, momentum=0.1, affine=True, track_running_stats=True)
          (0_activation): ReLU()
          (0_dropout): Dropout(p=0.2, inplace=False)
        )
        (2): Sequential(
          (1_linear): Linear(in_features=2000, out_features=100, bias=True)
          (1_batch norm): BatchNorm1d(100, eps=1e-05, momentum=0.1, affine=True, track_running_stats=True)
          (1_activation): ReLU()
          (1_dropout): Dropout(p=0.2, inplace=False)
        )
      )
    )
    (beta_quantile): DynamicNeuralNetwork(
      (model_arch): ModuleList(
        (0): Sequential(
          (in_linear): Linear(in_features=2500, out_features=6000, bias=True)
          (in_batch norm): BatchNorm1d(6000, eps=1e-05, momentum=0.1, affine=True, track_running_stats=True)
          (in_activation): ReLU()
          (in_dropout): Dropout(p=0.2, inplace=False)
        )
        (1): Sequential(
          (0_linear): Linear(in_features=6000, out_features=2000, bias=True)
          (0_batch norm): BatchNorm1d(2000, eps=1e-05, momentum=0.1, affine=True, track_running_stats=True)
          (0_activation): ReLU()
          (0_dropout): Dropout(p=0.2, inplace=False)
        )
        (2): Sequential(
          (1_linear): Linear(in_features=2000, out_features=100, bias=True)
          (1_batch norm): BatchNorm1d(100, eps=1e-05, momentum=0.1, affine=True, track_running_stats=True)
          (1_activation): ReLU()
          (1_dropout): Dropout(p=0.2, inplace=False)
        )
      )
    )
    (theta_quantile): DynamicNeuralNetwork(
      (model_arch): ModuleList(
        (0): Sequential(
          (in_linear): Linear(in_features=2500, out_features=6000, bias=True)
          (in_batch norm): BatchNorm1d(6000, eps=1e-05, momentum=0.1, affine=True, track_running_stats=True)
          (in_activation): ReLU()
          (in_dropout): Dropout(p=0.2, inplace=False)
        )
        (1): Sequential(
          (0_linear): Linear(in_features=6000, out_features=2000, bias=True)
          (0_batch norm): BatchNorm1d(2000, eps=1e-05, momentum=0.1, affine=True, track_running_stats=True)
          (0_activation): ReLU()
          (0_dropout): Dropout(p=0.2, inplace=False)
        )
        (2): Sequential(
          (1_linear): Linear(in_features=2000, out_features=100, bias=True)
          (1_batch norm): BatchNorm1d(100, eps=1e-05, momentum=0.1, affine=True, track_running_stats=True)
          (1_activation): ReLU()
          (1_dropout): Dropout(p=0.2, inplace=False)
        )
      )
    )
    (alpha_quantile): DynamicNeuralNetwork(
      (model_arch): ModuleList(
        (0): Sequential(
          (in_linear): Linear(in_features=2500, out_features=6000, bias=True)
          (in_batch norm): BatchNorm1d(6000, eps=1e-05, momentum=0.1, affine=True, track_running_stats=True)
          (in_activation): ReLU()
          (in_dropout): Dropout(p=0.2, inplace=False)
        )
        (1): Sequential(
          (0_linear): Linear(in_features=6000, out_features=2000, bias=True)
          (0_batch norm): BatchNorm1d(2000, eps=1e-05, momentum=0.1, affine=True, track_running_stats=True)
          (0_activation): ReLU()
          (0_dropout): Dropout(p=0.2, inplace=False)
        )
        (2): Sequential(
          (1_linear): Linear(in_features=2000, out_features=100, bias=True)
          (1_batch norm): BatchNorm1d(100, eps=1e-05, momentum=0.1, affine=True, track_running_stats=True)
          (1_activation): ReLU()
          (1_dropout): Dropout(p=0.2, inplace=False)
        )
      )
    )
  )
  (_FeatureImitationNetwork__stage_2): DynamicNeuralNetwork(
    (model_arch): ModuleList(
      (0): Sequential(
        (in_linear): Linear(in_features=500, out_features=300, bias=True)
        (in_batch norm): BatchNorm1d(300, eps=1e-05, momentum=0.1, affine=True, track_running_stats=True)
        (in_activation): Sigmoid()
        (in_dropout): Dropout(p=0.2, inplace=False)
      )
      (1): Sequential(
        (out_linear): Linear(in_features=300, out_features=1, bias=True)
      )
    )
  )
)
[94mOptimizer Parameters:[0m
    [96mlearning rate [0m: 0.007525000000000001
    [96mmomentum      [0m: 0.1
    [96mweight decay  [0m: 0.0001
[1mStep[0m  [0/339], [94mLoss[0m : 12.16649
[1mStep[0m  [33/339], [94mLoss[0m : 3.11836
[1mStep[0m  [66/339], [94mLoss[0m : 2.55890
[1mStep[0m  [99/339], [94mLoss[0m : 2.25667
…
hidden_sizes         [100]
epochs                  30
activation         sigmoid
optimizer              sgd
early stopping        True
dropout                0.3
momentum               0.5
weight_decay        0.0001
Name: 3, dtype: object
Following models where found:

dict_keys(['whole_spec_quantile', 'delta_quantile', 'beta_quantile', 'theta_quantile', 'alpha_quantile'])

Running on device: cuda
Model Architecture:
FeatureImitationNetwork(
  (_FeatureImitationNetwork__stage_1): ModuleDict(
    (whole_spec_quantile): DynamicNeuralNetwork(
      (model_arch): ModuleList(
        (0): Sequential(
          (in_linear): Linear(in_features=2500, out_features=6000, bias=True)
          (in_batch norm): BatchNorm1d(6000, eps=1e-05, momentum=0.1, affine=True, track_running_stats=True)
          (in_activation): ReLU()
          (in_dropout): Dropout(p=0.2, inplace=False)
        )
        (1): Sequential(
          (0_linear): Linear(in_features=6000, out_features=2000, bias=True)
          (0_batch norm): BatchNorm1d(2000, eps=1e-05, momentum=0.1, affine=True, track_running_stats=True)
          (0_activation): ReLU()
          (0_dropout): Dropout(p=0.2, inplace=False)
        )
        (2): Sequential(
          (1_linear): Linear(in_features=2000, out_features=100, bias=True)
          (1_batch norm): BatchNorm1d(100, eps=1e-05, momentum=0.1, affine=True, track_running_stats=True)
          (1_activation): ReLU()
          (1_dropout): Dropout(p=0.2, inplace=False)
        )
      )
    )
    (delta_quantile): DynamicNeuralNetwork(
      (model_arch): ModuleList(
        (0): Sequential(
          (in_linear): Linear(in_features=2500, out_features=6000, bias=True)
          (in_batch norm): BatchNorm1d(6000, eps=1e-05, momentum=0.1, affine=True, track_running_stats=True)
          (in_activation): ReLU()
          (in_dropout): Dropout(p=0.2, inplace=False)
        )
        (1): Sequential(
          (0_linear): Linear(in_features=6000, out_features=2000, bias=True)
          (0_batch norm): BatchNorm1d(2000, eps=1e-05, momentum=0.1, affine=True, track_running_stats=True)
          (0_activation): ReLU()
          (0_dropout): Dropout(p=0.2, inplace=False)
        )
        (2): Sequential(
          (1_linear): Linear(in_features=2000, out_features=100, bias=True)
          (1_batch norm): BatchNorm1d(100, eps=1e-05, momentum=0.1, affine=True, track_running_stats=True)
          (1_activation): ReLU()
          (1_dropout): Dropout(p=0.2, inplace=False)
        )
      )
    )
    (beta_quantile): DynamicNeuralNetwork(
      (model_arch): ModuleList(
        (0): Sequential(
          (in_linear): Linear(in_features=2500, out_features=6000, bias=True)
          (in_batch norm): BatchNorm1d(6000, eps=1e-05, momentum=0.1, affine=True, track_running_stats=True)
          (in_activation): ReLU()
          (in_dropout): Dropout(p=0.2, inplace=False)
        )
        (1): Sequential(
          (0_linear): Linear(in_features=6000, out_features=2000, bias=True)
          (0_batch norm): BatchNorm1d(2000, eps=1e-05, momentum=0.1, affine=True, track_running_stats=True)
          (0_activation): ReLU()
          (0_dropout): Dropout(p=0.2, inplace=False)
        )
        (2): Sequential(
          (1_linear): Linear(in_features=2000, out_features=100, bias=True)
          (1_batch norm): BatchNorm1d(100, eps=1e-05, momentum=0.1, affine=True, track_running_stats=True)
          (1_activation): ReLU()
          (1_dropout): Dropout(p=0.2, inplace=False)
        )
      )
    )
    (theta_quantile): DynamicNeuralNetwork(
      (model_arch): ModuleList(
        (0): Sequential(
          (in_linear): Linear(in_features=2500, out_features=6000, bias=True)
          (in_batch norm): BatchNorm1d(6000, eps=1e-05, momentum=0.1, affine=True, track_running_stats=True)
          (in_activation): ReLU()
          (in_dropout): Dropout(p=0.2, inplace=False)
        )
        (1): Sequential(
          (0_linear): Linear(in_features=6000, out_features=2000, bias=True)
          (0_batch norm): BatchNorm1d(2000, eps=1e-05, momentum=0.1, affine=True, track_running_stats=True)
          (0_activation): ReLU()
          (0_dropout): Dropout(p=0.2, inplace=False)
        )
        (2): Sequential(
          (1_linear): Linear(in_features=2000, out_features=100, bias=True)
          (1_batch norm): BatchNorm1d(100, eps=1e-05, momentum=0.1, affine=True, track_running_stats=True)
          (1_activation): ReLU()
          (1_dropout): Dropout(p=0.2, inplace=False)
        )
      )
    )
    (alpha_quantile): DynamicNeuralNetwork(
      (model_arch): ModuleList(
        (0): Sequential(
          (in_linear): Linear(in_features=2500, out_features=6000, bias=True)
          (in_batch norm): BatchNorm1d(6000, eps=1e-05, momentum=0.1, affine=True, track_running_stats=True)
          (in_activation): ReLU()
          (in_dropout): Dropout(p=0.2, inplace=False)
        )
        (1): Sequential(
          (0_linear): Linear(in_features=6000, out_features=2000, bias=True)
          (0_batch norm): BatchNorm1d(2000, eps=1e-05, momentum=0.1, affine=True, track_running_stats=True)
          (0_activation): ReLU()
          (0_dropout): Dropout(p=0.2, inplace=False)
        )
        (2): Sequential(
          (1_linear): Linear(in_features=2000, out_features=100, bias=True)
          (1_batch norm): BatchNorm1d(100, eps=1e-05, momentum=0.1, affine=True, track_running_stats=True)
          (1_activation): ReLU()
          (1_dropout): Dropout(p=0.2, inplace=False)
        )
      )
    )
  )
  (_FeatureImitationNetwork__stage_2): DynamicNeuralNetwork(
    (model_arch): ModuleList(
      (0): Sequential(
        (in_linear): Linear(in_features=500, out_features=250, bias=True)
        (in_batch norm): BatchNorm1d(250, eps=1e-05, momentum=0.1, affine=True, track_running_stats=True)
        (in_activation): ReLU()
        (in_dropout): Dropout(p=0.2, inplace=False)
      )
      (1): Sequential(
        (out_linear): Linear(in_features=250, out_features=1, bias=True)
      )
    )
  )
)
Running on device: cuda
Model Architecture:
FeatureImitationNetwork(
  (_FeatureImitationNetwork__stage_1): ModuleDict(
    (whole_spec_quantile): DynamicNeuralNetwork(
      (model_arch): ModuleList(
        (0): Sequential(
          (in_linear): Linear(in_features=2500, out_features=6000, bias=True)
          (in_batch norm): BatchNorm1d(6000, eps=1e-05, momentum=0.1, affine=True, track_running_stats=True)
          (in_activation): ReLU()
          (in_dropout): Dropout(p=0.2, inplace=False)
        )
        (1): Sequential(
          (0_linear): Linear(in_features=6000, out_features=2000, bias=True)
          (0_batch norm): BatchNorm1d(2000, eps=1e-05, momentum=0.1, affine=True, track_running_stats=True)
          (0_activation): ReLU()
          (0_dropout): Dropout(p=0.2, inplace=False)
        )
        (2): Sequential(
          (1_linear): Linear(in_features=2000, out_features=100, bias=True)
          (1_batch norm): BatchNorm1d(100, eps=1e-05, momentum=0.1, affine=True, track_running_stats=True)
          (1_activation): ReLU()
          (1_dropout): Dropout(p=0.2, inplace=False)
        )
      )
    )
    (delta_quantile): DynamicNeuralNetwork(
      (model_arch): ModuleList(
        (0): Sequential(
          (in_linear): Linear(in_features=2500, out_features=6000, bias=True)
          (in_batch norm): BatchNorm1d(6000, eps=1e-05, momentum=0.1, affine=True, track_running_stats=True)
          (in_activation): ReLU()
          (in_dropout): Dropout(p=0.2, inplace=False)
        )
        (1): Sequential(
          (0_linear): Linear(in_features=6000, out_features=2000, bias=True)
          (0_batch norm): BatchNorm1d(2000, eps=1e-05, momentum=0.1, affine=True, track_running_stats=True)
          (0_activation): ReLU()
          (0_dropout): Dropout(p=0.2, inplace=False)
        )
        (2): Sequential(
          (1_linear): Linear(in_features=2000, out_features=100, bias=True)
          (1_batch norm): BatchNorm1d(100, eps=1e-05, momentum=0.1, affine=True, track_running_stats=True)
          (1_activation): ReLU()
          (1_dropout): Dropout(p=0.2, inplace=False)
        )
      )
    )
    (beta_quantile): DynamicNeuralNetwork(
      (model_arch): ModuleList(
        (0): Sequential(
          (in_linear): Linear(in_features=2500, out_features=6000, bias=True)
          (in_batch norm): BatchNorm1d(6000, eps=1e-05, momentum=0.1, affine=True, track_running_stats=True)
          (in_activation): ReLU()
          (in_dropout): Dropout(p=0.2, inplace=False)
        )
        (1): Sequential(
          (0_linear): Linear(in_features=6000, out_features=2000, bias=True)
          (0_batch norm): BatchNorm1d(2000, eps=1e-05, momentum=0.1, affine=True, track_running_stats=True)
          (0_activation): ReLU()
          (0_dropout): Dropout(p=0.2, inplace=False)
        )
        (2): Sequential(
          (1_linear): Linear(in_features=2000, out_features=100, bias=True)
          (1_batch norm): BatchNorm1d(100, eps=1e-05, momentum=0.1, affine=True, track_running_stats=True)
          (1_activation): ReLU()
          (1_dropout): Dropout(p=0.2, inplace=False)
        )
      )
    )
    (theta_quantile): DynamicNeuralNetwork(
      (model_arch): ModuleList(
        (0): Sequential(
          (in_linear): Linear(in_features=2500, out_features=6000, bias=True)
          (in_batch norm): BatchNorm1d(6000, eps=1e-05, momentum=0.1, affine=True, track_running_stats=True)
          (in_activation): ReLU()
          (in_dropout): Dropout(p=0.2, inplace=False)
        )
        (1): Sequential(
          (0_linear): Linear(in_features=6000, out_features=2000, bias=True)
          (0_batch norm): BatchNorm1d(2000, eps=1e-05, momentum=0.1, affine=True, track_running_stats=True)
          (0_activation): ReLU()
          (0_dropout): Dropout(p=0.2, inplace=False)
        )
        (2): Sequential(
          (1_linear): Linear(in_features=2000, out_features=100, bias=True)
          (1_batch norm): BatchNorm1d(100, eps=1e-05, momentum=0.1, affine=True, track_running_stats=True)
          (1_activation): ReLU()
          (1_dropout): Dropout(p=0.2, inplace=False)
        )
      )
    )
    (alpha_quantile): DynamicNeuralNetwork(
      (model_arch): ModuleList(
        (0): Sequential(
          (in_linear): Linear(in_features=2500, out_features=6000, bias=True)
          (in_batch norm): BatchNorm1d(6000, eps=1e-05, momentum=0.1, affine=True, track_running_stats=True)
          (in_activation): ReLU()
          (in_dropout): Dropout(p=0.2, inplace=False)
        )
        (1): Sequential(
          (0_linear): Linear(in_features=6000, out_features=2000, bias=True)
          (0_batch norm): BatchNorm1d(2000, eps=1e-05, momentum=0.1, affine=True, track_running_stats=True)
          (0_activation): ReLU()
          (0_dropout): Dropout(p=0.2, inplace=False)
        )
        (2): Sequential(
          (1_linear): Linear(in_features=2000, out_features=100, bias=True)
          (1_batch norm): BatchNorm1d(100, eps=1e-05, momentum=0.1, affine=True, track_running_stats=True)
          (1_activation): ReLU()
          (1_dropout): Dropout(p=0.2, inplace=False)
        )
      )
    )
  )
  (_FeatureImitationNetwork__stage_2): DynamicNeuralNetwork(
    (model_arch): ModuleList(
      (0): Sequential(
        (in_linear): Linear(in_features=500, out_features=250, bias=True)
        (in_batch norm): BatchNorm1d(250, eps=1e-05, momentum=0.1, affine=True, track_running_stats=True)
        (in_activation): ReLU()
        (in_dropout): Dropout(p=0.2, inplace=False)
      )
      (1): Sequential(
        (out_linear): Linear(in_features=250, out_features=1, bias=True)
      )
    )
  )
)
[94mOptimizer Parameters:[0m
    [96mlearning rate [0m: 0.007525000000000001
    [96mmomentum      [0m: 0.9
    [96mweight decay  [0m: 0.001
[1mStep[0m  [0/339], [94mLoss[0m : 9.48969
[1mStep[0m  [33/339], [94mLoss[0m : 2.34585
[1mStep[0m  [66/339], [94mLoss[0m : 3.26233
[1mStep[0m  [99/339], [94mLoss[0m : 2.33711
…
hidden_sizes         [250]
epochs                  30
activation            relu
optimizer              sgd
early stopping       False
dropout                0.3
momentum               0.5
weight_decay         0.001
Name: 7, dtype: object
Following models where found:

dict_keys(['whole_spec_quantile', 'delta_quantile', 'beta_quantile', 'theta_quantile', 'alpha_quantile'])

Running on device: cuda
Model Architecture:
FeatureImitationNetwork(
  (_FeatureImitationNetwork__stage_1): ModuleDict(
    (whole_spec_quantile): DynamicNeuralNetwork(
      (model_arch): ModuleList(
        (0): Sequential(
          (in_linear): Linear(in_features=2500, out_features=6000, bias=True)
          (in_batch norm): BatchNorm1d(6000, eps=1e-05, momentum=0.1, affine=True, track_running_stats=True)
          (in_activation): ReLU()
          (in_dropout): Dropout(p=0.2, inplace=False)
        )
        (1): Sequential(
          (0_linear): Linear(in_features=6000, out_features=2000, bias=True)
          (0_batch norm): BatchNorm1d(2000, eps=1e-05, momentum=0.1, affine=True, track_running_stats=True)
          (0_activation): ReLU()
          (0_dropout): Dropout(p=0.2, inplace=False)
        )
        (2): Sequential(
          (1_linear): Linear(in_features=2000, out_features=100, bias=True)
          (1_batch norm): BatchNorm1d(100, eps=1e-05, momentum=0.1, affine=True, track_running_stats=True)
          (1_activation): ReLU()
          (1_dropout): Dropout(p=0.2, inplace=False)
        )
      )
    )
    (delta_quantile): DynamicNeuralNetwork(
      (model_arch): ModuleList(
        (0): Sequential(
          (in_linear): Linear(in_features=2500, out_features=6000, bias=True)
          (in_batch norm): BatchNorm1d(6000, eps=1e-05, momentum=0.1, affine=True, track_running_stats=True)
          (in_activation): ReLU()
          (in_dropout): Dropout(p=0.2, inplace=False)
        )
        (1): Sequential(
          (0_linear): Linear(in_features=6000, out_features=2000, bias=True)
          (0_batch norm): BatchNorm1d(2000, eps=1e-05, momentum=0.1, affine=True, track_running_stats=True)
          (0_activation): ReLU()
          (0_dropout): Dropout(p=0.2, inplace=False)
        )
        (2): Sequential(
          (1_linear): Linear(in_features=2000, out_features=100, bias=True)
          (1_batch norm): BatchNorm1d(100, eps=1e-05, momentum=0.1, affine=True, track_running_stats=True)
          (1_activation): ReLU()
          (1_dropout): Dropout(p=0.2, inplace=False)
        )
      )
    )
    (beta_quantile): DynamicNeuralNetwork(
      (model_arch): ModuleList(
        (0): Sequential(
          (in_linear): Linear(in_features=2500, out_features=6000, bias=True)
          (in_batch norm): BatchNorm1d(6000, eps=1e-05, momentum=0.1, affine=True, track_running_stats=True)
          (in_activation): ReLU()
          (in_dropout): Dropout(p=0.2, inplace=False)
        )
        (1): Sequential(
          (0_linear): Linear(in_features=6000, out_features=2000, bias=True)
          (0_batch norm): BatchNorm1d(2000, eps=1e-05, momentum=0.1, affine=True, track_running_stats=True)
          (0_activation): ReLU()
          (0_dropout): Dropout(p=0.2, inplace=False)
        )
        (2): Sequential(
          (1_linear): Linear(in_features=2000, out_features=100, bias=True)
          (1_batch norm): BatchNorm1d(100, eps=1e-05, momentum=0.1, affine=True, track_running_stats=True)
          (1_activation): ReLU()
          (1_dropout): Dropout(p=0.2, inplace=False)
        )
      )
    )
    (theta_quantile): DynamicNeuralNetwork(
      (model_arch): ModuleList(
        (0): Sequential(
          (in_linear): Linear(in_features=2500, out_features=6000, bias=True)
          (in_batch norm): BatchNorm1d(6000, eps=1e-05, momentum=0.1, affine=True, track_running_stats=True)
          (in_activation): ReLU()
          (in_dropout): Dropout(p=0.2, inplace=False)
        )
        (1): Sequential(
          (0_linear): Linear(in_features=6000, out_features=2000, bias=True)
          (0_batch norm): BatchNorm1d(2000, eps=1e-05, momentum=0.1, affine=True, track_running_stats=True)
          (0_activation): ReLU()
          (0_dropout): Dropout(p=0.2, inplace=False)
        )
        (2): Sequential(
          (1_linear): Linear(in_features=2000, out_features=100, bias=True)
          (1_batch norm): BatchNorm1d(100, eps=1e-05, momentum=0.1, affine=True, track_running_stats=True)
          (1_activation): ReLU()
          (1_dropout): Dropout(p=0.2, inplace=False)
        )
      )
    )
    (alpha_quantile): DynamicNeuralNetwork(
      (model_arch): ModuleList(
        (0): Sequential(
          (in_linear): Linear(in_features=2500, out_features=6000, bias=True)
          (in_batch norm): BatchNorm1d(6000, eps=1e-05, momentum=0.1, affine=True, track_running_stats=True)
          (in_activation): ReLU()
          (in_dropout): Dropout(p=0.2, inplace=False)
        )
        (1): Sequential(
          (0_linear): Linear(in_features=6000, out_features=2000, bias=True)
          (0_batch norm): BatchNorm1d(2000, eps=1e-05, momentum=0.1, affine=True, track_running_stats=True)
          (0_activation): ReLU()
          (0_dropout): Dropout(p=0.2, inplace=False)
        )
        (2): Sequential(
          (1_linear): Linear(in_features=2000, out_features=100, bias=True)
          (1_batch norm): BatchNorm1d(100, eps=1e-05, momentum=0.1, affine=True, track_running_stats=True)
          (1_activation): ReLU()
          (1_dropout): Dropout(p=0.2, inplace=False)
        )
      )
    )
  )
  (_FeatureImitationNetwork__stage_2): DynamicNeuralNetwork(
    (model_arch): ModuleList(
      (0): Sequential(
        (in_linear): Linear(in_features=500, out_features=300, bias=True)
        (in_batch norm): BatchNorm1d(300, eps=1e-05, momentum=0.1, affine=True, track_running_stats=True)
        (in_activation): ReLU()
        (in_dropout): Dropout(p=0.4, inplace=False)
      )
      (1): Sequential(
        (0_linear): Linear(in_features=300, out_features=100, bias=True)
        (0_batch norm): BatchNorm1d(100, eps=1e-05, momentum=0.1, affine=True, track_running_stats=True)
        (0_activation): ReLU()
        (0_dropout): Dropout(p=0.4, inplace=False)
      )
      (2): Sequential(
        (out_linear): Linear(in_features=100, out_features=1, bias=True)
      )
    )
  )
)
Running on device: cuda
Model Architecture:
FeatureImitationNetwork(
  (_FeatureImitationNetwork__stage_1): ModuleDict(
    (whole_spec_quantile): DynamicNeuralNetwork(
      (model_arch): ModuleList(
        (0): Sequential(
          (in_linear): Linear(in_features=2500, out_features=6000, bias=True)
          (in_batch norm): BatchNorm1d(6000, eps=1e-05, momentum=0.1, affine=True, track_running_stats=True)
          (in_activation): ReLU()
          (in_dropout): Dropout(p=0.2, inplace=False)
        )
        (1): Sequential(
          (0_linear): Linear(in_features=6000, out_features=2000, bias=True)
          (0_batch norm): BatchNorm1d(2000, eps=1e-05, momentum=0.1, affine=True, track_running_stats=True)
          (0_activation): ReLU()
          (0_dropout): Dropout(p=0.2, inplace=False)
        )
        (2): Sequential(
          (1_linear): Linear(in_features=2000, out_features=100, bias=True)
          (1_batch norm): BatchNorm1d(100, eps=1e-05, momentum=0.1, affine=True, track_running_stats=True)
          (1_activation): ReLU()
          (1_dropout): Dropout(p=0.2, inplace=False)
        )
      )
    )
    (delta_quantile): DynamicNeuralNetwork(
      (model_arch): ModuleList(
        (0): Sequential(
          (in_linear): Linear(in_features=2500, out_features=6000, bias=True)
          (in_batch norm): BatchNorm1d(6000, eps=1e-05, momentum=0.1, affine=True, track_running_stats=True)
          (in_activation): ReLU()
          (in_dropout): Dropout(p=0.2, inplace=False)
        )
        (1): Sequential(
          (0_linear): Linear(in_features=6000, out_features=2000, bias=True)
          (0_batch norm): BatchNorm1d(2000, eps=1e-05, momentum=0.1, affine=True, track_running_stats=True)
          (0_activation): ReLU()
          (0_dropout): Dropout(p=0.2, inplace=False)
        )
        (2): Sequential(
          (1_linear): Linear(in_features=2000, out_features=100, bias=True)
          (1_batch norm): BatchNorm1d(100, eps=1e-05, momentum=0.1, affine=True, track_running_stats=True)
          (1_activation): ReLU()
          (1_dropout): Dropout(p=0.2, inplace=False)
        )
      )
    )
    (beta_quantile): DynamicNeuralNetwork(
      (model_arch): ModuleList(
        (0): Sequential(
          (in_linear): Linear(in_features=2500, out_features=6000, bias=True)
          (in_batch norm): BatchNorm1d(6000, eps=1e-05, momentum=0.1, affine=True, track_running_stats=True)
          (in_activation): ReLU()
          (in_dropout): Dropout(p=0.2, inplace=False)
        )
        (1): Sequential(
          (0_linear): Linear(in_features=6000, out_features=2000, bias=True)
          (0_batch norm): BatchNorm1d(2000, eps=1e-05, momentum=0.1, affine=True, track_running_stats=True)
          (0_activation): ReLU()
          (0_dropout): Dropout(p=0.2, inplace=False)
        )
        (2): Sequential(
          (1_linear): Linear(in_features=2000, out_features=100, bias=True)
          (1_batch norm): BatchNorm1d(100, eps=1e-05, momentum=0.1, affine=True, track_running_stats=True)
          (1_activation): ReLU()
          (1_dropout): Dropout(p=0.2, inplace=False)
        )
      )
    )
    (theta_quantile): DynamicNeuralNetwork(
      (model_arch): ModuleList(
        (0): Sequential(
          (in_linear): Linear(in_features=2500, out_features=6000, bias=True)
          (in_batch norm): BatchNorm1d(6000, eps=1e-05, momentum=0.1, affine=True, track_running_stats=True)
          (in_activation): ReLU()
          (in_dropout): Dropout(p=0.2, inplace=False)
        )
        (1): Sequential(
          (0_linear): Linear(in_features=6000, out_features=2000, bias=True)
          (0_batch norm): BatchNorm1d(2000, eps=1e-05, momentum=0.1, affine=True, track_running_stats=True)
          (0_activation): ReLU()
          (0_dropout): Dropout(p=0.2, inplace=False)
        )
        (2): Sequential(
          (1_linear): Linear(in_features=2000, out_features=100, bias=True)
          (1_batch norm): BatchNorm1d(100, eps=1e-05, momentum=0.1, affine=True, track_running_stats=True)
          (1_activation): ReLU()
          (1_dropout): Dropout(p=0.2, inplace=False)
        )
      )
    )
    (alpha_quantile): DynamicNeuralNetwork(
      (model_arch): ModuleList(
        (0): Sequential(
          (in_linear): Linear(in_features=2500, out_features=6000, bias=True)
          (in_batch norm): BatchNorm1d(6000, eps=1e-05, momentum=0.1, affine=True, track_running_stats=True)
          (in_activation): ReLU()
          (in_dropout): Dropout(p=0.2, inplace=False)
        )
        (1): Sequential(
          (0_linear): Linear(in_features=6000, out_features=2000, bias=True)
          (0_batch norm): BatchNorm1d(2000, eps=1e-05, momentum=0.1, affine=True, track_running_stats=True)
          (0_activation): ReLU()
          (0_dropout): Dropout(p=0.2, inplace=False)
        )
        (2): Sequential(
          (1_linear): Linear(in_features=2000, out_features=100, bias=True)
          (1_batch norm): BatchNorm1d(100, eps=1e-05, momentum=0.1, affine=True, track_running_stats=True)
          (1_activation): ReLU()
          (1_dropout): Dropout(p=0.2, inplace=False)
        )
      )
    )
  )
  (_FeatureImitationNetwork__stage_2): DynamicNeuralNetwork(
    (model_arch): ModuleList(
      (0): Sequential(
        (in_linear): Linear(in_features=500, out_features=300, bias=True)
        (in_batch norm): BatchNorm1d(300, eps=1e-05, momentum=0.1, affine=True, track_running_stats=True)
        (in_activation): ReLU()
        (in_dropout): Dropout(p=0.4, inplace=False)
      )
      (1): Sequential(
        (0_linear): Linear(in_features=300, out_features=100, bias=True)
        (0_batch norm): BatchNorm1d(100, eps=1e-05, momentum=0.1, affine=True, track_running_stats=True)
        (0_activation): ReLU()
        (0_dropout): Dropout(p=0.4, inplace=False)
      )
      (2): Sequential(
        (out_linear): Linear(in_features=100, out_features=1, bias=True)
      )
    )
  )
)
[94mOptimizer Parameters:[0m
    [96mlearning rate [0m: 0.005050000000000001
    [96mmomentum      [0m: 0.5
    [96mweight decay  [0m: 0.0001
[1mStep[0m  [0/21], [94mLoss[0m : 11.06834
[1mStep[0m  [2/21], [94mLoss[0m : 10.90839
[1mStep[0m  [4/21], [94mLoss[0m : 10.49048
[1mStep[0m  [6/21], [94mLoss[0m : 10.49170
…
epochs                    30
activation           sigmoid
optimizer                sgd
early stopping         False
dropout                  0.3
momentum                 0.1
weight_decay          0.0001
Name: 10, dtype: object
Following models where found:

dict_keys(['whole_spec_quantile', 'delta_quantile', 'beta_quantile', 'theta_quantile', 'alpha_quantile'])

Running on device: cuda
Model Architecture:
FeatureImitationNetwork(
  (_FeatureImitationNetwork__stage_1): ModuleDict(
    (whole_spec_quantile): DynamicNeuralNetwork(
      (model_arch): ModuleList(
        (0): Sequential(
          (in_linear): Linear(in_features=2500, out_features=6000, bias=True)
          (in_batch norm): BatchNorm1d(6000, eps=1e-05, momentum=0.1, affine=True, track_running_stats=True)
          (in_activation): ReLU()
          (in_dropout): Dropout(p=0.2, inplace=False)
        )
        (1): Sequential(
          (0_linear): Linear(in_features=6000, out_features=2000, bias=True)
          (0_batch norm): BatchNorm1d(2000, eps=1e-05, momentum=0.1, affine=True, track_running_stats=True)
          (0_activation): ReLU()
          (0_dropout): Dropout(p=0.2, inplace=False)
        )
        (2): Sequential(
          (1_linear): Linear(in_features=2000, out_features=100, bias=True)
          (1_batch norm): BatchNorm1d(100, eps=1e-05, momentum=0.1, affine=True, track_running_stats=True)
          (1_activation): ReLU()
          (1_dropout): Dropout(p=0.2, inplace=False)
        )
      )
    )
    (delta_quantile): DynamicNeuralNetwork(
      (model_arch): ModuleList(
        (0): Sequential(
          (in_linear): Linear(in_features=2500, out_features=6000, bias=True)
          (in_batch norm): BatchNorm1d(6000, eps=1e-05, momentum=0.1, affine=True, track_running_stats=True)
          (in_activation): ReLU()
          (in_dropout): Dropout(p=0.2, inplace=False)
        )
        (1): Sequential(
          (0_linear): Linear(in_features=6000, out_features=2000, bias=True)
          (0_batch norm): BatchNorm1d(2000, eps=1e-05, momentum=0.1, affine=True, track_running_stats=True)
          (0_activation): ReLU()
          (0_dropout): Dropout(p=0.2, inplace=False)
        )
        (2): Sequential(
          (1_linear): Linear(in_features=2000, out_features=100, bias=True)
          (1_batch norm): BatchNorm1d(100, eps=1e-05, momentum=0.1, affine=True, track_running_stats=True)
          (1_activation): ReLU()
          (1_dropout): Dropout(p=0.2, inplace=False)
        )
      )
    )
    (beta_quantile): DynamicNeuralNetwork(
      (model_arch): ModuleList(
        (0): Sequential(
          (in_linear): Linear(in_features=2500, out_features=6000, bias=True)
          (in_batch norm): BatchNorm1d(6000, eps=1e-05, momentum=0.1, affine=True, track_running_stats=True)
          (in_activation): ReLU()
          (in_dropout): Dropout(p=0.2, inplace=False)
        )
        (1): Sequential(
          (0_linear): Linear(in_features=6000, out_features=2000, bias=True)
          (0_batch norm): BatchNorm1d(2000, eps=1e-05, momentum=0.1, affine=True, track_running_stats=True)
          (0_activation): ReLU()
          (0_dropout): Dropout(p=0.2, inplace=False)
        )
        (2): Sequential(
          (1_linear): Linear(in_features=2000, out_features=100, bias=True)
          (1_batch norm): BatchNorm1d(100, eps=1e-05, momentum=0.1, affine=True, track_running_stats=True)
          (1_activation): ReLU()
          (1_dropout): Dropout(p=0.2, inplace=False)
        )
      )
    )
    (theta_quantile): DynamicNeuralNetwork(
      (model_arch): ModuleList(
        (0): Sequential(
          (in_linear): Linear(in_features=2500, out_features=6000, bias=True)
          (in_batch norm): BatchNorm1d(6000, eps=1e-05, momentum=0.1, affine=True, track_running_stats=True)
          (in_activation): ReLU()
          (in_dropout): Dropout(p=0.2, inplace=False)
        )
        (1): Sequential(
          (0_linear): Linear(in_features=6000, out_features=2000, bias=True)
          (0_batch norm): BatchNorm1d(2000, eps=1e-05, momentum=0.1, affine=True, track_running_stats=True)
          (0_activation): ReLU()
          (0_dropout): Dropout(p=0.2, inplace=False)
        )
        (2): Sequential(
          (1_linear): Linear(in_features=2000, out_features=100, bias=True)
          (1_batch norm): BatchNorm1d(100, eps=1e-05, momentum=0.1, affine=True, track_running_stats=True)
          (1_activation): ReLU()
          (1_dropout): Dropout(p=0.2, inplace=False)
        )
      )
    )
    (alpha_quantile): DynamicNeuralNetwork(
      (model_arch): ModuleList(
        (0): Sequential(
          (in_linear): Linear(in_features=2500, out_features=6000, bias=True)
          (in_batch norm): BatchNorm1d(6000, eps=1e-05, momentum=0.1, affine=True, track_running_stats=True)
          (in_activation): ReLU()
          (in_dropout): Dropout(p=0.2, inplace=False)
        )
        (1): Sequential(
          (0_linear): Linear(in_features=6000, out_features=2000, bias=True)
          (0_batch norm): BatchNorm1d(2000, eps=1e-05, momentum=0.1, affine=True, track_running_stats=True)
          (0_activation): ReLU()
          (0_dropout): Dropout(p=0.2, inplace=False)
        )
        (2): Sequential(
          (1_linear): Linear(in_features=2000, out_features=100, bias=True)
          (1_batch norm): BatchNorm1d(100, eps=1e-05, momentum=0.1, affine=True, track_running_stats=True)
          (1_activation): ReLU()
          (1_dropout): Dropout(p=0.2, inplace=False)
        )
      )
    )
  )
  (_FeatureImitationNetwork__stage_2): DynamicNeuralNetwork(
    (model_arch): ModuleList(
      (0): Sequential(
        (in_linear): Linear(in_features=500, out_features=200, bias=True)
        (in_batch norm): BatchNorm1d(200, eps=1e-05, momentum=0.1, affine=True, track_running_stats=True)
        (in_activation): Tanh()
        (in_dropout): Dropout(p=0.2, inplace=False)
      )
      (1): Sequential(
        (0_linear): Linear(in_features=200, out_features=50, bias=True)
        (0_batch norm): BatchNorm1d(50, eps=1e-05, momentum=0.1, affine=True, track_running_stats=True)
        (0_activation): Tanh()
        (0_dropout): Dropout(p=0.2, inplace=False)
      )
      (2): Sequential(
        (out_linear): Linear(in_features=50, out_features=1, bias=True)
      )
    )
  )
)
Running on device: cuda
Model Architecture:
FeatureImitationNetwork(
  (_FeatureImitationNetwork__stage_1): ModuleDict(
    (whole_spec_quantile): DynamicNeuralNetwork(
      (model_arch): ModuleList(
        (0): Sequential(
          (in_linear): Linear(in_features=2500, out_features=6000, bias=True)
          (in_batch norm): BatchNorm1d(6000, eps=1e-05, momentum=0.1, affine=True, track_running_stats=True)
          (in_activation): ReLU()
          (in_dropout): Dropout(p=0.2, inplace=False)
        )
        (1): Sequential(
          (0_linear): Linear(in_features=6000, out_features=2000, bias=True)
          (0_batch norm): BatchNorm1d(2000, eps=1e-05, momentum=0.1, affine=True, track_running_stats=True)
          (0_activation): ReLU()
          (0_dropout): Dropout(p=0.2, inplace=False)
        )
        (2): Sequential(
          (1_linear): Linear(in_features=2000, out_features=100, bias=True)
          (1_batch norm): BatchNorm1d(100, eps=1e-05, momentum=0.1, affine=True, track_running_stats=True)
          (1_activation): ReLU()
          (1_dropout): Dropout(p=0.2, inplace=False)
        )
      )
    )
    (delta_quantile): DynamicNeuralNetwork(
      (model_arch): ModuleList(
        (0): Sequential(
          (in_linear): Linear(in_features=2500, out_features=6000, bias=True)
          (in_batch norm): BatchNorm1d(6000, eps=1e-05, momentum=0.1, affine=True, track_running_stats=True)
          (in_activation): ReLU()
          (in_dropout): Dropout(p=0.2, inplace=False)
        )
        (1): Sequential(
          (0_linear): Linear(in_features=6000, out_features=2000, bias=True)
          (0_batch norm): BatchNorm1d(2000, eps=1e-05, momentum=0.1, affine=True, track_running_stats=True)
          (0_activation): ReLU()
          (0_dropout): Dropout(p=0.2, inplace=False)
        )
        (2): Sequential(
          (1_linear): Linear(in_features=2000, out_features=100, bias=True)
          (1_batch norm): BatchNorm1d(100, eps=1e-05, momentum=0.1, affine=True, track_running_stats=True)
          (1_activation): ReLU()
          (1_dropout): Dropout(p=0.2, inplace=False)
        )
      )
    )
    (beta_quantile): DynamicNeuralNetwork(
      (model_arch): ModuleList(
        (0): Sequential(
          (in_linear): Linear(in_features=2500, out_features=6000, bias=True)
          (in_batch norm): BatchNorm1d(6000, eps=1e-05, momentum=0.1, affine=True, track_running_stats=True)
          (in_activation): ReLU()
          (in_dropout): Dropout(p=0.2, inplace=False)
        )
        (1): Sequential(
          (0_linear): Linear(in_features=6000, out_features=2000, bias=True)
          (0_batch norm): BatchNorm1d(2000, eps=1e-05, momentum=0.1, affine=True, track_running_stats=True)
          (0_activation): ReLU()
          (0_dropout): Dropout(p=0.2, inplace=False)
        )
        (2): Sequential(
          (1_linear): Linear(in_features=2000, out_features=100, bias=True)
          (1_batch norm): BatchNorm1d(100, eps=1e-05, momentum=0.1, affine=True, track_running_stats=True)
          (1_activation): ReLU()
          (1_dropout): Dropout(p=0.2, inplace=False)
        )
      )
    )
    (theta_quantile): DynamicNeuralNetwork(
      (model_arch): ModuleList(
        (0): Sequential(
          (in_linear): Linear(in_features=2500, out_features=6000, bias=True)
          (in_batch norm): BatchNorm1d(6000, eps=1e-05, momentum=0.1, affine=True, track_running_stats=True)
          (in_activation): ReLU()
          (in_dropout): Dropout(p=0.2, inplace=False)
        )
        (1): Sequential(
          (0_linear): Linear(in_features=6000, out_features=2000, bias=True)
          (0_batch norm): BatchNorm1d(2000, eps=1e-05, momentum=0.1, affine=True, track_running_stats=True)
          (0_activation): ReLU()
          (0_dropout): Dropout(p=0.2, inplace=False)
        )
        (2): Sequential(
          (1_linear): Linear(in_features=2000, out_features=100, bias=True)
          (1_batch norm): BatchNorm1d(100, eps=1e-05, momentum=0.1, affine=True, track_running_stats=True)
          (1_activation): ReLU()
          (1_dropout): Dropout(p=0.2, inplace=False)
        )
      )
    )
    (alpha_quantile): DynamicNeuralNetwork(
      (model_arch): ModuleList(
        (0): Sequential(
          (in_linear): Linear(in_features=2500, out_features=6000, bias=True)
          (in_batch norm): BatchNorm1d(6000, eps=1e-05, momentum=0.1, affine=True, track_running_stats=True)
          (in_activation): ReLU()
          (in_dropout): Dropout(p=0.2, inplace=False)
        )
        (1): Sequential(
          (0_linear): Linear(in_features=6000, out_features=2000, bias=True)
          (0_batch norm): BatchNorm1d(2000, eps=1e-05, momentum=0.1, affine=True, track_running_stats=True)
          (0_activation): ReLU()
          (0_dropout): Dropout(p=0.2, inplace=False)
        )
        (2): Sequential(
          (1_linear): Linear(in_features=2000, out_features=100, bias=True)
          (1_batch norm): BatchNorm1d(100, eps=1e-05, momentum=0.1, affine=True, track_running_stats=True)
          (1_activation): ReLU()
          (1_dropout): Dropout(p=0.2, inplace=False)
        )
      )
    )
  )
  (_FeatureImitationNetwork__stage_2): DynamicNeuralNetwork(
    (model_arch): ModuleList(
      (0): Sequential(
        (in_linear): Linear(in_features=500, out_features=200, bias=True)
        (in_batch norm): BatchNorm1d(200, eps=1e-05, momentum=0.1, affine=True, track_running_stats=True)
        (in_activation): Tanh()
        (in_dropout): Dropout(p=0.2, inplace=False)
      )
      (1): Sequential(
        (0_linear): Linear(in_features=200, out_features=50, bias=True)
        (0_batch norm): BatchNorm1d(50, eps=1e-05, momentum=0.1, affine=True, track_running_stats=True)
        (0_activation): Tanh()
        (0_dropout): Dropout(p=0.2, inplace=False)
      )
      (2): Sequential(
        (out_linear): Linear(in_features=50, out_features=1, bias=True)
      )
    )
  )
)
[94mOptimizer Parameters:[0m
    [96mlearning rate [0m: 0.005050000000000001
    [96mmomentum      [0m: 0.1
    [96mweight decay  [0m: 0.0001
[1mStep[0m  [0/21], [94mLoss[0m : 11.02814
[1mStep[0m  [2/21], [94mLoss[0m : 11.06484
[1mStep[0m  [4/21], [94mLoss[0m : 11.02049
[1mStep[0m  [6/21], [94mLoss[0m : 10.84690
…
