…
-----------------
Process ID:  5
Number of Nodes:  1
Number of Array Tasks:  16
-----------------
Using device: cuda

AMD Instinct MI210
Memory Usage:
Allocated: 0.0 GB
Cached:    0.0 GB
theta
whole_spec
delta
alpha
beta
Following models where found:

dict_keys(['whole_spec_quantile', 'delta_quantile', 'beta_quantile', 'theta_quantile', 'alpha_quantile'])

Running on device: cuda
Model Architecture:
FeatureImitationNetwork(
  (_FeatureImitationNetwork__stage_1): ModuleDict(
    (whole_spec_quantile): DynamicNeuralNetwork(
      (model_arch): ModuleList(
        (0): Sequential(
          (in_linear): Linear(in_features=2500, out_features=6000, bias=True)
          (in_batch norm): BatchNorm1d(6000, eps=1e-05, momentum=0.1, affine=True, track_running_stats=True)
          (in_activation): ReLU()
          (in_dropout): Dropout(p=0.2, inplace=False)
        )
        (1): Sequential(
          (0_linear): Linear(in_features=6000, out_features=2000, bias=True)
          (0_batch norm): BatchNorm1d(2000, eps=1e-05, momentum=0.1, affine=True, track_running_stats=True)
          (0_activation): ReLU()
          (0_dropout): Dropout(p=0.2, inplace=False)
        )
        (2): Sequential(
          (1_linear): Linear(in_features=2000, out_features=100, bias=True)
          (1_batch norm): BatchNorm1d(100, eps=1e-05, momentum=0.1, affine=True, track_running_stats=True)
          (1_activation): ReLU()
          (1_dropout): Dropout(p=0.2, inplace=False)
        )
      )
    )
    (delta_quantile): DynamicNeuralNetwork(
      (model_arch): ModuleList(
        (0): Sequential(
          (in_linear): Linear(in_features=2500, out_features=6000, bias=True)
          (in_batch norm): BatchNorm1d(6000, eps=1e-05, momentum=0.1, affine=True, track_running_stats=True)
          (in_activation): ReLU()
          (in_dropout): Dropout(p=0.2, inplace=False)
        )
        (1): Sequential(
          (0_linear): Linear(in_features=6000, out_features=2000, bias=True)
          (0_batch norm): BatchNorm1d(2000, eps=1e-05, momentum=0.1, affine=True, track_running_stats=True)
          (0_activation): ReLU()
          (0_dropout): Dropout(p=0.2, inplace=False)
        )
        (2): Sequential(
          (1_linear): Linear(in_features=2000, out_features=100, bias=True)
          (1_batch norm): BatchNorm1d(100, eps=1e-05, momentum=0.1, affine=True, track_running_stats=True)
          (1_activation): ReLU()
          (1_dropout): Dropout(p=0.2, inplace=False)
        )
      )
    )
    (beta_quantile): DynamicNeuralNetwork(
      (model_arch): ModuleList(
        (0): Sequential(
          (in_linear): Linear(in_features=2500, out_features=6000, bias=True)
          (in_batch norm): BatchNorm1d(6000, eps=1e-05, momentum=0.1, affine=True, track_running_stats=True)
          (in_activation): ReLU()
          (in_dropout): Dropout(p=0.2, inplace=False)
        )
        (1): Sequential(
          (0_linear): Linear(in_features=6000, out_features=2000, bias=True)
          (0_batch norm): BatchNorm1d(2000, eps=1e-05, momentum=0.1, affine=True, track_running_stats=True)
          (0_activation): ReLU()
          (0_dropout): Dropout(p=0.2, inplace=False)
        )
        (2): Sequential(
          (1_linear): Linear(in_features=2000, out_features=100, bias=True)
          (1_batch norm): BatchNorm1d(100, eps=1e-05, momentum=0.1, affine=True, track_running_stats=True)
          (1_activation): ReLU()
          (1_dropout): Dropout(p=0.2, inplace=False)
        )
      )
    )
    (theta_quantile): DynamicNeuralNetwork(
      (model_arch): ModuleList(
        (0): Sequential(
          (in_linear): Linear(in_features=2500, out_features=6000, bias=True)
          (in_batch norm): BatchNorm1d(6000, eps=1e-05, momentum=0.1, affine=True, track_running_stats=True)
          (in_activation): ReLU()
          (in_dropout): Dropout(p=0.2, inplace=False)
        )
        (1): Sequential(
          (0_linear): Linear(in_features=6000, out_features=2000, bias=True)
          (0_batch norm): BatchNorm1d(2000, eps=1e-05, momentum=0.1, affine=True, track_running_stats=True)
          (0_activation): ReLU()
          (0_dropout): Dropout(p=0.2, inplace=False)
        )
        (2): Sequential(
          (1_linear): Linear(in_features=2000, out_features=100, bias=True)
          (1_batch norm): BatchNorm1d(100, eps=1e-05, momentum=0.1, affine=True, track_running_stats=True)
          (1_activation): ReLU()
          (1_dropout): Dropout(p=0.2, inplace=False)
        )
      )
    )
    (alpha_quantile): DynamicNeuralNetwork(
      (model_arch): ModuleList(
        (0): Sequential(
          (in_linear): Linear(in_features=2500, out_features=6000, bias=True)
          (in_batch norm): BatchNorm1d(6000, eps=1e-05, momentum=0.1, affine=True, track_running_stats=True)
          (in_activation): ReLU()
          (in_dropout): Dropout(p=0.2, inplace=False)
        )
        (1): Sequential(
          (0_linear): Linear(in_features=6000, out_features=2000, bias=True)
          (0_batch norm): BatchNorm1d(2000, eps=1e-05, momentum=0.1, affine=True, track_running_stats=True)
          (0_activation): ReLU()
          (0_dropout): Dropout(p=0.2, inplace=False)
        )
        (2): Sequential(
          (1_linear): Linear(in_features=2000, out_features=100, bias=True)
          (1_batch norm): BatchNorm1d(100, eps=1e-05, momentum=0.1, affine=True, track_running_stats=True)
          (1_activation): ReLU()
          (1_dropout): Dropout(p=0.2, inplace=False)
        )
      )
    )
  )
  (_FeatureImitationNetwork__stage_2): DynamicNeuralNetwork(
    (model_arch): ModuleList(
      (0): Sequential(
        (in_linear): Linear(in_features=500, out_features=300, bias=True)
        (in_batch norm): BatchNorm1d(300, eps=1e-05, momentum=0.1, affine=True, track_running_stats=True)
        (in_activation): ReLU()
        (in_dropout): Dropout(p=0.2, inplace=False)
      )
      (1): Sequential(
        (0_linear): Linear(in_features=300, out_features=100, bias=True)
        (0_batch norm): BatchNorm1d(100, eps=1e-05, momentum=0.1, affine=True, track_running_stats=True)
        (0_activation): ReLU()
        (0_dropout): Dropout(p=0.2, inplace=False)
      )
      (2): Sequential(
        (out_linear): Linear(in_features=100, out_features=1, bias=True)
      )
    )
  )
)
Running on device: cuda
Model Architecture:
FeatureImitationNetwork(
  (_FeatureImitationNetwork__stage_1): ModuleDict(
    (whole_spec_quantile): DynamicNeuralNetwork(
      (model_arch): ModuleList(
        (0): Sequential(
          (in_linear): Linear(in_features=2500, out_features=6000, bias=True)
          (in_batch norm): BatchNorm1d(6000, eps=1e-05, momentum=0.1, affine=True, track_running_stats=True)
          (in_activation): ReLU()
          (in_dropout): Dropout(p=0.2, inplace=False)
        )
        (1): Sequential(
          (0_linear): Linear(in_features=6000, out_features=2000, bias=True)
          (0_batch norm): BatchNorm1d(2000, eps=1e-05, momentum=0.1, affine=True, track_running_stats=True)
          (0_activation): ReLU()
          (0_dropout): Dropout(p=0.2, inplace=False)
        )
        (2): Sequential(
          (1_linear): Linear(in_features=2000, out_features=100, bias=True)
          (1_batch norm): BatchNorm1d(100, eps=1e-05, momentum=0.1, affine=True, track_running_stats=True)
          (1_activation): ReLU()
          (1_dropout): Dropout(p=0.2, inplace=False)
        )
      )
    )
    (delta_quantile): DynamicNeuralNetwork(
      (model_arch): ModuleList(
        (0): Sequential(
          (in_linear): Linear(in_features=2500, out_features=6000, bias=True)
          (in_batch norm): BatchNorm1d(6000, eps=1e-05, momentum=0.1, affine=True, track_running_stats=True)
          (in_activation): ReLU()
          (in_dropout): Dropout(p=0.2, inplace=False)
        )
        (1): Sequential(
          (0_linear): Linear(in_features=6000, out_features=2000, bias=True)
          (0_batch norm): BatchNorm1d(2000, eps=1e-05, momentum=0.1, affine=True, track_running_stats=True)
          (0_activation): ReLU()
          (0_dropout): Dropout(p=0.2, inplace=False)
        )
        (2): Sequential(
          (1_linear): Linear(in_features=2000, out_features=100, bias=True)
          (1_batch norm): BatchNorm1d(100, eps=1e-05, momentum=0.1, affine=True, track_running_stats=True)
          (1_activation): ReLU()
          (1_dropout): Dropout(p=0.2, inplace=False)
        )
      )
    )
    (beta_quantile): DynamicNeuralNetwork(
      (model_arch): ModuleList(
        (0): Sequential(
          (in_linear): Linear(in_features=2500, out_features=6000, bias=True)
          (in_batch norm): BatchNorm1d(6000, eps=1e-05, momentum=0.1, affine=True, track_running_stats=True)
          (in_activation): ReLU()
          (in_dropout): Dropout(p=0.2, inplace=False)
        )
        (1): Sequential(
          (0_linear): Linear(in_features=6000, out_features=2000, bias=True)
          (0_batch norm): BatchNorm1d(2000, eps=1e-05, momentum=0.1, affine=True, track_running_stats=True)
          (0_activation): ReLU()
          (0_dropout): Dropout(p=0.2, inplace=False)
        )
        (2): Sequential(
          (1_linear): Linear(in_features=2000, out_features=100, bias=True)
          (1_batch norm): BatchNorm1d(100, eps=1e-05, momentum=0.1, affine=True, track_running_stats=True)
          (1_activation): ReLU()
          (1_dropout): Dropout(p=0.2, inplace=False)
        )
      )
    )
    (theta_quantile): DynamicNeuralNetwork(
      (model_arch): ModuleList(
        (0): Sequential(
          (in_linear): Linear(in_features=2500, out_features=6000, bias=True)
          (in_batch norm): BatchNorm1d(6000, eps=1e-05, momentum=0.1, affine=True, track_running_stats=True)
          (in_activation): ReLU()
          (in_dropout): Dropout(p=0.2, inplace=False)
        )
        (1): Sequential(
          (0_linear): Linear(in_features=6000, out_features=2000, bias=True)
          (0_batch norm): BatchNorm1d(2000, eps=1e-05, momentum=0.1, affine=True, track_running_stats=True)
          (0_activation): ReLU()
          (0_dropout): Dropout(p=0.2, inplace=False)
        )
        (2): Sequential(
          (1_linear): Linear(in_features=2000, out_features=100, bias=True)
          (1_batch norm): BatchNorm1d(100, eps=1e-05, momentum=0.1, affine=True, track_running_stats=True)
          (1_activation): ReLU()
          (1_dropout): Dropout(p=0.2, inplace=False)
        )
      )
    )
    (alpha_quantile): DynamicNeuralNetwork(
      (model_arch): ModuleList(
        (0): Sequential(
          (in_linear): Linear(in_features=2500, out_features=6000, bias=True)
          (in_batch norm): BatchNorm1d(6000, eps=1e-05, momentum=0.1, affine=True, track_running_stats=True)
          (in_activation): ReLU()
          (in_dropout): Dropout(p=0.2, inplace=False)
        )
        (1): Sequential(
          (0_linear): Linear(in_features=6000, out_features=2000, bias=True)
          (0_batch norm): BatchNorm1d(2000, eps=1e-05, momentum=0.1, affine=True, track_running_stats=True)
          (0_activation): ReLU()
          (0_dropout): Dropout(p=0.2, inplace=False)
        )
        (2): Sequential(
          (1_linear): Linear(in_features=2000, out_features=100, bias=True)
          (1_batch norm): BatchNorm1d(100, eps=1e-05, momentum=0.1, affine=True, track_running_stats=True)
          (1_activation): ReLU()
          (1_dropout): Dropout(p=0.2, inplace=False)
        )
      )
    )
  )
  (_FeatureImitationNetwork__stage_2): DynamicNeuralNetwork(
    (model_arch): ModuleList(
      (0): Sequential(
        (in_linear): Linear(in_features=500, out_features=300, bias=True)
        (in_batch norm): BatchNorm1d(300, eps=1e-05, momentum=0.1, affine=True, track_running_stats=True)
        (in_activation): ReLU()
        (in_dropout): Dropout(p=0.2, inplace=False)
      )
      (1): Sequential(
        (0_linear): Linear(in_features=300, out_features=100, bias=True)
        (0_batch norm): BatchNorm1d(100, eps=1e-05, momentum=0.1, affine=True, track_running_stats=True)
        (0_activation): ReLU()
        (0_dropout): Dropout(p=0.2, inplace=False)
      )
      (2): Sequential(
        (out_linear): Linear(in_features=100, out_features=1, bias=True)
      )
    )
  )
)
[94mOptimizer Parameters:[0m
    [96mlearning rate [0m: 0.002575
    [96mmomentum      [0m: 0.9
    [96mweight decay  [0m: 0.001
[1mStep[0m  [0/53], [94mLoss[0m : 11.22830
[1mStep[0m  [5/53], [94mLoss[0m : 10.32521
[1mStep[0m  [10/53], [94mLoss[0m : 9.76103
[1mStep[0m  [15/53], [94mLoss[0m : 7.57034
[1mStep[0m  [20/53], [94mLoss[0m : 6.49528
…
epochs                    30
activation              relu
optimizer                sgd
early stopping          True
dropout                  0.2
momentum                 0.9
weight_decay           0.001
Name: 0, dtype: object
Following models where found:

dict_keys(['whole_spec_quantile', 'delta_quantile', 'beta_quantile', 'theta_quantile', 'alpha_quantile'])

Running on device: cuda
Model Architecture:
FeatureImitationNetwork(
  (_FeatureImitationNetwork__stage_1): ModuleDict(
    (whole_spec_quantile): DynamicNeuralNetwork(
      (model_arch): ModuleList(
        (0): Sequential(
          (in_linear): Linear(in_features=2500, out_features=6000, bias=True)
          (in_batch norm): BatchNorm1d(6000, eps=1e-05, momentum=0.1, affine=True, track_running_stats=True)
          (in_activation): ReLU()
          (in_dropout): Dropout(p=0.2, inplace=False)
        )
        (1): Sequential(
          (0_linear): Linear(in_features=6000, out_features=2000, bias=True)
          (0_batch norm): BatchNorm1d(2000, eps=1e-05, momentum=0.1, affine=True, track_running_stats=True)
          (0_activation): ReLU()
          (0_dropout): Dropout(p=0.2, inplace=False)
        )
        (2): Sequential(
          (1_linear): Linear(in_features=2000, out_features=100, bias=True)
          (1_batch norm): BatchNorm1d(100, eps=1e-05, momentum=0.1, affine=True, track_running_stats=True)
          (1_activation): ReLU()
          (1_dropout): Dropout(p=0.2, inplace=False)
        )
      )
    )
    (delta_quantile): DynamicNeuralNetwork(
      (model_arch): ModuleList(
        (0): Sequential(
          (in_linear): Linear(in_features=2500, out_features=6000, bias=True)
          (in_batch norm): BatchNorm1d(6000, eps=1e-05, momentum=0.1, affine=True, track_running_stats=True)
          (in_activation): ReLU()
          (in_dropout): Dropout(p=0.2, inplace=False)
        )
        (1): Sequential(
          (0_linear): Linear(in_features=6000, out_features=2000, bias=True)
          (0_batch norm): BatchNorm1d(2000, eps=1e-05, momentum=0.1, affine=True, track_running_stats=True)
          (0_activation): ReLU()
          (0_dropout): Dropout(p=0.2, inplace=False)
        )
        (2): Sequential(
          (1_linear): Linear(in_features=2000, out_features=100, bias=True)
          (1_batch norm): BatchNorm1d(100, eps=1e-05, momentum=0.1, affine=True, track_running_stats=True)
          (1_activation): ReLU()
          (1_dropout): Dropout(p=0.2, inplace=False)
        )
      )
    )
    (beta_quantile): DynamicNeuralNetwork(
      (model_arch): ModuleList(
        (0): Sequential(
          (in_linear): Linear(in_features=2500, out_features=6000, bias=True)
          (in_batch norm): BatchNorm1d(6000, eps=1e-05, momentum=0.1, affine=True, track_running_stats=True)
          (in_activation): ReLU()
          (in_dropout): Dropout(p=0.2, inplace=False)
        )
        (1): Sequential(
          (0_linear): Linear(in_features=6000, out_features=2000, bias=True)
          (0_batch norm): BatchNorm1d(2000, eps=1e-05, momentum=0.1, affine=True, track_running_stats=True)
          (0_activation): ReLU()
          (0_dropout): Dropout(p=0.2, inplace=False)
        )
        (2): Sequential(
          (1_linear): Linear(in_features=2000, out_features=100, bias=True)
          (1_batch norm): BatchNorm1d(100, eps=1e-05, momentum=0.1, affine=True, track_running_stats=True)
          (1_activation): ReLU()
          (1_dropout): Dropout(p=0.2, inplace=False)
        )
      )
    )
    (theta_quantile): DynamicNeuralNetwork(
      (model_arch): ModuleList(
        (0): Sequential(
          (in_linear): Linear(in_features=2500, out_features=6000, bias=True)
          (in_batch norm): BatchNorm1d(6000, eps=1e-05, momentum=0.1, affine=True, track_running_stats=True)
          (in_activation): ReLU()
          (in_dropout): Dropout(p=0.2, inplace=False)
        )
        (1): Sequential(
          (0_linear): Linear(in_features=6000, out_features=2000, bias=True)
          (0_batch norm): BatchNorm1d(2000, eps=1e-05, momentum=0.1, affine=True, track_running_stats=True)
          (0_activation): ReLU()
          (0_dropout): Dropout(p=0.2, inplace=False)
        )
        (2): Sequential(
          (1_linear): Linear(in_features=2000, out_features=100, bias=True)
          (1_batch norm): BatchNorm1d(100, eps=1e-05, momentum=0.1, affine=True, track_running_stats=True)
          (1_activation): ReLU()
          (1_dropout): Dropout(p=0.2, inplace=False)
        )
      )
    )
    (alpha_quantile): DynamicNeuralNetwork(
      (model_arch): ModuleList(
        (0): Sequential(
          (in_linear): Linear(in_features=2500, out_features=6000, bias=True)
          (in_batch norm): BatchNorm1d(6000, eps=1e-05, momentum=0.1, affine=True, track_running_stats=True)
          (in_activation): ReLU()
          (in_dropout): Dropout(p=0.2, inplace=False)
        )
        (1): Sequential(
          (0_linear): Linear(in_features=6000, out_features=2000, bias=True)
          (0_batch norm): BatchNorm1d(2000, eps=1e-05, momentum=0.1, affine=True, track_running_stats=True)
          (0_activation): ReLU()
          (0_dropout): Dropout(p=0.2, inplace=False)
        )
        (2): Sequential(
          (1_linear): Linear(in_features=2000, out_features=100, bias=True)
          (1_batch norm): BatchNorm1d(100, eps=1e-05, momentum=0.1, affine=True, track_running_stats=True)
          (1_activation): ReLU()
          (1_dropout): Dropout(p=0.2, inplace=False)
        )
      )
    )
  )
  (_FeatureImitationNetwork__stage_2): DynamicNeuralNetwork(
    (model_arch): ModuleList(
      (0): Sequential(
        (in_linear): Linear(in_features=500, out_features=300, bias=True)
        (in_batch norm): BatchNorm1d(300, eps=1e-05, momentum=0.1, affine=True, track_running_stats=True)
        (in_activation): ReLU()
        (in_dropout): Dropout(p=0.4, inplace=False)
      )
      (1): Sequential(
        (out_linear): Linear(in_features=300, out_features=1, bias=True)
      )
    )
  )
)
Running on device: cuda
Model Architecture:
FeatureImitationNetwork(
  (_FeatureImitationNetwork__stage_1): ModuleDict(
    (whole_spec_quantile): DynamicNeuralNetwork(
      (model_arch): ModuleList(
        (0): Sequential(
          (in_linear): Linear(in_features=2500, out_features=6000, bias=True)
          (in_batch norm): BatchNorm1d(6000, eps=1e-05, momentum=0.1, affine=True, track_running_stats=True)
          (in_activation): ReLU()
          (in_dropout): Dropout(p=0.2, inplace=False)
        )
        (1): Sequential(
          (0_linear): Linear(in_features=6000, out_features=2000, bias=True)
          (0_batch norm): BatchNorm1d(2000, eps=1e-05, momentum=0.1, affine=True, track_running_stats=True)
          (0_activation): ReLU()
          (0_dropout): Dropout(p=0.2, inplace=False)
        )
        (2): Sequential(
          (1_linear): Linear(in_features=2000, out_features=100, bias=True)
          (1_batch norm): BatchNorm1d(100, eps=1e-05, momentum=0.1, affine=True, track_running_stats=True)
          (1_activation): ReLU()
          (1_dropout): Dropout(p=0.2, inplace=False)
        )
      )
    )
    (delta_quantile): DynamicNeuralNetwork(
      (model_arch): ModuleList(
        (0): Sequential(
          (in_linear): Linear(in_features=2500, out_features=6000, bias=True)
          (in_batch norm): BatchNorm1d(6000, eps=1e-05, momentum=0.1, affine=True, track_running_stats=True)
          (in_activation): ReLU()
          (in_dropout): Dropout(p=0.2, inplace=False)
        )
        (1): Sequential(
          (0_linear): Linear(in_features=6000, out_features=2000, bias=True)
          (0_batch norm): BatchNorm1d(2000, eps=1e-05, momentum=0.1, affine=True, track_running_stats=True)
          (0_activation): ReLU()
          (0_dropout): Dropout(p=0.2, inplace=False)
        )
        (2): Sequential(
          (1_linear): Linear(in_features=2000, out_features=100, bias=True)
          (1_batch norm): BatchNorm1d(100, eps=1e-05, momentum=0.1, affine=True, track_running_stats=True)
          (1_activation): ReLU()
          (1_dropout): Dropout(p=0.2, inplace=False)
        )
      )
    )
    (beta_quantile): DynamicNeuralNetwork(
      (model_arch): ModuleList(
        (0): Sequential(
          (in_linear): Linear(in_features=2500, out_features=6000, bias=True)
          (in_batch norm): BatchNorm1d(6000, eps=1e-05, momentum=0.1, affine=True, track_running_stats=True)
          (in_activation): ReLU()
          (in_dropout): Dropout(p=0.2, inplace=False)
        )
        (1): Sequential(
          (0_linear): Linear(in_features=6000, out_features=2000, bias=True)
          (0_batch norm): BatchNorm1d(2000, eps=1e-05, momentum=0.1, affine=True, track_running_stats=True)
          (0_activation): ReLU()
          (0_dropout): Dropout(p=0.2, inplace=False)
        )
        (2): Sequential(
          (1_linear): Linear(in_features=2000, out_features=100, bias=True)
          (1_batch norm): BatchNorm1d(100, eps=1e-05, momentum=0.1, affine=True, track_running_stats=True)
          (1_activation): ReLU()
          (1_dropout): Dropout(p=0.2, inplace=False)
        )
      )
    )
    (theta_quantile): DynamicNeuralNetwork(
      (model_arch): ModuleList(
        (0): Sequential(
          (in_linear): Linear(in_features=2500, out_features=6000, bias=True)
          (in_batch norm): BatchNorm1d(6000, eps=1e-05, momentum=0.1, affine=True, track_running_stats=True)
          (in_activation): ReLU()
          (in_dropout): Dropout(p=0.2, inplace=False)
        )
        (1): Sequential(
          (0_linear): Linear(in_features=6000, out_features=2000, bias=True)
          (0_batch norm): BatchNorm1d(2000, eps=1e-05, momentum=0.1, affine=True, track_running_stats=True)
          (0_activation): ReLU()
          (0_dropout): Dropout(p=0.2, inplace=False)
        )
        (2): Sequential(
          (1_linear): Linear(in_features=2000, out_features=100, bias=True)
          (1_batch norm): BatchNorm1d(100, eps=1e-05, momentum=0.1, affine=True, track_running_stats=True)
          (1_activation): ReLU()
          (1_dropout): Dropout(p=0.2, inplace=False)
        )
      )
    )
    (alpha_quantile): DynamicNeuralNetwork(
      (model_arch): ModuleList(
        (0): Sequential(
          (in_linear): Linear(in_features=2500, out_features=6000, bias=True)
          (in_batch norm): BatchNorm1d(6000, eps=1e-05, momentum=0.1, affine=True, track_running_stats=True)
          (in_activation): ReLU()
          (in_dropout): Dropout(p=0.2, inplace=False)
        )
        (1): Sequential(
          (0_linear): Linear(in_features=6000, out_features=2000, bias=True)
          (0_batch norm): BatchNorm1d(2000, eps=1e-05, momentum=0.1, affine=True, track_running_stats=True)
          (0_activation): ReLU()
          (0_dropout): Dropout(p=0.2, inplace=False)
        )
        (2): Sequential(
          (1_linear): Linear(in_features=2000, out_features=100, bias=True)
          (1_batch norm): BatchNorm1d(100, eps=1e-05, momentum=0.1, affine=True, track_running_stats=True)
          (1_activation): ReLU()
          (1_dropout): Dropout(p=0.2, inplace=False)
        )
      )
    )
  )
  (_FeatureImitationNetwork__stage_2): DynamicNeuralNetwork(
    (model_arch): ModuleList(
      (0): Sequential(
        (in_linear): Linear(in_features=500, out_features=300, bias=True)
        (in_batch norm): BatchNorm1d(300, eps=1e-05, momentum=0.1, affine=True, track_running_stats=True)
        (in_activation): ReLU()
        (in_dropout): Dropout(p=0.4, inplace=False)
      )
      (1): Sequential(
        (out_linear): Linear(in_features=300, out_features=1, bias=True)
      )
    )
  )
)
[94mOptimizer Parameters:[0m
    [96mlearning rate [0m: 0.002575
    [96mmomentum      [0m: 0.1
    [96mweight decay  [0m: 0.01
[1mStep[0m  [0/26], [94mLoss[0m : 10.62031
[1mStep[0m  [2/26], [94mLoss[0m : 10.44573
[1mStep[0m  [4/26], [94mLoss[0m : 10.00120
[1mStep[0m  [6/26], [94mLoss[0m : 9.75002
[1mStep[0m  [8/26], [94mLoss[0m : 9.54204
…
hidden_sizes         [300]
epochs                  30
activation            relu
optimizer              sgd
early stopping       False
dropout                0.4
momentum               0.1
weight_decay          0.01
Name: 1, dtype: object
Following models where found:

dict_keys(['whole_spec_quantile', 'delta_quantile', 'beta_quantile', 'theta_quantile', 'alpha_quantile'])

Running on device: cuda
Model Architecture:
FeatureImitationNetwork(
  (_FeatureImitationNetwork__stage_1): ModuleDict(
    (whole_spec_quantile): DynamicNeuralNetwork(
      (model_arch): ModuleList(
        (0): Sequential(
          (in_linear): Linear(in_features=2500, out_features=6000, bias=True)
          (in_batch norm): BatchNorm1d(6000, eps=1e-05, momentum=0.1, affine=True, track_running_stats=True)
          (in_activation): ReLU()
          (in_dropout): Dropout(p=0.2, inplace=False)
        )
        (1): Sequential(
          (0_linear): Linear(in_features=6000, out_features=2000, bias=True)
          (0_batch norm): BatchNorm1d(2000, eps=1e-05, momentum=0.1, affine=True, track_running_stats=True)
          (0_activation): ReLU()
          (0_dropout): Dropout(p=0.2, inplace=False)
        )
        (2): Sequential(
          (1_linear): Linear(in_features=2000, out_features=100, bias=True)
          (1_batch norm): BatchNorm1d(100, eps=1e-05, momentum=0.1, affine=True, track_running_stats=True)
          (1_activation): ReLU()
          (1_dropout): Dropout(p=0.2, inplace=False)
        )
      )
    )
    (delta_quantile): DynamicNeuralNetwork(
      (model_arch): ModuleList(
        (0): Sequential(
          (in_linear): Linear(in_features=2500, out_features=6000, bias=True)
          (in_batch norm): BatchNorm1d(6000, eps=1e-05, momentum=0.1, affine=True, track_running_stats=True)
          (in_activation): ReLU()
          (in_dropout): Dropout(p=0.2, inplace=False)
        )
        (1): Sequential(
          (0_linear): Linear(in_features=6000, out_features=2000, bias=True)
          (0_batch norm): BatchNorm1d(2000, eps=1e-05, momentum=0.1, affine=True, track_running_stats=True)
          (0_activation): ReLU()
          (0_dropout): Dropout(p=0.2, inplace=False)
        )
        (2): Sequential(
          (1_linear): Linear(in_features=2000, out_features=100, bias=True)
          (1_batch norm): BatchNorm1d(100, eps=1e-05, momentum=0.1, affine=True, track_running_stats=True)
          (1_activation): ReLU()
          (1_dropout): Dropout(p=0.2, inplace=False)
        )
      )
    )
    (beta_quantile): DynamicNeuralNetwork(
      (model_arch): ModuleList(
        (0): Sequential(
          (in_linear): Linear(in_features=2500, out_features=6000, bias=True)
          (in_batch norm): BatchNorm1d(6000, eps=1e-05, momentum=0.1, affine=True, track_running_stats=True)
          (in_activation): ReLU()
          (in_dropout): Dropout(p=0.2, inplace=False)
        )
        (1): Sequential(
          (0_linear): Linear(in_features=6000, out_features=2000, bias=True)
          (0_batch norm): BatchNorm1d(2000, eps=1e-05, momentum=0.1, affine=True, track_running_stats=True)
          (0_activation): ReLU()
          (0_dropout): Dropout(p=0.2, inplace=False)
        )
        (2): Sequential(
          (1_linear): Linear(in_features=2000, out_features=100, bias=True)
          (1_batch norm): BatchNorm1d(100, eps=1e-05, momentum=0.1, affine=True, track_running_stats=True)
          (1_activation): ReLU()
          (1_dropout): Dropout(p=0.2, inplace=False)
        )
      )
    )
    (theta_quantile): DynamicNeuralNetwork(
      (model_arch): ModuleList(
        (0): Sequential(
          (in_linear): Linear(in_features=2500, out_features=6000, bias=True)
          (in_batch norm): BatchNorm1d(6000, eps=1e-05, momentum=0.1, affine=True, track_running_stats=True)
          (in_activation): ReLU()
          (in_dropout): Dropout(p=0.2, inplace=False)
        )
        (1): Sequential(
          (0_linear): Linear(in_features=6000, out_features=2000, bias=True)
          (0_batch norm): BatchNorm1d(2000, eps=1e-05, momentum=0.1, affine=True, track_running_stats=True)
          (0_activation): ReLU()
          (0_dropout): Dropout(p=0.2, inplace=False)
        )
        (2): Sequential(
          (1_linear): Linear(in_features=2000, out_features=100, bias=True)
          (1_batch norm): BatchNorm1d(100, eps=1e-05, momentum=0.1, affine=True, track_running_stats=True)
          (1_activation): ReLU()
          (1_dropout): Dropout(p=0.2, inplace=False)
        )
      )
    )
    (alpha_quantile): DynamicNeuralNetwork(
      (model_arch): ModuleList(
        (0): Sequential(
          (in_linear): Linear(in_features=2500, out_features=6000, bias=True)
          (in_batch norm): BatchNorm1d(6000, eps=1e-05, momentum=0.1, affine=True, track_running_stats=True)
          (in_activation): ReLU()
          (in_dropout): Dropout(p=0.2, inplace=False)
        )
        (1): Sequential(
          (0_linear): Linear(in_features=6000, out_features=2000, bias=True)
          (0_batch norm): BatchNorm1d(2000, eps=1e-05, momentum=0.1, affine=True, track_running_stats=True)
          (0_activation): ReLU()
          (0_dropout): Dropout(p=0.2, inplace=False)
        )
        (2): Sequential(
          (1_linear): Linear(in_features=2000, out_features=100, bias=True)
          (1_batch norm): BatchNorm1d(100, eps=1e-05, momentum=0.1, affine=True, track_running_stats=True)
          (1_activation): ReLU()
          (1_dropout): Dropout(p=0.2, inplace=False)
        )
      )
    )
  )
  (_FeatureImitationNetwork__stage_2): DynamicNeuralNetwork(
    (model_arch): ModuleList(
      (0): Sequential(
        (in_linear): Linear(in_features=500, out_features=100, bias=True)
        (in_batch norm): BatchNorm1d(100, eps=1e-05, momentum=0.1, affine=True, track_running_stats=True)
        (in_activation): Tanh()
        (in_dropout): Dropout(p=0.2, inplace=False)
      )
      (1): Sequential(
        (out_linear): Linear(in_features=100, out_features=1, bias=True)
      )
    )
  )
)
Running on device: cuda
Model Architecture:
FeatureImitationNetwork(
  (_FeatureImitationNetwork__stage_1): ModuleDict(
    (whole_spec_quantile): DynamicNeuralNetwork(
      (model_arch): ModuleList(
        (0): Sequential(
          (in_linear): Linear(in_features=2500, out_features=6000, bias=True)
          (in_batch norm): BatchNorm1d(6000, eps=1e-05, momentum=0.1, affine=True, track_running_stats=True)
          (in_activation): ReLU()
          (in_dropout): Dropout(p=0.2, inplace=False)
        )
        (1): Sequential(
          (0_linear): Linear(in_features=6000, out_features=2000, bias=True)
          (0_batch norm): BatchNorm1d(2000, eps=1e-05, momentum=0.1, affine=True, track_running_stats=True)
          (0_activation): ReLU()
          (0_dropout): Dropout(p=0.2, inplace=False)
        )
        (2): Sequential(
          (1_linear): Linear(in_features=2000, out_features=100, bias=True)
          (1_batch norm): BatchNorm1d(100, eps=1e-05, momentum=0.1, affine=True, track_running_stats=True)
          (1_activation): ReLU()
          (1_dropout): Dropout(p=0.2, inplace=False)
        )
      )
    )
    (delta_quantile): DynamicNeuralNetwork(
      (model_arch): ModuleList(
        (0): Sequential(
          (in_linear): Linear(in_features=2500, out_features=6000, bias=True)
          (in_batch norm): BatchNorm1d(6000, eps=1e-05, momentum=0.1, affine=True, track_running_stats=True)
          (in_activation): ReLU()
          (in_dropout): Dropout(p=0.2, inplace=False)
        )
        (1): Sequential(
          (0_linear): Linear(in_features=6000, out_features=2000, bias=True)
          (0_batch norm): BatchNorm1d(2000, eps=1e-05, momentum=0.1, affine=True, track_running_stats=True)
          (0_activation): ReLU()
          (0_dropout): Dropout(p=0.2, inplace=False)
        )
        (2): Sequential(
          (1_linear): Linear(in_features=2000, out_features=100, bias=True)
          (1_batch norm): BatchNorm1d(100, eps=1e-05, momentum=0.1, affine=True, track_running_stats=True)
          (1_activation): ReLU()
          (1_dropout): Dropout(p=0.2, inplace=False)
        )
      )
    )
    (beta_quantile): DynamicNeuralNetwork(
      (model_arch): ModuleList(
        (0): Sequential(
          (in_linear): Linear(in_features=2500, out_features=6000, bias=True)
          (in_batch norm): BatchNorm1d(6000, eps=1e-05, momentum=0.1, affine=True, track_running_stats=True)
          (in_activation): ReLU()
          (in_dropout): Dropout(p=0.2, inplace=False)
        )
        (1): Sequential(
          (0_linear): Linear(in_features=6000, out_features=2000, bias=True)
          (0_batch norm): BatchNorm1d(2000, eps=1e-05, momentum=0.1, affine=True, track_running_stats=True)
          (0_activation): ReLU()
          (0_dropout): Dropout(p=0.2, inplace=False)
        )
        (2): Sequential(
          (1_linear): Linear(in_features=2000, out_features=100, bias=True)
          (1_batch norm): BatchNorm1d(100, eps=1e-05, momentum=0.1, affine=True, track_running_stats=True)
          (1_activation): ReLU()
          (1_dropout): Dropout(p=0.2, inplace=False)
        )
      )
    )
    (theta_quantile): DynamicNeuralNetwork(
      (model_arch): ModuleList(
        (0): Sequential(
          (in_linear): Linear(in_features=2500, out_features=6000, bias=True)
          (in_batch norm): BatchNorm1d(6000, eps=1e-05, momentum=0.1, affine=True, track_running_stats=True)
          (in_activation): ReLU()
          (in_dropout): Dropout(p=0.2, inplace=False)
        )
        (1): Sequential(
          (0_linear): Linear(in_features=6000, out_features=2000, bias=True)
          (0_batch norm): BatchNorm1d(2000, eps=1e-05, momentum=0.1, affine=True, track_running_stats=True)
          (0_activation): ReLU()
          (0_dropout): Dropout(p=0.2, inplace=False)
        )
        (2): Sequential(
          (1_linear): Linear(in_features=2000, out_features=100, bias=True)
          (1_batch norm): BatchNorm1d(100, eps=1e-05, momentum=0.1, affine=True, track_running_stats=True)
          (1_activation): ReLU()
          (1_dropout): Dropout(p=0.2, inplace=False)
        )
      )
    )
    (alpha_quantile): DynamicNeuralNetwork(
      (model_arch): ModuleList(
        (0): Sequential(
          (in_linear): Linear(in_features=2500, out_features=6000, bias=True)
          (in_batch norm): BatchNorm1d(6000, eps=1e-05, momentum=0.1, affine=True, track_running_stats=True)
          (in_activation): ReLU()
          (in_dropout): Dropout(p=0.2, inplace=False)
        )
        (1): Sequential(
          (0_linear): Linear(in_features=6000, out_features=2000, bias=True)
          (0_batch norm): BatchNorm1d(2000, eps=1e-05, momentum=0.1, affine=True, track_running_stats=True)
          (0_activation): ReLU()
          (0_dropout): Dropout(p=0.2, inplace=False)
        )
        (2): Sequential(
          (1_linear): Linear(in_features=2000, out_features=100, bias=True)
          (1_batch norm): BatchNorm1d(100, eps=1e-05, momentum=0.1, affine=True, track_running_stats=True)
          (1_activation): ReLU()
          (1_dropout): Dropout(p=0.2, inplace=False)
        )
      )
    )
  )
  (_FeatureImitationNetwork__stage_2): DynamicNeuralNetwork(
    (model_arch): ModuleList(
      (0): Sequential(
        (in_linear): Linear(in_features=500, out_features=100, bias=True)
        (in_batch norm): BatchNorm1d(100, eps=1e-05, momentum=0.1, affine=True, track_running_stats=True)
        (in_activation): Tanh()
        (in_dropout): Dropout(p=0.2, inplace=False)
      )
      (1): Sequential(
        (out_linear): Linear(in_features=100, out_features=1, bias=True)
      )
    )
  )
)
[94mOptimizer Parameters:[0m
    [96mlearning rate [0m: 0.002575
    [96mmomentum      [0m: 0.1
    [96mweight decay  [0m: 0.001
[1mStep[0m  [0/53], [94mLoss[0m : 10.97995
[1mStep[0m  [5/53], [94mLoss[0m : 10.58254
[1mStep[0m  [10/53], [94mLoss[0m : 11.10756
[1mStep[0m  [15/53], [94mLoss[0m : 10.61058
[1mStep[0m  [20/53], [94mLoss[0m : 10.56567
…
hidden_sizes         [100]
epochs                  30
activation            tanh
optimizer              sgd
early stopping       False
dropout                0.2
momentum               0.1
weight_decay         0.001
Name: 2, dtype: object
Following models where found:

dict_keys(['whole_spec_quantile', 'delta_quantile', 'beta_quantile', 'theta_quantile', 'alpha_quantile'])

Running on device: cuda
Model Architecture:
FeatureImitationNetwork(
  (_FeatureImitationNetwork__stage_1): ModuleDict(
    (whole_spec_quantile): DynamicNeuralNetwork(
      (model_arch): ModuleList(
        (0): Sequential(
          (in_linear): Linear(in_features=2500, out_features=6000, bias=True)
          (in_batch norm): BatchNorm1d(6000, eps=1e-05, momentum=0.1, affine=True, track_running_stats=True)
          (in_activation): ReLU()
          (in_dropout): Dropout(p=0.2, inplace=False)
        )
        (1): Sequential(
          (0_linear): Linear(in_features=6000, out_features=2000, bias=True)
          (0_batch norm): BatchNorm1d(2000, eps=1e-05, momentum=0.1, affine=True, track_running_stats=True)
          (0_activation): ReLU()
          (0_dropout): Dropout(p=0.2, inplace=False)
        )
        (2): Sequential(
          (1_linear): Linear(in_features=2000, out_features=100, bias=True)
          (1_batch norm): BatchNorm1d(100, eps=1e-05, momentum=0.1, affine=True, track_running_stats=True)
          (1_activation): ReLU()
          (1_dropout): Dropout(p=0.2, inplace=False)
        )
      )
    )
    (delta_quantile): DynamicNeuralNetwork(
      (model_arch): ModuleList(
        (0): Sequential(
          (in_linear): Linear(in_features=2500, out_features=6000, bias=True)
          (in_batch norm): BatchNorm1d(6000, eps=1e-05, momentum=0.1, affine=True, track_running_stats=True)
          (in_activation): ReLU()
          (in_dropout): Dropout(p=0.2, inplace=False)
        )
        (1): Sequential(
          (0_linear): Linear(in_features=6000, out_features=2000, bias=True)
          (0_batch norm): BatchNorm1d(2000, eps=1e-05, momentum=0.1, affine=True, track_running_stats=True)
          (0_activation): ReLU()
          (0_dropout): Dropout(p=0.2, inplace=False)
        )
        (2): Sequential(
          (1_linear): Linear(in_features=2000, out_features=100, bias=True)
          (1_batch norm): BatchNorm1d(100, eps=1e-05, momentum=0.1, affine=True, track_running_stats=True)
          (1_activation): ReLU()
          (1_dropout): Dropout(p=0.2, inplace=False)
        )
      )
    )
    (beta_quantile): DynamicNeuralNetwork(
      (model_arch): ModuleList(
        (0): Sequential(
          (in_linear): Linear(in_features=2500, out_features=6000, bias=True)
          (in_batch norm): BatchNorm1d(6000, eps=1e-05, momentum=0.1, affine=True, track_running_stats=True)
          (in_activation): ReLU()
          (in_dropout): Dropout(p=0.2, inplace=False)
        )
        (1): Sequential(
          (0_linear): Linear(in_features=6000, out_features=2000, bias=True)
          (0_batch norm): BatchNorm1d(2000, eps=1e-05, momentum=0.1, affine=True, track_running_stats=True)
          (0_activation): ReLU()
          (0_dropout): Dropout(p=0.2, inplace=False)
        )
        (2): Sequential(
          (1_linear): Linear(in_features=2000, out_features=100, bias=True)
          (1_batch norm): BatchNorm1d(100, eps=1e-05, momentum=0.1, affine=True, track_running_stats=True)
          (1_activation): ReLU()
          (1_dropout): Dropout(p=0.2, inplace=False)
        )
      )
    )
    (theta_quantile): DynamicNeuralNetwork(
      (model_arch): ModuleList(
        (0): Sequential(
          (in_linear): Linear(in_features=2500, out_features=6000, bias=True)
          (in_batch norm): BatchNorm1d(6000, eps=1e-05, momentum=0.1, affine=True, track_running_stats=True)
          (in_activation): ReLU()
          (in_dropout): Dropout(p=0.2, inplace=False)
        )
        (1): Sequential(
          (0_linear): Linear(in_features=6000, out_features=2000, bias=True)
          (0_batch norm): BatchNorm1d(2000, eps=1e-05, momentum=0.1, affine=True, track_running_stats=True)
          (0_activation): ReLU()
          (0_dropout): Dropout(p=0.2, inplace=False)
        )
        (2): Sequential(
          (1_linear): Linear(in_features=2000, out_features=100, bias=True)
          (1_batch norm): BatchNorm1d(100, eps=1e-05, momentum=0.1, affine=True, track_running_stats=True)
          (1_activation): ReLU()
          (1_dropout): Dropout(p=0.2, inplace=False)
        )
      )
    )
    (alpha_quantile): DynamicNeuralNetwork(
      (model_arch): ModuleList(
        (0): Sequential(
          (in_linear): Linear(in_features=2500, out_features=6000, bias=True)
          (in_batch norm): BatchNorm1d(6000, eps=1e-05, momentum=0.1, affine=True, track_running_stats=True)
          (in_activation): ReLU()
          (in_dropout): Dropout(p=0.2, inplace=False)
        )
        (1): Sequential(
          (0_linear): Linear(in_features=6000, out_features=2000, bias=True)
          (0_batch norm): BatchNorm1d(2000, eps=1e-05, momentum=0.1, affine=True, track_running_stats=True)
          (0_activation): ReLU()
          (0_dropout): Dropout(p=0.2, inplace=False)
        )
        (2): Sequential(
          (1_linear): Linear(in_features=2000, out_features=100, bias=True)
          (1_batch norm): BatchNorm1d(100, eps=1e-05, momentum=0.1, affine=True, track_running_stats=True)
          (1_activation): ReLU()
          (1_dropout): Dropout(p=0.2, inplace=False)
        )
      )
    )
  )
  (_FeatureImitationNetwork__stage_2): DynamicNeuralNetwork(
    (model_arch): ModuleList(
      (0): Sequential(
        (in_linear): Linear(in_features=500, out_features=250, bias=True)
        (in_batch norm): BatchNorm1d(250, eps=1e-05, momentum=0.1, affine=True, track_running_stats=True)
        (in_activation): Tanh()
        (in_dropout): Dropout(p=0.2, inplace=False)
      )
      (1): Sequential(
        (0_linear): Linear(in_features=250, out_features=50, bias=True)
        (0_batch norm): BatchNorm1d(50, eps=1e-05, momentum=0.1, affine=True, track_running_stats=True)
        (0_activation): Tanh()
        (0_dropout): Dropout(p=0.2, inplace=False)
      )
      (2): Sequential(
        (out_linear): Linear(in_features=50, out_features=1, bias=True)
      )
    )
  )
)
Running on device: cuda
Model Architecture:
FeatureImitationNetwork(
  (_FeatureImitationNetwork__stage_1): ModuleDict(
    (whole_spec_quantile): DynamicNeuralNetwork(
      (model_arch): ModuleList(
        (0): Sequential(
          (in_linear): Linear(in_features=2500, out_features=6000, bias=True)
          (in_batch norm): BatchNorm1d(6000, eps=1e-05, momentum=0.1, affine=True, track_running_stats=True)
          (in_activation): ReLU()
          (in_dropout): Dropout(p=0.2, inplace=False)
        )
        (1): Sequential(
          (0_linear): Linear(in_features=6000, out_features=2000, bias=True)
          (0_batch norm): BatchNorm1d(2000, eps=1e-05, momentum=0.1, affine=True, track_running_stats=True)
          (0_activation): ReLU()
          (0_dropout): Dropout(p=0.2, inplace=False)
        )
        (2): Sequential(
          (1_linear): Linear(in_features=2000, out_features=100, bias=True)
          (1_batch norm): BatchNorm1d(100, eps=1e-05, momentum=0.1, affine=True, track_running_stats=True)
          (1_activation): ReLU()
          (1_dropout): Dropout(p=0.2, inplace=False)
        )
      )
    )
    (delta_quantile): DynamicNeuralNetwork(
      (model_arch): ModuleList(
        (0): Sequential(
          (in_linear): Linear(in_features=2500, out_features=6000, bias=True)
          (in_batch norm): BatchNorm1d(6000, eps=1e-05, momentum=0.1, affine=True, track_running_stats=True)
          (in_activation): ReLU()
          (in_dropout): Dropout(p=0.2, inplace=False)
        )
        (1): Sequential(
          (0_linear): Linear(in_features=6000, out_features=2000, bias=True)
          (0_batch norm): BatchNorm1d(2000, eps=1e-05, momentum=0.1, affine=True, track_running_stats=True)
          (0_activation): ReLU()
          (0_dropout): Dropout(p=0.2, inplace=False)
        )
        (2): Sequential(
          (1_linear): Linear(in_features=2000, out_features=100, bias=True)
          (1_batch norm): BatchNorm1d(100, eps=1e-05, momentum=0.1, affine=True, track_running_stats=True)
          (1_activation): ReLU()
          (1_dropout): Dropout(p=0.2, inplace=False)
        )
      )
    )
    (beta_quantile): DynamicNeuralNetwork(
      (model_arch): ModuleList(
        (0): Sequential(
          (in_linear): Linear(in_features=2500, out_features=6000, bias=True)
          (in_batch norm): BatchNorm1d(6000, eps=1e-05, momentum=0.1, affine=True, track_running_stats=True)
          (in_activation): ReLU()
          (in_dropout): Dropout(p=0.2, inplace=False)
        )
        (1): Sequential(
          (0_linear): Linear(in_features=6000, out_features=2000, bias=True)
          (0_batch norm): BatchNorm1d(2000, eps=1e-05, momentum=0.1, affine=True, track_running_stats=True)
          (0_activation): ReLU()
          (0_dropout): Dropout(p=0.2, inplace=False)
        )
        (2): Sequential(
          (1_linear): Linear(in_features=2000, out_features=100, bias=True)
          (1_batch norm): BatchNorm1d(100, eps=1e-05, momentum=0.1, affine=True, track_running_stats=True)
          (1_activation): ReLU()
          (1_dropout): Dropout(p=0.2, inplace=False)
        )
      )
    )
    (theta_quantile): DynamicNeuralNetwork(
      (model_arch): ModuleList(
        (0): Sequential(
          (in_linear): Linear(in_features=2500, out_features=6000, bias=True)
          (in_batch norm): BatchNorm1d(6000, eps=1e-05, momentum=0.1, affine=True, track_running_stats=True)
          (in_activation): ReLU()
          (in_dropout): Dropout(p=0.2, inplace=False)
        )
        (1): Sequential(
          (0_linear): Linear(in_features=6000, out_features=2000, bias=True)
          (0_batch norm): BatchNorm1d(2000, eps=1e-05, momentum=0.1, affine=True, track_running_stats=True)
          (0_activation): ReLU()
          (0_dropout): Dropout(p=0.2, inplace=False)
        )
        (2): Sequential(
          (1_linear): Linear(in_features=2000, out_features=100, bias=True)
          (1_batch norm): BatchNorm1d(100, eps=1e-05, momentum=0.1, affine=True, track_running_stats=True)
          (1_activation): ReLU()
          (1_dropout): Dropout(p=0.2, inplace=False)
        )
      )
    )
    (alpha_quantile): DynamicNeuralNetwork(
      (model_arch): ModuleList(
        (0): Sequential(
          (in_linear): Linear(in_features=2500, out_features=6000, bias=True)
          (in_batch norm): BatchNorm1d(6000, eps=1e-05, momentum=0.1, affine=True, track_running_stats=True)
          (in_activation): ReLU()
          (in_dropout): Dropout(p=0.2, inplace=False)
        )
        (1): Sequential(
          (0_linear): Linear(in_features=6000, out_features=2000, bias=True)
          (0_batch norm): BatchNorm1d(2000, eps=1e-05, momentum=0.1, affine=True, track_running_stats=True)
          (0_activation): ReLU()
          (0_dropout): Dropout(p=0.2, inplace=False)
        )
        (2): Sequential(
          (1_linear): Linear(in_features=2000, out_features=100, bias=True)
          (1_batch norm): BatchNorm1d(100, eps=1e-05, momentum=0.1, affine=True, track_running_stats=True)
          (1_activation): ReLU()
          (1_dropout): Dropout(p=0.2, inplace=False)
        )
      )
    )
  )
  (_FeatureImitationNetwork__stage_2): DynamicNeuralNetwork(
    (model_arch): ModuleList(
      (0): Sequential(
        (in_linear): Linear(in_features=500, out_features=250, bias=True)
        (in_batch norm): BatchNorm1d(250, eps=1e-05, momentum=0.1, affine=True, track_running_stats=True)
        (in_activation): Tanh()
        (in_dropout): Dropout(p=0.2, inplace=False)
      )
      (1): Sequential(
        (0_linear): Linear(in_features=250, out_features=50, bias=True)
        (0_batch norm): BatchNorm1d(50, eps=1e-05, momentum=0.1, affine=True, track_running_stats=True)
        (0_activation): Tanh()
        (0_dropout): Dropout(p=0.2, inplace=False)
      )
      (2): Sequential(
        (out_linear): Linear(in_features=50, out_features=1, bias=True)
      )
    )
  )
)
[94mOptimizer Parameters:[0m
    [96mlearning rate [0m: 0.002575
    [96mmomentum      [0m: 0.1
    [96mweight decay  [0m: 0.01
[1mStep[0m  [0/53], [94mLoss[0m : 10.67405
[1mStep[0m  [5/53], [94mLoss[0m : 11.06661
[1mStep[0m  [10/53], [94mLoss[0m : 10.34579
[1mStep[0m  [15/53], [94mLoss[0m : 10.78156
[1mStep[0m  [20/53], [94mLoss[0m : 10.96998
…
epochs                   30
activation             tanh
optimizer               sgd
early stopping        False
dropout                 0.2
momentum                0.1
weight_decay           0.01
Name: 3, dtype: object
Following models where found:

dict_keys(['whole_spec_quantile', 'delta_quantile', 'beta_quantile', 'theta_quantile', 'alpha_quantile'])

Running on device: cuda
Model Architecture:
FeatureImitationNetwork(
  (_FeatureImitationNetwork__stage_1): ModuleDict(
    (whole_spec_quantile): DynamicNeuralNetwork(
      (model_arch): ModuleList(
        (0): Sequential(
          (in_linear): Linear(in_features=2500, out_features=6000, bias=True)
          (in_batch norm): BatchNorm1d(6000, eps=1e-05, momentum=0.1, affine=True, track_running_stats=True)
          (in_activation): ReLU()
          (in_dropout): Dropout(p=0.2, inplace=False)
        )
        (1): Sequential(
          (0_linear): Linear(in_features=6000, out_features=2000, bias=True)
          (0_batch norm): BatchNorm1d(2000, eps=1e-05, momentum=0.1, affine=True, track_running_stats=True)
          (0_activation): ReLU()
          (0_dropout): Dropout(p=0.2, inplace=False)
        )
        (2): Sequential(
          (1_linear): Linear(in_features=2000, out_features=100, bias=True)
          (1_batch norm): BatchNorm1d(100, eps=1e-05, momentum=0.1, affine=True, track_running_stats=True)
          (1_activation): ReLU()
          (1_dropout): Dropout(p=0.2, inplace=False)
        )
      )
    )
    (delta_quantile): DynamicNeuralNetwork(
      (model_arch): ModuleList(
        (0): Sequential(
          (in_linear): Linear(in_features=2500, out_features=6000, bias=True)
          (in_batch norm): BatchNorm1d(6000, eps=1e-05, momentum=0.1, affine=True, track_running_stats=True)
          (in_activation): ReLU()
          (in_dropout): Dropout(p=0.2, inplace=False)
        )
        (1): Sequential(
          (0_linear): Linear(in_features=6000, out_features=2000, bias=True)
          (0_batch norm): BatchNorm1d(2000, eps=1e-05, momentum=0.1, affine=True, track_running_stats=True)
          (0_activation): ReLU()
          (0_dropout): Dropout(p=0.2, inplace=False)
        )
        (2): Sequential(
          (1_linear): Linear(in_features=2000, out_features=100, bias=True)
          (1_batch norm): BatchNorm1d(100, eps=1e-05, momentum=0.1, affine=True, track_running_stats=True)
          (1_activation): ReLU()
          (1_dropout): Dropout(p=0.2, inplace=False)
        )
      )
    )
    (beta_quantile): DynamicNeuralNetwork(
      (model_arch): ModuleList(
        (0): Sequential(
          (in_linear): Linear(in_features=2500, out_features=6000, bias=True)
          (in_batch norm): BatchNorm1d(6000, eps=1e-05, momentum=0.1, affine=True, track_running_stats=True)
          (in_activation): ReLU()
          (in_dropout): Dropout(p=0.2, inplace=False)
        )
        (1): Sequential(
          (0_linear): Linear(in_features=6000, out_features=2000, bias=True)
          (0_batch norm): BatchNorm1d(2000, eps=1e-05, momentum=0.1, affine=True, track_running_stats=True)
          (0_activation): ReLU()
          (0_dropout): Dropout(p=0.2, inplace=False)
        )
        (2): Sequential(
          (1_linear): Linear(in_features=2000, out_features=100, bias=True)
          (1_batch norm): BatchNorm1d(100, eps=1e-05, momentum=0.1, affine=True, track_running_stats=True)
          (1_activation): ReLU()
          (1_dropout): Dropout(p=0.2, inplace=False)
        )
      )
    )
    (theta_quantile): DynamicNeuralNetwork(
      (model_arch): ModuleList(
        (0): Sequential(
          (in_linear): Linear(in_features=2500, out_features=6000, bias=True)
          (in_batch norm): BatchNorm1d(6000, eps=1e-05, momentum=0.1, affine=True, track_running_stats=True)
          (in_activation): ReLU()
          (in_dropout): Dropout(p=0.2, inplace=False)
        )
        (1): Sequential(
          (0_linear): Linear(in_features=6000, out_features=2000, bias=True)
          (0_batch norm): BatchNorm1d(2000, eps=1e-05, momentum=0.1, affine=True, track_running_stats=True)
          (0_activation): ReLU()
          (0_dropout): Dropout(p=0.2, inplace=False)
        )
        (2): Sequential(
          (1_linear): Linear(in_features=2000, out_features=100, bias=True)
          (1_batch norm): BatchNorm1d(100, eps=1e-05, momentum=0.1, affine=True, track_running_stats=True)
          (1_activation): ReLU()
          (1_dropout): Dropout(p=0.2, inplace=False)
        )
      )
    )
    (alpha_quantile): DynamicNeuralNetwork(
      (model_arch): ModuleList(
        (0): Sequential(
          (in_linear): Linear(in_features=2500, out_features=6000, bias=True)
          (in_batch norm): BatchNorm1d(6000, eps=1e-05, momentum=0.1, affine=True, track_running_stats=True)
          (in_activation): ReLU()
          (in_dropout): Dropout(p=0.2, inplace=False)
        )
        (1): Sequential(
          (0_linear): Linear(in_features=6000, out_features=2000, bias=True)
          (0_batch norm): BatchNorm1d(2000, eps=1e-05, momentum=0.1, affine=True, track_running_stats=True)
          (0_activation): ReLU()
          (0_dropout): Dropout(p=0.2, inplace=False)
        )
        (2): Sequential(
          (1_linear): Linear(in_features=2000, out_features=100, bias=True)
          (1_batch norm): BatchNorm1d(100, eps=1e-05, momentum=0.1, affine=True, track_running_stats=True)
          (1_activation): ReLU()
          (1_dropout): Dropout(p=0.2, inplace=False)
        )
      )
    )
  )
  (_FeatureImitationNetwork__stage_2): DynamicNeuralNetwork(
    (model_arch): ModuleList(
      (0): Sequential(
        (in_linear): Linear(in_features=500, out_features=200, bias=True)
        (in_batch norm): BatchNorm1d(200, eps=1e-05, momentum=0.1, affine=True, track_running_stats=True)
        (in_activation): ReLU()
        (in_dropout): Dropout(p=0.3, inplace=False)
      )
      (1): Sequential(
        (0_linear): Linear(in_features=200, out_features=50, bias=True)
        (0_batch norm): BatchNorm1d(50, eps=1e-05, momentum=0.1, affine=True, track_running_stats=True)
        (0_activation): ReLU()
        (0_dropout): Dropout(p=0.3, inplace=False)
      )
      (2): Sequential(
        (out_linear): Linear(in_features=50, out_features=1, bias=True)
      )
    )
  )
)
Running on device: cuda
Model Architecture:
FeatureImitationNetwork(
  (_FeatureImitationNetwork__stage_1): ModuleDict(
    (whole_spec_quantile): DynamicNeuralNetwork(
      (model_arch): ModuleList(
        (0): Sequential(
          (in_linear): Linear(in_features=2500, out_features=6000, bias=True)
          (in_batch norm): BatchNorm1d(6000, eps=1e-05, momentum=0.1, affine=True, track_running_stats=True)
          (in_activation): ReLU()
          (in_dropout): Dropout(p=0.2, inplace=False)
        )
        (1): Sequential(
          (0_linear): Linear(in_features=6000, out_features=2000, bias=True)
          (0_batch norm): BatchNorm1d(2000, eps=1e-05, momentum=0.1, affine=True, track_running_stats=True)
          (0_activation): ReLU()
          (0_dropout): Dropout(p=0.2, inplace=False)
        )
        (2): Sequential(
          (1_linear): Linear(in_features=2000, out_features=100, bias=True)
          (1_batch norm): BatchNorm1d(100, eps=1e-05, momentum=0.1, affine=True, track_running_stats=True)
          (1_activation): ReLU()
          (1_dropout): Dropout(p=0.2, inplace=False)
        )
      )
    )
    (delta_quantile): DynamicNeuralNetwork(
      (model_arch): ModuleList(
        (0): Sequential(
          (in_linear): Linear(in_features=2500, out_features=6000, bias=True)
          (in_batch norm): BatchNorm1d(6000, eps=1e-05, momentum=0.1, affine=True, track_running_stats=True)
          (in_activation): ReLU()
          (in_dropout): Dropout(p=0.2, inplace=False)
        )
        (1): Sequential(
          (0_linear): Linear(in_features=6000, out_features=2000, bias=True)
          (0_batch norm): BatchNorm1d(2000, eps=1e-05, momentum=0.1, affine=True, track_running_stats=True)
          (0_activation): ReLU()
          (0_dropout): Dropout(p=0.2, inplace=False)
        )
        (2): Sequential(
          (1_linear): Linear(in_features=2000, out_features=100, bias=True)
          (1_batch norm): BatchNorm1d(100, eps=1e-05, momentum=0.1, affine=True, track_running_stats=True)
          (1_activation): ReLU()
          (1_dropout): Dropout(p=0.2, inplace=False)
        )
      )
    )
    (beta_quantile): DynamicNeuralNetwork(
      (model_arch): ModuleList(
        (0): Sequential(
          (in_linear): Linear(in_features=2500, out_features=6000, bias=True)
          (in_batch norm): BatchNorm1d(6000, eps=1e-05, momentum=0.1, affine=True, track_running_stats=True)
          (in_activation): ReLU()
          (in_dropout): Dropout(p=0.2, inplace=False)
        )
        (1): Sequential(
          (0_linear): Linear(in_features=6000, out_features=2000, bias=True)
          (0_batch norm): BatchNorm1d(2000, eps=1e-05, momentum=0.1, affine=True, track_running_stats=True)
          (0_activation): ReLU()
          (0_dropout): Dropout(p=0.2, inplace=False)
        )
        (2): Sequential(
          (1_linear): Linear(in_features=2000, out_features=100, bias=True)
          (1_batch norm): BatchNorm1d(100, eps=1e-05, momentum=0.1, affine=True, track_running_stats=True)
          (1_activation): ReLU()
          (1_dropout): Dropout(p=0.2, inplace=False)
        )
      )
    )
    (theta_quantile): DynamicNeuralNetwork(
      (model_arch): ModuleList(
        (0): Sequential(
          (in_linear): Linear(in_features=2500, out_features=6000, bias=True)
          (in_batch norm): BatchNorm1d(6000, eps=1e-05, momentum=0.1, affine=True, track_running_stats=True)
          (in_activation): ReLU()
          (in_dropout): Dropout(p=0.2, inplace=False)
        )
        (1): Sequential(
          (0_linear): Linear(in_features=6000, out_features=2000, bias=True)
          (0_batch norm): BatchNorm1d(2000, eps=1e-05, momentum=0.1, affine=True, track_running_stats=True)
          (0_activation): ReLU()
          (0_dropout): Dropout(p=0.2, inplace=False)
        )
        (2): Sequential(
          (1_linear): Linear(in_features=2000, out_features=100, bias=True)
          (1_batch norm): BatchNorm1d(100, eps=1e-05, momentum=0.1, affine=True, track_running_stats=True)
          (1_activation): ReLU()
          (1_dropout): Dropout(p=0.2, inplace=False)
        )
      )
    )
    (alpha_quantile): DynamicNeuralNetwork(
      (model_arch): ModuleList(
        (0): Sequential(
          (in_linear): Linear(in_features=2500, out_features=6000, bias=True)
          (in_batch norm): BatchNorm1d(6000, eps=1e-05, momentum=0.1, affine=True, track_running_stats=True)
          (in_activation): ReLU()
          (in_dropout): Dropout(p=0.2, inplace=False)
        )
        (1): Sequential(
          (0_linear): Linear(in_features=6000, out_features=2000, bias=True)
          (0_batch norm): BatchNorm1d(2000, eps=1e-05, momentum=0.1, affine=True, track_running_stats=True)
          (0_activation): ReLU()
          (0_dropout): Dropout(p=0.2, inplace=False)
        )
        (2): Sequential(
          (1_linear): Linear(in_features=2000, out_features=100, bias=True)
          (1_batch norm): BatchNorm1d(100, eps=1e-05, momentum=0.1, affine=True, track_running_stats=True)
          (1_activation): ReLU()
          (1_dropout): Dropout(p=0.2, inplace=False)
        )
      )
    )
  )
  (_FeatureImitationNetwork__stage_2): DynamicNeuralNetwork(
    (model_arch): ModuleList(
      (0): Sequential(
        (in_linear): Linear(in_features=500, out_features=200, bias=True)
        (in_batch norm): BatchNorm1d(200, eps=1e-05, momentum=0.1, affine=True, track_running_stats=True)
        (in_activation): ReLU()
        (in_dropout): Dropout(p=0.3, inplace=False)
      )
      (1): Sequential(
        (0_linear): Linear(in_features=200, out_features=50, bias=True)
        (0_batch norm): BatchNorm1d(50, eps=1e-05, momentum=0.1, affine=True, track_running_stats=True)
        (0_activation): ReLU()
        (0_dropout): Dropout(p=0.3, inplace=False)
      )
      (2): Sequential(
        (out_linear): Linear(in_features=50, out_features=1, bias=True)
      )
    )
  )
)
[94mOptimizer Parameters:[0m
    [96mlearning rate [0m: 0.002575
    [96mmomentum      [0m: 0.9
    [96mweight decay  [0m: 0.01
[1mStep[0m  [0/106], [94mLoss[0m : 10.84503
[1mStep[0m  [10/106], [94mLoss[0m : 10.12927
[1mStep[0m  [20/106], [94mLoss[0m : 8.25976
[1mStep[0m  [30/106], [94mLoss[0m : 6.43426
[1mStep[0m  [40/106], [94mLoss[0m : 4.42455
…
hidden_sizes         [300]
epochs                  30
activation            relu
optimizer              sgd
early stopping       False
dropout                0.2
momentum               0.5
weight_decay          0.01
Name: 8, dtype: object
Following models where found:

dict_keys(['whole_spec_quantile', 'delta_quantile', 'beta_quantile', 'theta_quantile', 'alpha_quantile'])

Running on device: cuda
Model Architecture:
FeatureImitationNetwork(
  (_FeatureImitationNetwork__stage_1): ModuleDict(
    (whole_spec_quantile): DynamicNeuralNetwork(
      (model_arch): ModuleList(
        (0): Sequential(
          (in_linear): Linear(in_features=2500, out_features=6000, bias=True)
          (in_batch norm): BatchNorm1d(6000, eps=1e-05, momentum=0.1, affine=True, track_running_stats=True)
          (in_activation): ReLU()
          (in_dropout): Dropout(p=0.2, inplace=False)
        )
        (1): Sequential(
          (0_linear): Linear(in_features=6000, out_features=2000, bias=True)
          (0_batch norm): BatchNorm1d(2000, eps=1e-05, momentum=0.1, affine=True, track_running_stats=True)
          (0_activation): ReLU()
          (0_dropout): Dropout(p=0.2, inplace=False)
        )
        (2): Sequential(
          (1_linear): Linear(in_features=2000, out_features=100, bias=True)
          (1_batch norm): BatchNorm1d(100, eps=1e-05, momentum=0.1, affine=True, track_running_stats=True)
          (1_activation): ReLU()
          (1_dropout): Dropout(p=0.2, inplace=False)
        )
      )
    )
    (delta_quantile): DynamicNeuralNetwork(
      (model_arch): ModuleList(
        (0): Sequential(
          (in_linear): Linear(in_features=2500, out_features=6000, bias=True)
          (in_batch norm): BatchNorm1d(6000, eps=1e-05, momentum=0.1, affine=True, track_running_stats=True)
          (in_activation): ReLU()
          (in_dropout): Dropout(p=0.2, inplace=False)
        )
        (1): Sequential(
          (0_linear): Linear(in_features=6000, out_features=2000, bias=True)
          (0_batch norm): BatchNorm1d(2000, eps=1e-05, momentum=0.1, affine=True, track_running_stats=True)
          (0_activation): ReLU()
          (0_dropout): Dropout(p=0.2, inplace=False)
        )
        (2): Sequential(
          (1_linear): Linear(in_features=2000, out_features=100, bias=True)
          (1_batch norm): BatchNorm1d(100, eps=1e-05, momentum=0.1, affine=True, track_running_stats=True)
          (1_activation): ReLU()
          (1_dropout): Dropout(p=0.2, inplace=False)
        )
      )
    )
    (beta_quantile): DynamicNeuralNetwork(
      (model_arch): ModuleList(
        (0): Sequential(
          (in_linear): Linear(in_features=2500, out_features=6000, bias=True)
          (in_batch norm): BatchNorm1d(6000, eps=1e-05, momentum=0.1, affine=True, track_running_stats=True)
          (in_activation): ReLU()
          (in_dropout): Dropout(p=0.2, inplace=False)
        )
        (1): Sequential(
          (0_linear): Linear(in_features=6000, out_features=2000, bias=True)
          (0_batch norm): BatchNorm1d(2000, eps=1e-05, momentum=0.1, affine=True, track_running_stats=True)
          (0_activation): ReLU()
          (0_dropout): Dropout(p=0.2, inplace=False)
        )
        (2): Sequential(
          (1_linear): Linear(in_features=2000, out_features=100, bias=True)
          (1_batch norm): BatchNorm1d(100, eps=1e-05, momentum=0.1, affine=True, track_running_stats=True)
          (1_activation): ReLU()
          (1_dropout): Dropout(p=0.2, inplace=False)
        )
      )
    )
    (theta_quantile): DynamicNeuralNetwork(
      (model_arch): ModuleList(
        (0): Sequential(
          (in_linear): Linear(in_features=2500, out_features=6000, bias=True)
          (in_batch norm): BatchNorm1d(6000, eps=1e-05, momentum=0.1, affine=True, track_running_stats=True)
          (in_activation): ReLU()
          (in_dropout): Dropout(p=0.2, inplace=False)
        )
        (1): Sequential(
          (0_linear): Linear(in_features=6000, out_features=2000, bias=True)
          (0_batch norm): BatchNorm1d(2000, eps=1e-05, momentum=0.1, affine=True, track_running_stats=True)
          (0_activation): ReLU()
          (0_dropout): Dropout(p=0.2, inplace=False)
        )
        (2): Sequential(
          (1_linear): Linear(in_features=2000, out_features=100, bias=True)
          (1_batch norm): BatchNorm1d(100, eps=1e-05, momentum=0.1, affine=True, track_running_stats=True)
          (1_activation): ReLU()
          (1_dropout): Dropout(p=0.2, inplace=False)
        )
      )
    )
    (alpha_quantile): DynamicNeuralNetwork(
      (model_arch): ModuleList(
        (0): Sequential(
          (in_linear): Linear(in_features=2500, out_features=6000, bias=True)
          (in_batch norm): BatchNorm1d(6000, eps=1e-05, momentum=0.1, affine=True, track_running_stats=True)
          (in_activation): ReLU()
          (in_dropout): Dropout(p=0.2, inplace=False)
        )
        (1): Sequential(
          (0_linear): Linear(in_features=6000, out_features=2000, bias=True)
          (0_batch norm): BatchNorm1d(2000, eps=1e-05, momentum=0.1, affine=True, track_running_stats=True)
          (0_activation): ReLU()
          (0_dropout): Dropout(p=0.2, inplace=False)
        )
        (2): Sequential(
          (1_linear): Linear(in_features=2000, out_features=100, bias=True)
          (1_batch norm): BatchNorm1d(100, eps=1e-05, momentum=0.1, affine=True, track_running_stats=True)
          (1_activation): ReLU()
          (1_dropout): Dropout(p=0.2, inplace=False)
        )
      )
    )
  )
  (_FeatureImitationNetwork__stage_2): DynamicNeuralNetwork(
    (model_arch): ModuleList(
      (0): Sequential(
        (in_linear): Linear(in_features=500, out_features=250, bias=True)
        (in_batch norm): BatchNorm1d(250, eps=1e-05, momentum=0.1, affine=True, track_running_stats=True)
        (in_activation): Tanh()
        (in_dropout): Dropout(p=0.2, inplace=False)
      )
      (1): Sequential(
        (out_linear): Linear(in_features=250, out_features=1, bias=True)
      )
    )
  )
)
Running on device: cuda
Model Architecture:
FeatureImitationNetwork(
  (_FeatureImitationNetwork__stage_1): ModuleDict(
    (whole_spec_quantile): DynamicNeuralNetwork(
      (model_arch): ModuleList(
        (0): Sequential(
          (in_linear): Linear(in_features=2500, out_features=6000, bias=True)
          (in_batch norm): BatchNorm1d(6000, eps=1e-05, momentum=0.1, affine=True, track_running_stats=True)
          (in_activation): ReLU()
          (in_dropout): Dropout(p=0.2, inplace=False)
        )
        (1): Sequential(
          (0_linear): Linear(in_features=6000, out_features=2000, bias=True)
          (0_batch norm): BatchNorm1d(2000, eps=1e-05, momentum=0.1, affine=True, track_running_stats=True)
          (0_activation): ReLU()
          (0_dropout): Dropout(p=0.2, inplace=False)
        )
        (2): Sequential(
          (1_linear): Linear(in_features=2000, out_features=100, bias=True)
          (1_batch norm): BatchNorm1d(100, eps=1e-05, momentum=0.1, affine=True, track_running_stats=True)
          (1_activation): ReLU()
          (1_dropout): Dropout(p=0.2, inplace=False)
        )
      )
    )
    (delta_quantile): DynamicNeuralNetwork(
      (model_arch): ModuleList(
        (0): Sequential(
          (in_linear): Linear(in_features=2500, out_features=6000, bias=True)
          (in_batch norm): BatchNorm1d(6000, eps=1e-05, momentum=0.1, affine=True, track_running_stats=True)
          (in_activation): ReLU()
          (in_dropout): Dropout(p=0.2, inplace=False)
        )
        (1): Sequential(
          (0_linear): Linear(in_features=6000, out_features=2000, bias=True)
          (0_batch norm): BatchNorm1d(2000, eps=1e-05, momentum=0.1, affine=True, track_running_stats=True)
          (0_activation): ReLU()
          (0_dropout): Dropout(p=0.2, inplace=False)
        )
        (2): Sequential(
          (1_linear): Linear(in_features=2000, out_features=100, bias=True)
          (1_batch norm): BatchNorm1d(100, eps=1e-05, momentum=0.1, affine=True, track_running_stats=True)
          (1_activation): ReLU()
          (1_dropout): Dropout(p=0.2, inplace=False)
        )
      )
    )
    (beta_quantile): DynamicNeuralNetwork(
      (model_arch): ModuleList(
        (0): Sequential(
          (in_linear): Linear(in_features=2500, out_features=6000, bias=True)
          (in_batch norm): BatchNorm1d(6000, eps=1e-05, momentum=0.1, affine=True, track_running_stats=True)
          (in_activation): ReLU()
          (in_dropout): Dropout(p=0.2, inplace=False)
        )
        (1): Sequential(
          (0_linear): Linear(in_features=6000, out_features=2000, bias=True)
          (0_batch norm): BatchNorm1d(2000, eps=1e-05, momentum=0.1, affine=True, track_running_stats=True)
          (0_activation): ReLU()
          (0_dropout): Dropout(p=0.2, inplace=False)
        )
        (2): Sequential(
          (1_linear): Linear(in_features=2000, out_features=100, bias=True)
          (1_batch norm): BatchNorm1d(100, eps=1e-05, momentum=0.1, affine=True, track_running_stats=True)
          (1_activation): ReLU()
          (1_dropout): Dropout(p=0.2, inplace=False)
        )
      )
    )
    (theta_quantile): DynamicNeuralNetwork(
      (model_arch): ModuleList(
        (0): Sequential(
          (in_linear): Linear(in_features=2500, out_features=6000, bias=True)
          (in_batch norm): BatchNorm1d(6000, eps=1e-05, momentum=0.1, affine=True, track_running_stats=True)
          (in_activation): ReLU()
          (in_dropout): Dropout(p=0.2, inplace=False)
        )
        (1): Sequential(
          (0_linear): Linear(in_features=6000, out_features=2000, bias=True)
          (0_batch norm): BatchNorm1d(2000, eps=1e-05, momentum=0.1, affine=True, track_running_stats=True)
          (0_activation): ReLU()
          (0_dropout): Dropout(p=0.2, inplace=False)
        )
        (2): Sequential(
          (1_linear): Linear(in_features=2000, out_features=100, bias=True)
          (1_batch norm): BatchNorm1d(100, eps=1e-05, momentum=0.1, affine=True, track_running_stats=True)
          (1_activation): ReLU()
          (1_dropout): Dropout(p=0.2, inplace=False)
        )
      )
    )
    (alpha_quantile): DynamicNeuralNetwork(
      (model_arch): ModuleList(
        (0): Sequential(
          (in_linear): Linear(in_features=2500, out_features=6000, bias=True)
          (in_batch norm): BatchNorm1d(6000, eps=1e-05, momentum=0.1, affine=True, track_running_stats=True)
          (in_activation): ReLU()
          (in_dropout): Dropout(p=0.2, inplace=False)
        )
        (1): Sequential(
          (0_linear): Linear(in_features=6000, out_features=2000, bias=True)
          (0_batch norm): BatchNorm1d(2000, eps=1e-05, momentum=0.1, affine=True, track_running_stats=True)
          (0_activation): ReLU()
          (0_dropout): Dropout(p=0.2, inplace=False)
        )
        (2): Sequential(
          (1_linear): Linear(in_features=2000, out_features=100, bias=True)
          (1_batch norm): BatchNorm1d(100, eps=1e-05, momentum=0.1, affine=True, track_running_stats=True)
          (1_activation): ReLU()
          (1_dropout): Dropout(p=0.2, inplace=False)
        )
      )
    )
  )
  (_FeatureImitationNetwork__stage_2): DynamicNeuralNetwork(
    (model_arch): ModuleList(
      (0): Sequential(
        (in_linear): Linear(in_features=500, out_features=250, bias=True)
        (in_batch norm): BatchNorm1d(250, eps=1e-05, momentum=0.1, affine=True, track_running_stats=True)
        (in_activation): Tanh()
        (in_dropout): Dropout(p=0.2, inplace=False)
      )
      (1): Sequential(
        (out_linear): Linear(in_features=250, out_features=1, bias=True)
      )
    )
  )
)
[94mOptimizer Parameters:[0m
    [96mlearning rate [0m: 0.002575
    [96mmomentum      [0m: 0.5
    [96mweight decay  [0m: 0.0001
[1mStep[0m  [0/53], [94mLoss[0m : 10.77897
[1mStep[0m  [5/53], [94mLoss[0m : 11.05833
[1mStep[0m  [10/53], [94mLoss[0m : 10.99696
[1mStep[0m  [15/53], [94mLoss[0m : 11.06077
[1mStep[0m  [20/53], [94mLoss[0m : 10.56884
…
[1mStep[0m  [50/53], [94mLoss[0m : 2.60746

====================================
[1mEpoch[0m [29/30], [94mTrain[0m: 2.629, [92mTest[0m: 2.453, [96mlr[0m: 0.0023175
====================================

====================================
[92mFinal Evaluation MAE Loss[0m: 2.430
====================================

Phase 1 - Evaluation MAE:  2.429964670768151
Running on device: cuda
Model Architecture:
FeatureImitationNetwork(
  (_FeatureImitationNetwork__stage_1): ModuleDict(
    (whole_spec_quantile): DynamicNeuralNetwork(
      (model_arch): ModuleList(
        (0): Sequential(
          (in_linear): Linear(in_features=2500, out_features=6000, bias=True)
          (in_batch norm): BatchNorm1d(6000, eps=1e-05, momentum=0.1, affine=True, track_running_stats=True)
          (in_activation): ReLU()
          (in_dropout): Dropout(p=0.2, inplace=False)
        )
        (1): Sequential(
          (0_linear): Linear(in_features=6000, out_features=2000, bias=True)
          (0_batch norm): BatchNorm1d(2000, eps=1e-05, momentum=0.1, affine=True, track_running_stats=True)
          (0_activation): ReLU()
          (0_dropout): Dropout(p=0.2, inplace=False)
        )
        (2): Sequential(
          (1_linear): Linear(in_features=2000, out_features=100, bias=True)
          (1_batch norm): BatchNorm1d(100, eps=1e-05, momentum=0.1, affine=True, track_running_stats=True)
          (1_activation): ReLU()
          (1_dropout): Dropout(p=0.2, inplace=False)
        )
      )
    )
    (delta_quantile): DynamicNeuralNetwork(
      (model_arch): ModuleList(
        (0): Sequential(
          (in_linear): Linear(in_features=2500, out_features=6000, bias=True)
          (in_batch norm): BatchNorm1d(6000, eps=1e-05, momentum=0.1, affine=True, track_running_stats=True)
          (in_activation): ReLU()
          (in_dropout): Dropout(p=0.2, inplace=False)
        )
        (1): Sequential(
          (0_linear): Linear(in_features=6000, out_features=2000, bias=True)
          (0_batch norm): BatchNorm1d(2000, eps=1e-05, momentum=0.1, affine=True, track_running_stats=True)
          (0_activation): ReLU()
          (0_dropout): Dropout(p=0.2, inplace=False)
        )
        (2): Sequential(
          (1_linear): Linear(in_features=2000, out_features=100, bias=True)
          (1_batch norm): BatchNorm1d(100, eps=1e-05, momentum=0.1, affine=True, track_running_stats=True)
          (1_activation): ReLU()
          (1_dropout): Dropout(p=0.2, inplace=False)
        )
      )
    )
    (beta_quantile): DynamicNeuralNetwork(
      (model_arch): ModuleList(
        (0): Sequential(
          (in_linear): Linear(in_features=2500, out_features=6000, bias=True)
          (in_batch norm): BatchNorm1d(6000, eps=1e-05, momentum=0.1, affine=True, track_running_stats=True)
          (in_activation): ReLU()
          (in_dropout): Dropout(p=0.2, inplace=False)
        )
        (1): Sequential(
          (0_linear): Linear(in_features=6000, out_features=2000, bias=True)
          (0_batch norm): BatchNorm1d(2000, eps=1e-05, momentum=0.1, affine=True, track_running_stats=True)
          (0_activation): ReLU()
          (0_dropout): Dropout(p=0.2, inplace=False)
        )
        (2): Sequential(
          (1_linear): Linear(in_features=2000, out_features=100, bias=True)
          (1_batch norm): BatchNorm1d(100, eps=1e-05, momentum=0.1, affine=True, track_running_stats=True)
          (1_activation): ReLU()
          (1_dropout): Dropout(p=0.2, inplace=False)
        )
      )
    )
    (theta_quantile): DynamicNeuralNetwork(
      (model_arch): ModuleList(
        (0): Sequential(
          (in_linear): Linear(in_features=2500, out_features=6000, bias=True)
          (in_batch norm): BatchNorm1d(6000, eps=1e-05, momentum=0.1, affine=True, track_running_stats=True)
          (in_activation): ReLU()
          (in_dropout): Dropout(p=0.2, inplace=False)
        )
        (1): Sequential(
          (0_linear): Linear(in_features=6000, out_features=2000, bias=True)
          (0_batch norm): BatchNorm1d(2000, eps=1e-05, momentum=0.1, affine=True, track_running_stats=True)
          (0_activation): ReLU()
          (0_dropout): Dropout(p=0.2, inplace=False)
        )
        (2): Sequential(
          (1_linear): Linear(in_features=2000, out_features=100, bias=True)
          (1_batch norm): BatchNorm1d(100, eps=1e-05, momentum=0.1, affine=True, track_running_stats=True)
          (1_activation): ReLU()
          (1_dropout): Dropout(p=0.2, inplace=False)
        )
      )
    )
    (alpha_quantile): DynamicNeuralNetwork(
      (model_arch): ModuleList(
        (0): Sequential(
          (in_linear): Linear(in_features=2500, out_features=6000, bias=True)
          (in_batch norm): BatchNorm1d(6000, eps=1e-05, momentum=0.1, affine=True, track_running_stats=True)
          (in_activation): ReLU()
          (in_dropout): Dropout(p=0.2, inplace=False)
        )
        (1): Sequential(
          (0_linear): Linear(in_features=6000, out_features=2000, bias=True)
          (0_batch norm): BatchNorm1d(2000, eps=1e-05, momentum=0.1, affine=True, track_running_stats=True)
          (0_activation): ReLU()
          (0_dropout): Dropout(p=0.2, inplace=False)
        )
        (2): Sequential(
          (1_linear): Linear(in_features=2000, out_features=100, bias=True)
          (1_batch norm): BatchNorm1d(100, eps=1e-05, momentum=0.1, affine=True, track_running_stats=True)
          (1_activation): ReLU()
          (1_dropout): Dropout(p=0.2, inplace=False)
        )
      )
    )
  )
  (_FeatureImitationNetwork__stage_2): DynamicNeuralNetwork(
    (model_arch): ModuleList(
      (0): Sequential(
        (in_linear): Linear(in_features=500, out_features=200, bias=True)
        (in_batch norm): BatchNorm1d(200, eps=1e-05, momentum=0.1, affine=True, track_running_stats=True)
        (in_activation): ReLU()
        (in_dropout): Dropout(p=0.3, inplace=False)
      )
      (1): Sequential(
        (0_linear): Linear(in_features=200, out_features=50, bias=True)
        (0_batch norm): BatchNorm1d(50, eps=1e-05, momentum=0.1, affine=True, track_running_stats=True)
        (0_activation): ReLU()
        (0_dropout): Dropout(p=0.3, inplace=False)
      )
      (2): Sequential(
        (out_linear): Linear(in_features=50, out_features=1, bias=True)
      )
    )
  )
)
Running on device: cuda
Model Architecture:
